cartpole_model.pt (torch, 238322 bytes, 33 tensors)

shared.0.weight f4 [128, 4]
0.41859642 0.2377228 0.5863588 0.09039327 -0.43258223 0.11947488 -0.11138495 -0.070942506
0.37104642 -0.32749942 -0.5321875 -0.4029392 0.010952357 -0.38157985 -0.018632697 -0.3605655
0.23423298 -0.44746786 -0.38068604 -0.3485701 0.58200336 -0.30180946 0.3545568 -0.28303233
-0.39139888 -0.10962455 -0.5476638 0.26282865 -0.40121508 -0.2851333 0.62085676 -0.13845386
-0.45957184 -0.35027808 -0.37330756 -0.28993648 -0.29489756 0.48113778 0.17523533 0.5211471
-0.1667075 0.41686532 -0.3111169 0.39495048 0.22011729 -0.2709003 0.9124317 0.18790637
-0.2330359 0.29288584 0.2268178 0.42839777 0.3209203 0.08081217 0.34095308 -0.39119312
-0.51080775 -0.08917025 0.39266637 0.18378277 -0.22182663 -0.16804098 -0.4779554 0.40086052
0.39849892 -0.43469942 0.34393752 -0.0075668474 0.11933619 0.3413936 -0.8506409 -0.03890373
-0.4902611 0.022014404 -0.22345805 0.081676796 0.14077355 -0.13543622 0.9065907 0.06321357
0.07056711 0.19997682 0.81836677 0.37925115 -0.100856714 0.23703219 0.3063731 0.3582587
0.095040895 -0.05234476 0.08826848 -0.35466006 -0.25582668 -0.23691514 0.1431661 0.22391117
-0.44568264 -0.2535827 0.48089215 -0.174386 0.27398494 -0.26427805 0.53131247 -0.034922514
0.134406 -0.38682574 -0.44014093 -0.33670223 -0.05255474 0.22206028 -0.35596126 0.07239829
0.42464447 0.45016706 0.27547646 0.35423884 -0.2069799 -0.16918005 -0.7016582 -0.1374629
-0.15508734 -0.11518989 0.67349863 0.28805047 0.18288958 0.28586417 0.12775302 -0.38395172
0.2990361 0.34474885 0.077813976 -0.14458542 -0.3038948 -0.11015654 0.58353907 0.20135422
-0.34580702 -0.1888844 0.3718525 -0.12814921 0.51497555 -0.152618 -0.15673696 -0.44285747
-0.2296029 -0.2953884 -0.17520534 -0.3926381 0.23073718 0.10199431 -0.30686256 0.47864562
-0.11379223 0.17416346 -0.5594972 -0.024443818 -0.11666771 -0.574994 0.21571659 -0.31442577
-0.17684174 0.29040104 -0.6711078 -0.06926884 -0.16918136 -0.2922069 -0.42006895 -0.46755543
-0.2712469 0.18847297 0.40815234 0.19712365 -0.060697123 0.33303174 0.28655273 -0.14923042
0.07926418 0.43637767 0.89674985 0.33765632 0.027095057 0.15188798 -0.09944494 0.4954372
0.5082006 -0.03617892 -0.42358106 -0.19719025 0.22515897 0.1882684 -0.16099024 -0.3149462
-0.5885781 -0.2253079 -0.42464596 0.43799263 0.24351181 0.3170224 0.77083176 0.17220116
0.29788274 0.38947597 -0.20476332 0.14384776 -0.1007941 0.1466938 0.39278692 0.16144508
-0.13945258 0.35872445 0.32415622 0.15847851 0.20644417 0.1428622 0.07439417 0.28256485
0.50015104 -0.4530011 -0.77974236 -0.356857 -0.22995189 -0.30508667 0.41842175 -0.18736456
-0.20453174 0.023037216 0.30421135 0.12336279 0.4549332 0.25224996 0.6692198 0.09675631
-0.27748013 0.21085928 -0.13759245 -0.15365267 -0.14020896 -0.10594579 -0.33641106 -0.33197877
-0.24367242 0.2017424 0.05017374 -0.3023987 -0.057283785 -0.001699921 -0.25473103 0.2790685
-0.28686023 0.254368 -0.20853634 0.25164652 -0.4391453 -0.05217931 0.6041053 0.105979405
00000000: 4552 d63e 9b6d 733e 9c1b 163f 1b20 b93d
00000010: 6b7b ddbe 3faf f43d cb1d e4bd 4e4a 91bd
00000020: ccf9 bd3e 01ae a7be 713d 08bf 0c4e cebe
00000030: 8471 333c 6f5e c3be 99a3 98bc 0b9c b8be
00000040: c5da 6f3e 821a e5be 48e9 c2be c877 b2be
00000050: 2cfe 143f c586 9abe 7888 b53e 9de9 90be
00000060: 6f65 c8be d682 e0bd b233 0cbf 7a91 863e
00000070: 106c cdbe fefc 91be 78f0 1e3f d9c6 0dbe
00000080: 004d ebbe a657 b3be 2b22 bfbe 8e72 94be
00000090: d0fc 96be b157 f63e e470 333e e569 053f
000000a0: 5fb5 2abe 5f6f d53e b74a 9fbe f336 ca3e
000000b0: 6d66 613e 72b3 8abe 2095 693f 876a 403e
000000c0: f7a0 6ebe 22f5 953e ed42 683e f456 db3e
000000d0: aa4f a43e da80 a53d 6791 ae3e 774a c8be
000000e0: 4cc4 02bf e49e b6bd 910b c93e 8d31 3c3e
000000f0: 8526 63be ef12 2cbe 92b6 f4be 973d cd3e
00000100: 0d08 cc3e ec90 debe 9418 b03e 51f3 f7bb
00000110: 8866 f43d 24cb ae3e 9ac3 59bf 8559 1fbd
00000120: 8103 fbbe 8d57 b43c 30d2 64be 2a46 a73d
00000130: f126 103e cbaf 0abe 5416 683f 1e76 813d
00000140: 7d85 903d b9c6 4c3e 7c80 513f 352d c23e
00000150: f78d cebd 91b8 723e efdc 9c3e af6d b73e
00000160: cda4 c23d 7667 56bd 1bc6 b43d 0196 b5be
00000170: b7fb 82be e299 72be 229a 123e f848 653e
00000180: 8430 e4be 97d5 81be 7f37 f63e 3e92 32be
00000190: c147 8c3e 744f 87be 1804 083f e90a 0fbd
000001a0: baa1 093e 060e c6be 275a e1be 3c64 acbe
000001b0: a443 57bd c563 633e 8e40 b6be 8e45 943d
000001c0: 006b d93e 4c7c e63e 400b 8d3e cb5e b53e
000001d0: 8af2 53be 893d 2dbe df9f 33bf 13c3 0cbe
000001e0: 37cf 1ebe ade8 ebbd 686a 2c3f 5a7b 933e
000001f0: 6847 3b3e ca5c 923e b0d1 023e 5295 c4be
00000200: 421b 993e ec82 b03e ef5c 9f3d 330e 14be
00000210: 1998 9bbe c199 e1bd d162 153f cd2f 4e3e
00000220: 9e0d b1be ea6a 41be 7363 be3e 8c39 03be
00000230: 70d5 033f e547 1cbe a77f 20be 37be e2be
00000240: 061d 6bbe 263d 97be 0769 33be dc07 c9be
00000250: 5e46 6c3e 65e2 d03d 171d 9dbe 0a11 f53e
00000260: e70b e9bd e857 323e 353b 0fbf 673e c8bc
00000270: 7bef eebd cf32 13bf cfe4 5c3e 6afc a0be
00000280: 0016 35be 72af 943e b9cd 2bbf d2dc 8dbd
00000290: e13d 2dbe 259c 95be 4713 d7be 6d63 efbe
000002a0: e0e0 8abe 0fff 403e 58f9 d03e c8da 493e
000002b0: 8c9d 78bd 2383 aa3e 0ab7 923e dccf 18be
000002c0: 4255 a23d e56c df3e 6691 653f 4ae1 ac3e
000002d0: 74f6 dd3c 8688 1b3e caa9 cbbd f2a9 fd3e
000002e0: 6f19 023f 5930 14bd 9edf d8be 3eec 49be
000002f0: 1390 663e 6ec9 403e a0da 24be a140 a1be
00000300: 0ead 16bf 1db7 66be 326b d9be 9240 e03e
00000310: 295b 793e c350 a23e 3b55 453f 8055 303e
00000320: 1684 983e 6569 c73e 7aad 51be d44c 133e
00000330: 236d cebd e636 163e 5e1b c93e dc51 253e
00000340: a8cc 0ebe bbaa b73e cef7 a53e 3148 223e
00000350: 1a66 533e 784a 123e f85b 983d 57ac 903e
00000360: e609 003f c3ef e7be 329d 47bf f6b5 b6be
00000370: 8278 6bbe 5234 9cbe 603b d63e 7fdc 3fbe
00000380: c570 51be 8bb8 bc3c 97c1 9b3e a1a5 fc3d
00000390: 01ed e83e e826 813e fd51 2b3f 2c28 c63d
000003a0: e011 8ebe 7feb 573e 09e5 0cbe 2057 1dbe
000003b0: f092 0fbe 1bfa d8bd 123e acbe 1ff9 a9be
000003c0: 4385 79be 8f95 4e3e fb82 4d3d 01d4 9abe
000003d0: 67a2 6abd e2cf deba 1b6c 82be 11e2 8e3e
000003e0: 58df 92be 863c 823e 8d8a 55be d0d7 803e
000003f0: a7d7 e0be f9b9 55bd a5a6 1a3f bb0b d93d

shared.0.bias f4 [128]
0.050508674 -0.16162154 -0.088002436 0.47355172 0.1068183 0.059459038 0.07484332 -0.19333108
-0.16881792 0.06783098 0.21813707 -0.25829804 -0.30424806 -0.3345711 0.503694 0.42405012
-0.2740551 -0.0789667 0.33595973 -0.12125401 0.24661769 0.23622301 -0.0184336 0.31399587
0.39775595 0.21914244 -0.07135525 0.26775056 0.14952143 -0.06463513 -0.055606402 -0.35166636
0.0026949735 -0.2885254 -0.045973174 -0.29070708 0.3058465 0.15513402 0.30636838 -0.10096574
0.1080278 -0.3504422 0.25711 0.19877896 0.050539773 -0.20633623 -0.07157217 -0.4326084
-0.5251615 0.050779827 -0.15055145 0.44331262 0.44099426 0.31201404 0.07204025 -0.47578448
0.038471747 0.056797355 0.38512644 -0.037354268 0.16498876 0.28449777 -0.32852405 0.13775568
-0.2639243 0.06638935 -0.025149615 -0.12267909 -0.3839187 0.35531747 0.37781104 0.28442836
-0.18434213 0.44002122 0.30059657 -0.3868153 0.006976647 -0.23591742 -0.0014445529 -0.040794663
0.42567152 -0.1283908 0.14499167 0.11938832 0.19586796 -0.26652554 0.23778789 -0.11531901
-0.33655405 0.23455767 0.32706666 -0.38761386 -0.07540715 -0.31318715 -0.2864873 0.3957985
0.37209263 -0.21544106 -0.41804817 -0.49260533 -0.3937208 -0.048414607 0.20110624 0.15227936
-0.16217886 -0.18177712 0.20193544 -0.011302636 -0.050227493 0.23988523 0.4059213 0.103341915
0.012774207 0.19205356 -0.25060308 0.112753 0.08358596 0.04740033 -0.025132976 0.31334433
0.24467361 0.06743609 -0.26912037 0.23144108 0.38937727 0.46446234 0.060182173 -0.2696751
00000000: 2fe2 4e3d 1e80 25be 9f3a b4bd 5f75 f23e
00000010: 8ec3 da3d 528b 733d 7447 993d 95f8 45be
00000020: 9bde 2cbe f8ea 8a3d 535f 5f3e a43f 84be
00000030: 67c6 9bbe e74c abbe 17f2 003f 191d d93e
00000040: f350 8cbe 4bb9 a1bd ea02 ac3e 0654 f8bd
00000050: 5989 7c3e 72e4 713e 1002 97bc 11c4 a03e
00000060: aba6 cb3e e066 603e b422 92bd 9a16 893e
00000070: 251c 193e 6c5f 84bd 8ac3 63bd 9d0d b4be
00000080: 279e 303b 9ab9 93be 5e4e 3cbd 8fd7 94be
00000090: ea97 9c3e 74db 1e3e 51dc 9c3e 20c7 cebd
000000a0: ae3d dd3d 296d b3be eca3 833e b68c 4b3e
000000b0: cb02 4f3d ce49 53be 6e94 92bd d97e ddbe
000000c0: fc70 06bf 82fe 4f3d 292a 1abe dff9 e23e
000000d0: 00ca e13e 4ec0 9f3e d789 933d 069a f3be
000000e0: 8d94 1d3d 58a4 683d 4b2f c53e ca00 19bd
000000f0: d0f2 283e b1a9 913e 4e34 a8be d30f 0d3e
00000100: 1621 87be 24f7 873d 9106 cebc 2d3f fbbd
00000110: fe90 c4be 2cec b53e 7370 c13e 98a0 913e
00000120: 2fc4 3cbe 764a e13e cbe7 993e a80c c6be
00000130: 5b9c e43b 5694 71be 2757 bdba 4e18 27bd
00000140: 9ef1 d93e e178 03be b278 143e dd81 f43d
00000150: 9c91 483e 0976 88be ab7e 733e 602c ecbd
00000160: d050 acbe e32f 703e 4875 a73e 5375 c6be
00000170: 106f 9abd 115a a0be 77ae 92be 1aa6 ca3e
00000180: ed82 be3e 959c 5cbe 690a d6be c436 fcbe
00000190: c695 c9be 654e 46bd cbee 4d3e 1fef 1b3e
000001a0: 3712 26be c823 3abe 2ac8 4e3e b12e 39bc
000001b0: 58bb 4dbd 79a4 753e ebd4 cf3e eda4 d33d
000001c0: e84a 513c b0a9 443e 0c4f 80be 0beb e63d
000001d0: 1e2f ab3d d926 423d ace3 cdbc ab6e a03e
000001e0: b88b 7a3e ef1b 8a3d 25ca 89be e4fe 6c3e
000001f0: 755c c73e 02ce ed3e 9581 763d db12 8abe

shared.1.weight f4 [128]
1.1119312 1.0838326 1.1150005 0.952142 0.9967713 1.1900254 0.94494486 1.1695269
1.1901239 1.1043047 0.9219657 1.0803951 1.1159887 1.025888 0.9152049 0.9207713
1.0470212 1.047401 0.96568686 1.0904976 0.98341286 0.9553642 0.92815346 0.8730821
0.9617074 0.9250194 1.1724485 0.84742785 1.1341172 1.2968819 0.9467893 0.9234584
0.8098503 1.0934188 1.0384934 0.9986553 0.90721035 0.98449844 0.93244123 1.1434327
0.9786539 1.140927 0.97472054 0.8730241 1.2492145 1.0204412 1.0513668 1.0003222
1.0261929 1.3935603 1.2130617 0.96439517 0.9760896 0.92502254 1.1214107 1.2082409
0.9732327 1.2220742 0.8723639 0.9371763 0.8311114 0.8871736 1.095599 0.9693236
0.9834789 1.0059844 0.9306151 1.2691761 1.1409743 1.0009608 0.9003656 0.97127426
1.0144255 0.87095153 1.0071415 1.1042159 1.0634304 1.4293406 1.4395455 1.1798704
0.96453553 0.99591875 0.91404 0.9884399 0.9751206 1.0567404 0.9881412 1.0622007
0.9882844 0.940177 0.94586015 1.2459713 1.2064127 0.9630213 1.2027278 0.97271556
0.91111803 1.0764227 1.0 0.92256844 1.1267272 1.0401013 0.9097733 0.9614694
1.086861 1.060387 0.98655415 0.9612569 0.97624224 1.0037385 0.9453949 1.1386409
0.91861916 0.996256 1.3053843 0.9473506 1.0326612 1.1230576 0.9479359 0.91969365
0.91162205 1.1539519 1.1022407 0.8929498 0.909254 0.84143215 0.9015993 1.1431442
00000000: c353 8e3f 07bb 8a3f 56b8 8e3f 94bf 733f
00000010: 672c 7f3f c152 983f e8e7 713f 0fb3 953f
00000020: fb55 983f db59 8d3f f205 6c3f 634a 8a3f
00000030: b8d8 8e3f 4c50 833f de4a 6a3f abb7 6b3f
00000040: ca04 863f 3c11 863f 4137 773f 6d95 8b3f
00000050: f2c0 7b3f c092 743f 779b 6d3f 4f82 5f3f
00000060: 7532 763f 12ce 6c3f cb12 963f 08f1 583f
00000070: c12a 913f 3a00 a63f c960 723f c567 6c3f
00000080: 5952 4f3f 26f5 8b3f 5aed 843f e0a7 7f3f
00000090: f03e 683f 1708 7c3f 78b4 6e3f 015c 923f
000000a0: 1089 7a3f e509 923f 4987 793f 827e 5f3f
000000b0: 43e6 9f3f d19d 823f 3093 863f 8f0a 803f
000000c0: 4a5a 833f 2f60 b23f 9b45 9b3f 9ae2 763f
000000d0: 02e1 793f 47ce 6c3f 638a 8f3f a3a7 9a3f
000000e0: c725 793f ed6c 9c3f 3e53 5f3f c9ea 6f3f
000000f0: b7c3 543f cf1d 633f 973c 8c3f 9725 783f
00000100: 46c5 7b3f 19c4 803f cb3c 6e3f 5d74 a23f
00000110: 720b 923f 7c1f 803f 5c7e 663f 6ea5 783f
00000120: b2d8 813f aef6 5e3f 03ea 803f f256 8d3f
00000130: 7d1e 883f a2f4 b63f 0743 b83f fe05 973f
00000140: cdeb 763f 88f4 7e3f 87fe 693f 660a 7d3f
00000150: 81a1 793f 4543 873f d2f6 7c3f 31f6 873f
00000160: 3500 7d3f 71af 703f e423 723f fd7b 9f3f
00000170: bb6b 9a3f 9088 763f fcf2 993f e303 793f
00000180: 083f 693f 38c8 893f 0000 803f 722d 6c3f
00000190: 9938 903f 0a22 853f e7e6 683f dc22 763f
000001a0: 431e 8b3f c3ba 873f d08e 7c3f ef14 763f
000001b0: 03eb 793f 817a 803f 6605 723f fcbe 913f
000001c0: a02a 6b3f a20a 7f3f d516 a73f 9285 723f
000001d0: 3e2e 843f 5ac0 8f3f edab 723f 0b71 6b3f
000001e0: 1060 693f b2b4 933f 3916 8d3f 5c98 643f
000001f0: dfc4 683f 1968 573f 36cf 663f 8d52 923f

shared.1.bias f4 [128]
-0.063450076 0.12001649 0.061344154 -0.049681626 0.0021303413 0.015168201 -0.054848976 0.05575843
0.012399696 -0.10441924 -0.07343242 -0.008744595 -0.0020800186 0.006411145 -0.027946273 -0.07563055
0.15870756 -0.04957684 -0.06750497 -0.071124606 -0.049276296 -0.041009087 -0.06860164 -0.044976763
-0.04480464 -0.04816727 0.13367522 -0.14606462 -0.040248167 -0.0009018462 -0.08814267 -0.07880539
-0.06832291 0.025716048 -0.12763628 -0.0015141157 -0.11053208 -0.027052464 -0.07962533 0.06997293
-0.00593414 0.085491344 -0.04027328 -0.08589603 0.14839542 -0.014061365 0.1677774 -0.02974188
-0.016821781 0.026153794 0.11952755 -0.05074473 -0.023301214 -0.07732904 0.045307517 0.04664614
-0.0050441166 -0.071986675 -0.11502291 8.8411536e-05 -0.14343643 -0.13481702 -0.02352591 -0.030797563
-0.0032399055 -0.071118414 -0.053758856 0.059096687 0.084895246 -0.023327788 -0.116562314 -0.06693135
0.005749674 -0.060937677 -0.0598295 0.033556327 -0.00030880576 0.06334824 0.08835006 -0.06429699
-0.057711218 0.029059935 -0.034334425 -0.038644593 -0.06376943 0.35597512 -0.13688244 -0.044064272
-0.04676546 -0.077271305 -0.06330451 0.04454526 0.055624314 -0.059282213 0.06280605 -0.05681203
-0.08774002 -0.009005016 0.0 -0.05475165 0.11451998 0.0011628419 -0.039923184 -0.031156654
0.024246885 -0.049146354 -0.0063757766 -0.03869741 0.01795442 0.03630992 -0.083652474 0.12859674
0.013358615 -0.058728896 0.15478805 -0.040270057 0.0510396 0.101838075 -0.07485377 -0.12068334
-0.05931042 -0.011186157 0.086858995 -0.10318541 -0.088169746 -0.0869879 -0.038174488 0.14728113
00000000: 1df2 81bd 35cb f53d 0244 7b3d f67e 4bbd
00000010: 329d 0b3b 0c84 783c 52a9 60bd f462 643d
00000020: 1828 4b3c c1d9 d5bd bd63 96bd 7d45 0fbc
00000030: ec50 08bb 9514 d23b 95ef e4bc 31e4 9abd
00000040: 3c84 223e 1611 4bbd 0c40 8abd c7a9 91bd
00000050: f1d5 49bd 25f9 27bd 047f 8cbd 8e39 38bd
00000060: 1285 37bd 0b4b 45bd 28e2 083e f791 15be
00000070: 43db 24bd e069 6cba 2584 b4bd b864 a1bd
00000080: e2ec 8bbd 76aa d23c 16b3 02be 4b75 c6ba
00000090: a55e e2bd 219d ddbc 9b12 a3bd f84d 8f3d
000000a0: 2d73 c2bb 1616 af3d 98f5 24bd 42ea afbd
000000b0: f8f4 173e a461 66bc d7cd 2b3e 3ea5 f3bc
000000c0: d5cd 89bc 7b40 d63c dcca f43d b5d9 4fbd
000000d0: 30e2 bebc b05e 9ebd 6094 393d 0610 3f3d
000000e0: 1e49 a5bb c06d 93bd 2291 ebbd 9569 b938
000000f0: 00e1 12be 790d 0abe 69b9 c0bc 2c4b fcbc
00000100: 9854 54bb 88a6 91bd 3f32 5cbd 5e0f 723d
00000110: 8fdd ad3d eb19 bfbc 39b8 eebd 4e13 89bd
00000120: c367 bc3b c999 79bd c70f 75bd 5c72 093d
00000130: 35e7 a1b9 b9bc 813d e0f0 b43d 24ae 83bd
00000140: 9962 6cbd 1a0f ee3c 41a2 0cbd cb49 1ebd
00000150: 8c99 82bd 5f42 b63e e92a 0cbe bd7c 34bd
00000160: 248d 3fbd 6b40 9ebd cca5 81bd 1775 363d
00000170: 52d6 633d e8d1 72bd 75a0 803d bbb3 68bd
00000180: 0ab1 b3bd c689 13bc 0000 0000 4443 60bd
00000190: 7489 ea3d 806a 983a 7e86 23bd 3d3c ffbc
000001a0: 67a1 c63c b04d 49bd e4eb d0bb 2d81 1ebd
000001b0: 2615 933c b6b9 143d fd51 abbd ddae 033e
000001c0: 18de 5a3c b68d 70bd c280 1e3e 37f2 24bd
000001d0: e60e 513d 7b90 d03d ef4c 99bd d428 f7bd
000001e0: 7cef 72bd 2546 37bc 21e3 b13d df52 d3bd
000001f0: 5792 b4bd b626 b2bd da5c 1cbd ddd0 163e

shared.3.weight f4 [128, 128]
0.18068762 -0.20360762 0.00538871 -0.0056233653 -0.13841939 0.01831749 -0.067832835 0.17617993
-0.006340303 0.030841216 0.0691848 -0.00028288894 0.057315003 -0.031075502 0.030555192 0.066116996
0.015776247 0.036789834 0.03695788 0.11491951 0.031985212 -0.031460278 -0.067284696 0.041723207
-0.035068203 0.07687592 -0.035812408 0.024193069 0.038141456 0.30695316 0.038173553 0.001768185
0.05538807 0.15788603 0.05616281 -0.049325418 -0.12573811 0.03751222 -0.104630575 0.18454121
-0.016894158 -0.0054559223 -0.062504046 0.07914622 0.26497677 -0.054869015 0.13486832 -0.044017587
0.038295582 0.37198186 0.066128425 0.08072858 -0.03576402 0.071833186 0.10880548 0.190805
-0.032610804 0.08203968 0.058208708 0.023232684 0.017583182 -0.04171642 -0.04157035 0.06785225
0.1221506 0.08310698 0.03296373 0.10062063 0.021508915 0.07403556 0.0137470225 -0.07924344
0.02792766 -0.024046076 -0.014190842 0.031208806 0.066925816 0.36740616 0.33436474 0.17704019
0.037996437 0.065603755 0.06325736 -0.07824636 0.0060349843 -0.33636752 0.09053756 0.052663133
0.014687989 -0.02545175 0.0041646366 -0.007950665 0.10972713 -0.08531324 0.09339375 -0.14507174
-0.078939684 0.03809834 -0.017536283 -0.03851118 -0.0739502 -0.04056572 0.036348805 -0.080408834
-0.035731725 -0.01036902 -0.0065164817 0.055070523 -0.048357435 -0.08205258 -0.075298235 0.19960539
-0.055479817 0.07412362 -0.01823573 0.09757321 -0.08226175 0.09862729 -0.009164111 -0.021681579
-0.02562993 0.030657744 -0.11137508 0.014658386 0.041332174 0.05787075 -0.07140739 -0.038884394
-0.13823085 0.078544274 0.17545131 -0.03400207 0.05025168 -0.06483016 -0.05386826 0.061996043
0.033429902 0.100445464 -0.080129296 0.19326167 0.07557752 0.03649023 -0.017356051 -0.0035053752
0.09898982 0.077321865 0.022636812 0.1853469 -0.036494553 0.0064333263 -0.053527217 0.033793263
-0.01946976 -0.032166656 0.1315156 -0.07676432 -0.05895307 0.10242288 -0.040328704 0.053161055
-0.076536514 0.0687547 -0.033078328 0.07061164 0.093004026 -0.118676364 -0.030649552 0.015458634
0.08981492 0.10721436 -0.051550746 0.06981015 -0.23129997 -0.009382624 -0.04462785 -0.015612424
-0.012237425 0.054085344 0.16967331 -0.03696173 -0.0036404135 -0.0033396403 0.19832237 0.20280081
0.014516183 -0.0004917281 0.056131255 -0.03741136 -0.013151058 0.065883376 -0.04865198 0.01957602
0.0060921777 -0.06034032 -0.012787769 0.13341564 0.18503448 -0.0759572 -0.037529904 0.021577181
-0.06639958 0.018821057 0.032371845 0.08905044 -0.05214824 0.17706962 0.27565572 0.28982353
-0.09028322 -0.1018957 0.08324917 -0.06635805 -0.07346878 -0.14893287 -0.10771722 0.11358722
0.11709454 0.003826643 0.011428954 -0.03755591 0.1602943 0.09804555 0.059135392 0.041234452
0.08793025 0.0060942597 -0.025699407 0.01887122 0.17849663 -0.0863349 0.047426786 -0.01280329
-0.009256303 0.018277697 -0.0042677308 0.065460965 -0.010298116 0.04900648 -0.06782421 0.002301928
-0.011349459 -0.08844798 0.25040802 -0.025115548 0.14096217 0.054243453 -0.010981482 -0.029756691
0.0074738082 -0.037322704 0.08058767 0.09569272 0.012595153 -0.09511909 0.07160358 0.23818025
00000000: 2d06 393e 847e 50be c793 b03b 3544 b8bb
00000010: d0bd 0dbe 900e 963c f1eb 8abd 8368 343e
00000020: 51c2 cfbb b8a6 fc3c c3b0 8d3d b650 94b9
00000030: 23c3 6a3d 0d92 febc e24e fa3c 5968 873d
00000040: 303d 813c f0b0 163d 2561 173d ec5a eb3d
00000050: ed02 033d 7edc 00bd 8fcc 89bd f4e5 2a3d
00000060: ada3 0fbd 1f71 9d3d 08b0 12bd 8b30 c63c
00000070: 373a 1c3d f728 9d3e df5b 1c3d 71c2 e73a
00000080: 9ade 623d e0ac 213e fa0a 663d 7309 4abd
00000090: 7ec1 00be 6aa6 193d 8e48 d6bd 5ff8 3c3e
000000a0: 9e65 8abc 98c7 b2bb 1f02 80bd 6a17 a23d
000000b0: 09ab 873e 55be 60bd ec1a 0a3e c94b 34bd
000000c0: d4db 1c3d 6874 be3e 576e 873d 0755 a53d
000000d0: 4b7d 12bd 471d 933d 68d5 de3d 6362 433e
000000e0: e892 05bd 6b04 a83d 416c 6e3d 7852 be3c
000000f0: 9b0a 903c d6de 2abd ac45 2abd 1ff6 8a3d
00000100: 182a fa3d fe33 aa3d fa04 073d 3012 ce3d
00000110: 7733 b03c f59f 973d 313b 613c 624a a2bd
00000120: 8cc8 e43c 47fc c4bc b580 68bc 9ca9 ff3c
00000130: 6710 893d a91c bc3e db31 ab3e 064a 353e
00000140: 27a2 1b3d 435b 863d 138d 813d a13f a0bd
00000150: 1ec1 c53b 5d38 acbe c26b b93d 4cb5 573d
00000160: e4a5 703c 3080 d0bc 8177 883b 8243 02bc
00000170: 9eb8 e03d b5b8 aebd 3945 bf3d b08d 14be
00000180: 21ab a1bd 010d 1c3d 40a8 8fbc e6bd 1dbd
00000190: 3473 97bd 3e28 26bd 7ce2 143d 63ad a4bd
000001a0: 6e5b 12bd d2e2 29bc 3688 d5bb a191 613d
000001b0: 7212 46bd 2f0b a8bd f635 9abd 5b65 4c3e
000001c0: ce3e 63bd 20ce 973d 1963 95bc 77d4 c73d
000001d0: d978 a8bd 1bfd c93d 1125 16bc 919d b1bc
000001e0: dcf5 d1bc f325 fb3c 9e18 e4bd ba29 703c
000001f0: ed4b 293d e109 6d3d 0a3e 92bd 3e45 1fbd
00000200: 638c 0dbe d2db a03d 82a9 333e c145 0bbd
00000210: b5d4 4d3d adc5 84bd f7a4 5cbd 90ef 7d3d
00000220: cbed 083d 5ab6 cd3d d41a a4bd 63e6 453e
00000230: 63c8 9a3d c876 153d 472e 8ebc 70ba 65bb
00000240: 2dbb ca3d ed5a 9e3d d670 b93c 94cb 3d3e
00000250: 507b 15bd a7ce d23b 5b3f 5bbd ce6a 0a3d
00000260: 0c7f 9fbc 2fc1 03bd 07ac 063e 9d36 9dbd
00000270: c678 71bd 16c3 d13d b62f 25bd 68bf 593d
00000280: 2dbf 9cbd 44cf 8c3d 247d 07bd d69c 903d
00000290: e578 be3d 980c f3bd c514 fbbc 3646 7d3c
000002a0: e3f0 b73d 3493 db3d e026 53bd a0f8 8e3d
000002b0: e6d9 6cbe 94b9 19bc b1cb 36bd 41cb 7fbc
000002c0: 7b7f 48bc 9888 5d3d d7be 2d3e 2f65 17bd
000002d0: 0194 6ebb dedd 5abb 0515 4b3e 04ab 4f3e
000002e0: 49d5 6d3c 50e7 00ba e3e9 653d a73c 19bd
000002f0: 8977 57bc dded 863d 4c47 47bd e45d a03c
00000300: e4a0 c73b 6927 77bd ca83 51bc 1c9e 083e
00000310: ae79 3d3e 738f 9bbd f5b8 19bd a1c2 b03c
00000320: 81fc 87bd 9e2e 9a3c 5798 043d 1460 b63d
00000330: 6599 55bd bd51 353e bf22 8d3e c063 943e
00000340: 69e6 b8bd b1ae d0bd 8a7e aa3d bbe6 87bd
00000350: cd76 96bd dc81 18be d99a dcbd 6ba0 e83d
00000360: 43cf ef3d 6bc8 7a3b 8240 3b3c 3ad4 19bd
00000370: 3024 243e 1bcc c83d f437 723d 75e5 283d
00000380: c614 b43d 5bb2 c73b 9087 d2bc d197 9a3c
00000390: d2c7 363e 5ad0 b0bd 9742 423d e4c4 51bc
000003a0: c0a7 17bc 1cbb 953c 52d8 8bbb 6610 863d
000003b0: 6eb9 28bc 05bb 483d 6be7 8abd f1db 163b
000003c0: 15f3 39bc 3724 b5bd 7b35 803e 1fbf cdbc
000003d0: 6358 103e 622e 5e3d adeb 33bc 4ec4 f3bc
000003e0: d9e6 f43b b1df 18bd 260b a53d 8bfa c33d
000003f0: e75b 4e3c cccd c2bd e6a4 923d 86e5 733e

shared.3.bias f4 [128]
0.033600427 0.008393548 0.040229 0.02801258 0.035453573 -0.020603405 -0.051470257 0.066633984
0.032143895 -0.015522035 -0.03700645 -0.017816434 0.08229333 -0.05331682 -0.0052009863 -0.06252989
0.044540588 0.06810736 -0.06389666 0.038179133 0.0075781713 -0.01505724 0.01645382 -0.044657603
-0.05171106 -0.045142714 0.05943038 -0.06693098 -0.08149148 0.053454302 -0.029815003 0.08103723
-0.03377285 0.09858509 0.095183544 0.035701428 -0.033652678 0.07575462 0.028191727 0.054225214
-0.052782837 0.0210788 -0.07108471 -0.0106118405 0.05382131 0.07659307 -0.056141246 0.036551528
0.020088572 -0.051652268 -0.05873048 0.040489696 -0.07921337 0.029113233 -0.018097216 0.05913498
-0.009207856 -0.039661273 -0.083140746 0.00051757426 -0.041572597 -0.05385258 -0.07486957 0.03972922
0.034075666 0.0034169084 -0.051602114 0.070954196 -0.036976017 0.09461355 0.038354587 0.018519953
0.09123158 0.038454454 -0.067135945 -0.023106635 0.025027644 -0.056172553 -0.057582784 -0.07822859
-0.059898894 0.010917323 0.044779602 -0.06826893 -0.046336696 -0.0072232117 -0.07238088 -0.030952653
0.051569518 -0.05529758 0.086409666 -0.017264051 0.070629105 0.046089828 -0.0011383783 -0.089463085
-0.003542173 -0.08341394 0.007575795 -0.053975694 0.01812401 0.03950445 -0.029843342 0.08912077
0.036789022 -0.047907565 -0.026610594 -0.014177988 0.041271355 0.025797702 0.013719493 -0.067738906
0.08757024 0.04350673 0.043723073 0.10612119 0.0634945 -0.02418373 0.06255518 0.084876426
-0.044573113 -0.05282966 -0.022159623 0.0778231 -0.05441868 0.029471058 0.076230794 -0.014743977
00000000: 9aa0 093d 1885 093c 2ac7 243d a37a e53c
00000010: c437 113d 79c8 a8bc 7ad2 52bd 6677 883d
00000020: 51a9 033d 2250 7ebc 1394 17bd c5f3 91bc
00000030: 6889 a83d bd62 5abd 096d aabb ac0f 80bd
00000040: 3170 363d df7b 8b3d 41dc 82bd b961 1c3d
00000050: 4f52 f83b a4b2 76bc 29ca 863c e4ea 36bd
00000060: face 53bd 91e7 38bd 456d 733d 1c13 89bd
00000070: 01e5 a6bd e6f2 5a3d 983e f4bc d9f6 a53d
00000080: 6655 0abd fbe6 c93d 97ef c23d a93b 123d
00000090: 64d7 09bd 3d25 9b3d 56f2 e63c 421b 5e3d
000000a0: d132 58bd 73ad ac3c dc94 91bd 49dd 2dbc
000000b0: bc73 5c3d d4dc 9c3d 5df4 65bd 0eb7 153d
000000c0: ca90 a43c 5491 53bd 5f8f 70bd 86d8 253d
000000d0: 9f3a a2bd e07e ee3c 9d40 94bc 8537 723d
000000e0: 8cdc 16bc dc73 22bd b245 aabd d2ad 073a
000000f0: 0748 2abd 8694 5cbd 3855 99bd 1bbb 223d
00000100: ed92 0b3d 36ee 5f3b bd5c 53bd 6f50 913d
00000110: 2a74 17bd c0c4 c13d b319 1d3d 28b7 973c
00000120: 9fd7 ba3d 6b82 1d3d 927e 89bd 204a bdbc
00000130: c606 cd3c 3115 66bd eddb 6bbd 5036 a0bd
00000140: 8b58 75bd 92de 323c d16a 373d 95d0 8bbd
00000150: 8ccb 3dbd b1b0 ecbb 6d3c 94bd 6b90 fdbc
00000160: 8f3a 533d b77f 62bd 8df7 b03d 576d 8dbc
00000170: fea5 903d b0c8 3c3d a335 95ba 6c38 b7bd
00000180: cd23 68bb eed4 aabd 603e f83b 9e15 5dbd
00000190: ce78 943c 6bcf 213d 067a f4bc f384 b63d
000001a0: 16b0 163d b93a 44bd 76fe d9bc cb4a 68bc
000001b0: 270c 293d b455 d33c b9c7 603c b2ba 8abd
000001c0: 0758 b33d 1d34 323d f716 333d 1156 d93d
000001d0: 6809 823d f51c c6bc ee1c 803d b1d3 ad3d
000001e0: 4c92 36bd ea63 58bd 1988 b5bc b861 9f3d
000001f0: 1fe6 5ebd 4a6d f13c e41e 9c3d b990 71bc

shared.4.weight f4 [128]
1.3954319 1.2354147 1.3189923 1.796968 1.1284693 1.324765 1.1123614 1.8177009
1.3940408 1.7074238 1.6254374 1.8043447 1.1745375 1.7015249 1.8095948 1.8715817
1.7575799 1.7813731 1.3896202 1.8596368 1.3012173 1.2933747 1.3793113 1.2974275
1.7196213 1.5970653 1.1298707 1.3557577 1.2400482 1.0619378 1.2671225 1.7384553
1.3225977 1.5845222 1.9393526 1.7083545 1.4153326 1.0699383 1.205214 1.5497527
1.2702366 1.6034452 1.4450831 1.7016667 1.6256145 1.239222 1.8570048 1.3693411
1.3203746 1.224139 1.4196693 1.6326666 1.8014126 1.2706566 1.2686245 1.1724888
1.1524721 1.3902034 1.2238055 0.9618383 1.4110138 1.3798475 1.576652 1.6312488
1.3027434 1.3821856 1.6309416 1.2979299 1.1136204 1.6296186 1.8382115 1.5332716
1.1853774 1.6326518 1.1131061 1.1987646 1.7454479 1.2349145 1.593443 1.138436
1.2776314 1.2635767 1.2151592 1.5412356 1.1827458 1.0885688 1.358651 1.8591124
1.2011795 1.0721551 1.1523638 1.6139469 1.0916915 1.482231 1.28913 1.37233
1.3044765 1.1425364 1.938057 1.7553545 1.6939495 1.7356093 1.0979112 1.186862
1.1891682 1.2154995 1.5272983 1.3333308 1.6577374 1.2237831 1.6983956 1.1901791
1.274727 1.6386445 1.1313283 1.7305297 1.2990409 1.2923087 1.8046069 1.1841686
1.3631406 1.4217972 1.6263936 1.0552658 1.3022109 1.3618642 1.2082886 1.0772313
00000000: 839d b23f 1222 9e3f bdd4 a83f 0c03 e63f
00000010: af71 903f e691 a93f dc61 8e3f 6caa e83f
00000020: ee6f b23f dd8c da3f 550e d03f c4f4 e63f
00000030: 3f57 963f 91cb d93f cda0 e73f fd8f ef3f
00000040: 61f8 e03f 0904 e43f 13df b13f 9408 ee3f
00000050: 4a8e a63f 4d8d a53f 468d b03f 1b12 a63f
00000060: 8d1c dc3f a36c cc3f 9a9f 903f 7889 ad3f
00000070: e6b9 9e3f 94ed 873f 1231 a23f b485 de3f
00000080: e24a a93f a0d1 ca3f b53c f83f 5cab da3f
00000090: 9e29 b53f bdf3 883f 7444 9a3f 4c5e c63f
000000a0: 1d97 a23f b13d cd3f 7cf8 b83f 37d0 d93f
000000b0: 2314 d03f d49e 9e3f 55b2 ed3f 9246 af3f
000000c0: 0902 a93f 96b0 9c3f b9b7 b53f 38fb d03f
000000d0: b094 e63f e0a4 a23f 4a62 a23f 1d14 963f
000000e0: 3584 933f 2ff2 b13f a9a5 9c3f 093b 763f
000000f0: 1a9c b43f d89e b03f bccf c93f c3cc d03f
00000100: 4cc0 a63f 75eb b03f b2c2 d03f 9122 a63f
00000110: 1d8b 8e3f 5897 d03f 844a eb3f 3e42 c43f
00000120: 72ba 973f bcfa d03f 437a 8e3f 1e71 993f
00000130: d66a df3f ae11 9e3f f1f5 cb3f 45b8 913f
00000140: 6d89 a33f e2bc a13f 568a 9b3f 3547 c53f
00000150: 3764 973f 3956 8b3f 47e8 ad3f 65f7 ed3f
00000160: 40c0 993f 613c 893f a880 933f d095 ce3f
00000170: 8cbc 8b3f bfb9 bd3f 3602 a53f 82a8 af3f
00000180: 16f9 a63f a23e 923f 4012 f83f 75af e03f
00000190: 56d3 d83f 7228 de3f 5b88 8c3f 18eb 973f
000001a0: aa36 983f 7d95 9b3f 837e c33f 95aa aa3f
000001b0: bd30 d43f eda4 9c3f 0765 d93f ca57 983f
000001c0: 412a a33f 1abf d13f 5ecf 903f ff81 dd3f
000001d0: f946 a63f 5f6a a53f 5cfd e63f d692 973f
000001e0: 647b ae3f 73fd b53f aa2d d03f f312 873f
000001f0: d9ae a63f 9151 ae3f 33a9 9a3f b7e2 893f

shared.4.bias f4 [128]
0.11433139 0.08734823 -0.08843778 0.66823894 -0.012889719 0.055083472 0.07897945 0.6584856
-0.11585667 0.6199606 0.60704875 0.60107964 0.13523741 0.6153218 0.6524648 0.5921743
0.6298256 0.6340431 -0.008049991 0.63776475 -0.109108664 0.07317598 -0.068284445 0.045574114
0.5444731 0.5784579 0.0069740177 0.022551969 0.030987795 -0.028803546 -0.08246424 0.5775722
-0.11599842 0.57662845 0.72274727 0.63436884 0.086301275 -0.09078614 0.103480436 0.018045273
0.0025520641 0.6054582 0.007342627 0.6364639 0.5866564 -0.09049701 0.6999784 -0.014356003
-0.007154594 0.06166518 -0.02706051 0.6274116 0.610066 -0.028246284 -0.027879722 0.07372596
0.0027676213 -0.06286464 -0.075044155 0.050123278 0.009019341 -0.004648643 0.5734093 0.6227241
0.069635786 0.07376015 -0.054231297 -0.019988596 0.054066665 0.6478408 0.69538593 -0.030009452
0.058253244 0.6164626 0.056394503 -0.006036679 0.63577676 -0.018992325 0.13771164 0.12430493
-0.15611452 -0.1066502 -0.09781694 -0.04046228 -0.08152614 0.02311303 0.06924836 0.6116013
-0.024014967 0.103840366 0.0052386303 0.6073629 -0.008553122 0.02417586 0.14230947 -0.05962016
-0.1584312 -0.028896384 0.75122887 0.61849636 0.62071574 0.61326736 0.008092691 0.0030494377
0.050359044 0.10070741 -0.058678098 -0.0015591669 0.6389573 0.014884611 0.5923792 -0.048089765
-0.010506982 0.5945471 0.029057693 0.6088859 0.045363337 0.058094475 0.6751402 0.07213343
0.119985394 0.003682574 0.5876404 0.08872756 -0.11682058 -0.10357304 -0.06794815 -0.018668551
00000000: 9326 ea3d a1e3 b23d de1e b5bd b511 2b3f
00000010: 662f 53bc 359f 613d fabf a13d 8392 283f
00000020: 4346 edbd bdb5 1e3f 8c67 1b3f 5be0 193f
00000030: ad7b 0a3e bb85 1d3f ef07 273f bc98 173f
00000040: 403c 213f a650 223f 1ce4 03bc 8d44 233f
00000050: 5d74 dfbd 4add 953d b7d8 8bbd ecab 3a3d
00000060: 9762 0b3f d115 143f 4d86 e43b e8be b83c
00000070: 1eda fd3c 6af5 ebbc 03e3 a8bd c6db 133f
00000080: 9490 edbd ec9d 133f f705 393f ff65 223f
00000090: b9be b03d 15ee b9bd 8ded d33d aed3 933c
000000a0: 8840 273b 4fff 1a3f 6b9a f03b 4cef 223f
000000b0: 1d2f 163f 7f56 b9bd c931 333f 7135 6bbc
000000c0: 1671 eabb a194 7c3d 01ae ddbc 0c9e 203f
000000d0: 492d 1c3f c064 e7bc 0464 e4bc a3fd 963d
000000e0: fb60 353b 2dbf 80bd c0b0 99bd 114e 4d3d
000000f0: dcc5 133c a553 98bb f4ca 123f d96a 1f3f
00000100: 359d 8e3d 900f 973d a321 5ebd 20bf a3bc
00000110: 0275 5d3d e5d8 253f d004 323f 62d6 f5bc
00000120: f49a 6e3d 7ed0 1d3f ecfd 663d 55cf c5bb
00000130: 44c2 223f cb95 9bbc 4804 0d3e 9593 fe3d
00000140: 7cdc 1fbe 6c6b dabd 3f54 c8bd c7bb 25bd
00000150: 2df7 a6bd 8957 bd3c 16d2 8d3d e791 1c3f
00000160: 09bb c4bc 42aa d43d d1a8 ab3b 237c 1b3f
00000170: 6522 0cbc 740c c63c 93b9 113e 4534 74bd
00000180: ca3b 22be 1cb8 ecbc 8950 403f c755 1e3f
00000190: 3ae7 1e3f 17ff 1c3f 3597 043c 13d9 473b
000001a0: 4945 4e3d b03f ce3d 7258 70bd f65c ccba
000001b0: b592 233f 95de 733c 2aa6 173f c6f9 44bd
000001c0: 7a25 2cbc 3d34 183f 660a ee3c f2df 1b3f
000001d0: e8ce 393d 79f4 6d3d fdd5 2c3f b1ba 933d
000001e0: e7ba f53d 5757 713b 9a6f 163f ccb6 b53d
000001f0: a13f efbd 1a1e d4bd 6628 8bbd caee 98bc

actor.weight f4 [2, 128]
-0.15170042 -0.052208144 -0.07285438 0.1017817 0.08842218 0.061036143 0.04695251 0.13829783
-0.0053097387 -0.049081083 0.0641461 -0.2129527 0.19474636 0.15113991 0.25491545 0.22136223
0.06510026 -0.10208218 0.09226691 0.10044163 0.04828558 -0.10347183 0.052561548 0.022960315
0.12221182 -0.07712761 -0.006987824 0.0031389997 -0.0643294 -0.15588626 -0.11680869 -0.16788548
-0.058389388 -0.19071421 -0.22800994 -0.02782717 -0.0023280198 -0.0014100671 -0.1271095 -0.05135362
0.022429027 -0.11960124 0.06777965 0.08410169 -0.12325594 -0.08194575 0.11170444 -0.04486602
0.12596242 -0.00478655 -0.11805876 -0.002787901 -0.1707263 -0.078390874 6.577742e-05 0.07501013
-0.082179196 0.021003658 0.15213856 -0.034305688 -0.119042024 0.0037855688 0.053051457 -0.084680885
-0.13748117 0.2764721 0.023295328 0.050479934 -0.03444791 -0.1899422 0.14496636 -0.03223251
0.016948758 -0.13073711 -0.25615597 0.1390236 -0.22201568 -0.10826361 -0.013600016 0.2636545
0.011770932 -0.05161962 -0.19134684 -0.021706779 0.15343726 0.039528858 0.0019500611 0.062334742
-0.002109821 -0.045162234 -0.052051816 -0.07223874 -0.0022395367 -0.20987076 0.012163671 0.06329414
-0.05076813 0.24308649 -0.20119317 0.19479322 -0.10900312 0.18878897 -0.003936043 0.06430437
0.01263181 -0.18026657 -0.045799527 -0.078255594 -0.013524207 0.06360994 -0.013898543 -0.14797297
0.015951943 -0.23338991 0.16530143 -0.05238313 0.18626632 0.2367166 -0.10887157 -0.019319588
-0.16045219 0.05373628 0.06366485 0.11124719 -0.054183323 0.14375061 -0.13325095 0.106327526
0.09915239 0.05989654 -0.0141186565 -0.15192018 -0.027181098 -0.059911136 0.0131400535 -0.16838712
0.082236074 0.016640704 -0.17764904 0.115279995 -0.2313152 -0.1568776 -0.24035157 -0.20412752
-0.09662802 0.07094764 0.023599036 -0.034956936 -0.011954958 -0.0064017586 0.08203904 -0.061765257
-0.119965926 0.12700565 -0.02052137 0.017554874 0.10133429 0.017521469 -0.04292985 0.09082443
0.04610681 0.18658657 0.15454309 0.11181065 -0.0757851 0.031324413 0.07494504 0.051539607
0.023011373 0.07464546 -0.21045186 -0.06355169 0.014389875 0.011675713 -0.09055433 0.035380583
-0.062287066 0.0633872 0.038997464 0.03352447 0.0598437 0.17651777 -0.031325277 -0.12930514
0.02330836 -0.037305877 -0.045454852 0.11147728 0.035092108 -0.0009504197 0.034171842 -0.005531015
0.032168 -0.3325794 -0.0068340395 0.024025908 -0.11843376 0.066356234 -0.050702583 -0.07705775
0.013650144 -0.0225903 0.24750105 -0.07033406 0.18700136 0.03027183 -0.045756843 -0.13910231
-0.038219444 0.029319951 0.11613649 0.070270166 -0.23316032 -0.12636943 -0.11341206 0.008402648
0.010612797 0.0732902 -0.001322634 -0.082355626 0.10337134 0.2096401 0.022711372 -0.061688304
0.047135074 -0.26143163 0.1730781 -0.12085621 -0.020378402 -0.18260863 -0.10961601 -0.0069443765
-0.056173548 0.25707695 0.07181301 0.065862074 -0.049873214 -0.043756574 -0.0016768057 0.08628086
0.05548514 0.16602436 -0.07871421 0.08057239 -0.18346877 -0.24361376 0.13175878 0.002499348
0.030734451 0.007140831 0.052618664 -0.12083714 0.05999424 -0.100567274 0.09716188 -0.02307391
00000000: 5b57 1bbe 35d8 55bd ad34 95bd ed72 d03d
00000010: b016 b53d 0901 7a3d 4651 403d f29d 0d3e
00000020: 51fd adbb 3f09 49bd 085f 833d 4610 5abe
00000030: 976b 473e 6cc4 1a3e 4784 823e c8ac 623e
00000040: 4953 853d 7610 d1bd 6ff6 bc3d 57b4 cd3d
00000050: 1ac7 453d 0ae9 d3bd c74a 573d 4517 bc3c
00000060: 314a fa3d 15f5 9dbd 1efa e4bb adb7 4d3b
00000070: 22bf 83bd a6a0 1fbe 6539 efbd 2cea 2bbe
00000080: b629 6fbd 964a 43be 707b 69be cef5 e3bc
00000090: b191 18bb 00d2 b8ba fe28 02be 2c58 52bd
000000a0: 14bd b73c 7ff1 f4bd 0fd0 8a3d 823d ac3d
000000b0: 9c6d fcbd 2cd3 a7bd 4cc5 e43d 6fc5 37bd
000000c0: 4bfc 003e 7ed8 9cbb cbc8 f1bd 38b5 36bb
000000d0: e0d2 2ebe 658b a0bd fcf1 8938 e99e 993d
000000e0: 914d a8bd dd0f ac3c 36ca 1b3e 1f84 0cbd
000000f0: 4ecc f3bd 4e17 783b 7c4c 593d 2c6d adbd
00000100: ddc7 0cbe c08d 8d3e d8d5 be3c 0cc4 4e3d
00000110: 4019 0dbd 3580 42be 1072 143e 3d06 04bd
00000120: 1fd8 8a3c f3df 05be e026 83be 345c 0e3e
00000130: 1458 63be 50b9 ddbd 9ad2 5ebc b9fd 863e
00000140: deda 403c 186f 53bd 6df0 43be 6ad2 b1bc
00000150: a81e 1d3e 03e9 213d 3199 ff3a b752 7f3d
00000160: ec44 0abb 09fc 38bd 4934 55bd e8f1 93bd
00000170: 31c5 12bb 5ce8 56be 224a 473c 5ca0 813d
00000180: 3ef2 4fbd aaeb 783e 9505 4ebe e077 473e
00000190: 073d dfbd e551 413e ecf9 80bb 02b2 833d
000001a0: a7f5 4e3c cd97 38be 4998 3bbd 7844 a0bd
000001b0: a394 5dbc ee45 823d b7b6 63bc 3a86 17be
000001c0: a6ad 823c c4fd 6ebe c744 293e b18f 56bd
000001d0: 99bc 3e3e d665 723e 0ff8 debd 1d44 9ebc
000001e0: 944d 24be 931a 5c3d b862 823d 91d5 e33d
000001f0: 55ef 5dbd 5c33 133e f072 08be 3fc2 d93d
00000200: 6910 cb3d 1356 753d f051 67bc f790 1bbe
00000210: e5aa debc 6165 75bd 6149 573c ac6d 2cbe
00000220: 636b a83d 1652 883c a1e9 35be eb17 ec3d
00000230: e4dd 6cbe 86a4 20be b91e 76be ce06 51be
00000240: e9e4 c5bd ff4c 913d c452 c13c 012f 0fbd
00000250: bade 43bc d8c5 d1bb 1604 a83d 91fd 7cbd
00000260: b2b0 f5bd c50d 023e 6f1c a8bc 3dcf 8f3c
00000270: 5a88 cf3d 2f89 8f3c 36d7 2fbd 2902 ba3d
00000280: 7fda 3c3d 8d10 3f3e 8b40 1e3e fbfc e43d
00000290: 3835 9bbd 074e 003d c97c 993d 321b 533d
000002a0: 5982 bc3c b8df 983d b180 57be 6327 82bd
000002b0: 83c3 6b3c 7d4b 3f3c 8c74 b9bd 3beb 103d
000002c0: b920 7fbd 26d1 813d cebb 1f3d f450 093d
000002d0: ab1e 753d 13c1 343e ef4e 00bd 9168 04be
000002e0: 2cf1 be3c 0cce 18bd de2e 3abd 334e e43d
000002f0: bebc 0f3d 9625 79ba c6f7 0b3d 843d b5bb
00000300: 98c2 033d d947 aabe 14f0 dfbb fbd1 c43c
00000310: 668d f2bd c7e5 873d 83ad 4fbd 74d0 9dbd
00000320: dba4 5f3c 4b0f b9bc ea70 7d3e 4e0b 90bd
00000330: 497d 3f3e a1fc f73c 876b 3bbd d670 0ebe
00000340: fe8b 1cbd 6530 f03c f8d8 ed3d cee9 8f3d
00000350: 94c1 6ebe fd66 01be 9544 e8bd 43ab 093c
00000360: 4ce1 2d3c 2c19 963d 3c5c adba 11aa a8bd
00000370: 5ab4 d33d e5ab 563e 330d ba3c e0ac 7cbd
00000380: b510 413d 5eda 85be 633b 313e 7683 f7bd
00000390: 9bf0 a6bc c2fd 3abe 5c7e e0bd a78d e3bb
000003a0: 3c16 66bd 979f 833e b312 933d b2e2 863d
000003b0: db47 4cbd 183a 33bd 43c8 dbba 05b4 b03d
000003c0: 6344 633d 4a02 2a3e ea34 a1bd 2303 a53d
000003d0: 3ddf 3bbe e375 79be c6eb 063e 1acc 233b
000003e0: d1c6 fb3c a2fd e93b ab86 573d 7679 f7bd
000003f0: 85bc 753d 37f6 cdbd cffc c63d 7f05 bdbc

actor.bias f4 [2]
-0.000651121 0.061708696
00000000: feaf 2aba 42c2 7c3d

critic.weight f4 [1, 128]
-0.2744916 -0.23150632 -0.29382718 0.6918454 0.1454479 0.29084185 -0.1647749 0.6722508
-0.3715566 0.6295455 0.61649626 0.66616476 -0.09641048 0.6685737 0.6846516 0.7070799
0.66216296 0.6771986 -0.36032534 0.70731026 -0.34496728 -0.33606783 -0.39832968 -0.26997668
0.66270864 0.57798195 -0.109250695 -0.3502211 -0.17929694 -0.055573307 -0.25775346 0.69555634
-0.37917665 0.5651053 0.7740035 0.6267406 0.39630985 0.08368731 -0.16746643 0.4679514
-0.2802259 0.5726101 -0.40806246 0.64132607 0.5956095 -0.28619766 0.83768374 -0.38628104
-0.28469604 -0.24256161 -0.44377795 0.62359715 0.6595427 -0.2925973 -0.23979077 -0.17345434
-0.18484077 -0.31416538 -0.1918978 0.022100655 -0.4416629 -0.34998527 0.5283138 0.60218066
-0.31209436 -0.23004612 -0.5990468 -0.28886455 -0.10140054 0.55010813 0.6954499 -0.5587128
0.16511804 0.6001504 -0.04556227 -0.16877168 0.6684001 -0.26762894 0.5453943 -0.11710064
-0.32610568 -0.28943396 -0.23971497 -0.4683154 0.1338507 -0.08073334 -0.25619435 0.7142896
0.18065453 -0.047456484 -0.19536203 0.6032618 -0.11639798 -0.4497883 -0.2594287 -0.32712623
-0.3376844 -0.12682445 0.83735156 0.66450727 0.62366265 0.65294176 0.07922279 -0.20990314
-0.20641917 -0.12248854 -0.53962976 -0.3368723 0.5939196 -0.27319402 0.5960879 0.14252786
-0.24309556 0.584108 -0.11529769 0.6558465 -0.3309952 -0.11932892 0.6843202 -0.22423832
-0.32220963 -0.37879834 0.60745114 -0.048355356 -0.34592015 -0.40107924 0.16375934 -0.13186166
00000000: 2a8a 8cbe fe0f 6dbe 8470 96be c81c 313f
00000010: 4bf0 143e 39e9 943e c0ba 28be a118 2c3f
00000020: ab3c bebe e529 213f b3d2 1d3f c689 2a3f
00000030: dc72 c5bd a527 2b3f 5445 2f3f 3003 353f
00000040: 8383 293f e35c 2d3f 907c b8be 4912 353f
00000050: 8d9f b0be 1511 acbe def1 cbbe 623a 8abe
00000060: 46a7 293f a0f6 133f d4be dfbd 2e50 b3be
00000070: 9e99 37be d6a0 63bd 43f8 83be fb0f 323f
00000080: 7123 c2be beaa 103f 1825 463f 1272 203f
00000090: 20e9 ca3e 4164 ab3d 527c 2bbe 5397 ef3e
000000a0: c579 8fbe 9396 123f 90ed d0be f22d 243f
000000b0: dd79 183f 8088 92be 7172 563f a1c6 c5be
000000c0: aec3 91be 1262 78be dd36 e3be 10a4 1f3f
000000d0: cad7 283f 50cf 95be b68b 75be 049e 31be
000000e0: e646 3dbe 49da a0be db80 44be 6f0c b53c
000000f0: a421 e2be 4531 b3be 933f 073f 8328 1a3f
00000100: d5ca 9fbe 3691 6bbe 225b 19bf 0ee6 93be
00000110: 16ab cfbd e3d3 0c3f 0109 323f cd07 0fbf
00000120: b414 293e 75a3 193f 819f 3abd 7cd2 2cbe
00000130: 451c 2b3f a906 89be f69e 0b3f 76d2 efbd
00000140: 53f7 a6be b030 94be d777 75be 09c7 efbe
00000150: 2810 093e 8557 a5bd e82b 83be afdb 363f
00000160: 80fd 383e bb61 42bd fc0c 48be 5e6f 1a3f
00000170: 1062 eebd a74a e6be d7d3 84be 177d a7be
00000180: f8e4 acbe 45de 01be ac5c 563f 261d 2a3f
00000190: 5ba8 1f3f 3127 273f 8f3f a23d d9f0 56be
000001a0: 8c5f 53be 46db fabd 2d25 0abf 877a acbe
000001b0: 1d0b 183f 16e0 8bbe 3799 183f d3f2 113e
000001c0: 0bee 78be 1a88 153f 3221 ecbd 8ee5 273f
000001d0: 3478 a9be b962 f4bd 9c2f 2f3f bb9e 65be
000001e0: a9f8 a4be dbf1 c1be eb81 1b3f 4410 46bd
000001f0: 721c b1be 425a cdbe 87b0 273e be06 07be

exp_avg f4 [128, 4]
0.0010663704 0.00082888064 -0.0005488281 -0.003309704 -0.002411115 -0.0014091214 0.00035465628 0.0023942844
0.00043127727 0.0020739397 -0.0008516716 -0.0028927051 2.4371675e-05 -0.0005321173 0.00029295246 0.0009852797
-0.00075467577 0.001221357 -0.0007671091 -0.00033785772 -0.000368691 8.262058e-05 0.00035297757 -0.0003273347
0.00028251158 0.00014487858 0.00015463946 0.00014026194 -0.0030569455 -0.0027542075 0.0005990249 0.0032626705
-0.0016692214 0.00023677175 -0.00014651091 -0.00027152113 0.00010989477 0.0007498983 -0.00018530036 -0.002194426
6.3191204e-05 -1.00146235e-05 8.0689744e-05 0.00029838172 -0.00012557779 -0.0009614794 0.0001401383 0.0014498599
-2.0353771e-05 -0.00031952327 9.9346114e-05 0.0005585049 0.00015730379 -0.00071938284 0.00022450103 0.0014087008
-0.0003507868 0.0007105728 0.0005124191 -1.3773246e-05 4.820725e-05 -1.8545537e-05 0.0002069751 0.00045281983
4.603211e-06 -0.00077545235 6.486985e-05 0.0011365643 -0.00012798232 0.0018386511 -0.0002898472 -0.0021976503
0.00036984778 -9.1603666e-05 0.00038745312 0.0009797515 -0.00018071267 -0.0013776715 0.00011737993 0.0017509611
-0.0011210081 -0.001011495 1.7257968e-05 0.0005430284 -0.0004633608 0.00081419735 0.00048525052 -5.122291e-05
0.00042227912 -0.00056161033 0.0001037098 0.0008953015 0.00019548695 -0.00027787004 0.00012509113 0.0005629933
-0.00020921613 0.00032569023 0.00067467254 0.0005848932 -0.00011701014 -0.00037701154 -1.1462249e-05 0.00050043734
-0.00037279213 -0.0004341712 -0.0020916895 -0.0023486228 0.00028307753 -0.00016166845 1.3422007e-05 0.00022451853
0.0009861911 0.0005407203 -0.0011737033 -0.0031765262 -0.0015532108 -0.0018064462 -0.0008177875 0.0023757804
-0.00046630594 -0.0007018151 0.00027509907 0.00097448466 3.8557246e-05 -0.00021520584 0.00017852937 0.00058618916
5.225556e-05 -0.00011475906 0.00015541103 0.00040985562 -0.0012968736 -0.002092932 0.00017107028 0.002491121
-0.0010739246 -0.0012483373 0.00045276372 0.0023916094 0.00019617096 0.00038199645 1.017213e-05 -0.00037100175
0.00022117098 -0.00040243348 0.00012668403 0.0005951307 0.00023031872 0.0010236518 0.00037219704 -0.00013161082
0.0005712378 -3.0780202e-06 -4.4086482e-05 0.0001515281 -0.0020412032 -0.00056039024 0.00019139762 0.004588678
-2.2630928e-05 0.0007955482 -0.0002402614 -0.0012544573 -0.00016376293 0.0024082803 -5.4782347e-05 -0.0029290866
-0.00072745606 0.00014862428 0.00066604273 0.00058325875 -5.8597954e-05 -0.0002806269 0.0002171452 0.00075549254
0.0039253267 -0.0011806489 -0.0008937218 -0.0020287815 5.1792485e-05 -0.00023241078 0.00010620851 0.0004590201
-0.00020001865 0.0008444427 0.00040298727 -0.0010837971 4.247135e-05 0.00059542025 4.2112708e-05 -0.00059469795
0.0011030672 0.0011310537 4.1157287e-05 -0.0009974833 -0.0026952068 0.008558663 -0.0009908187 -0.015264945
-0.00066043466 0.0031378116 -0.00019558257 -0.004052895 -0.0004971287 -1.1129736e-05 0.00058692927 0.00084193255
-4.9430113e-05 0.0001563041 0.0006048101 0.00094986416 6.2618055e-06 -0.00045301614 8.199714e-05 0.0008466384
-0.00021740887 -0.0029531252 -0.0017632421 -0.00032719172 0.0001065059 -0.0001661229 0.00010431627 0.00040260408
-0.0012069192 0.00013320858 0.0004775032 0.00012998538 0.001274708 0.0008778602 -0.0006602661 -0.003752384
4.2185835e-05 -0.00092802057 6.160304e-05 0.0012231681 -0.00024300438 0.00050759735 1.1611478e-05 -0.0008091404
-0.00010908265 -0.00034019668 0.0001384728 0.00068504276 1.7219341e-05 -0.00027351748 0.00016635633 0.00058316696
0.00010805734 -0.00016566625 9.9476936e-05 0.00039300838 -0.0004941009 0.00043981188 0.00045341026 -9.53563e-05
00000000: 74c5 8b3a 3d49 593a 3bdf 0fba 9ee7 58bb
00000010: cc03 1ebb 45b2 b8ba 29f1 b939 6de9 1c3b
00000020: 0e1d e239 efea 073b b742 5fba 8a93 3dbb
00000030: c671 cc37 ca7d 0bba 6a97 9939 8024 813a
00000040: 6fd5 45ba f115 a03a d217 49ba 7f22 b1b9
00000050: de4c c1b9 9644 ad38 d90f b939 1f9e abb9
00000060: 101e 9439 8cea 1739 b726 2239 4713 1339
00000070: 0957 48bb ef7f 34bb e107 1d3a 87d2 553b
00000080: c7c9 daba ef45 7839 b9a0 19b9 f35a 8eb9
00000090: 4e77 e638 d394 443a 304d 42b9 5cd0 0fbb
000000a0: 8585 8438 7b04 28b7 fa37 a938 1e70 9c39
000000b0: 88ad 03b9 ca0b 7cba 17f2 1239 3a09 be3a
000000c0: 64bd aab7 b085 a7b9 0a58 d038 a168 123a
000000d0: eaf1 2439 f794 3cba 0968 6b39 28a4 b83a
000000e0: cfe9 b7b9 bc45 3a3a dd53 063a a413 67b7
000000f0: 2432 4a38 3d92 9bb7 7507 5939 7368 ed39
00000100: 4875 9a36 ba47 4bba bc0a 8838 c5f8 943a
00000110: fe32 06b9 e5fe f03a a2f6 97b9 7406 10bb
00000120: 21e8 c139 581b c0b8 1423 cb39 016b 803a
00000130: b07d 3db9 fc92 b4ba df29 f638 8180 e53a
00000140: caee 92ba 2494 84ba 34c5 9037 055a 0e3a
00000150: 3cef f2b9 dc6f 553a 3969 fe39 2ed8 56b8
00000160: 5865 dd39 0839 13ba c67e d938 abb2 6a3a
00000170: a1fb 4c39 16af 91b9 e52a 0339 d795 133a
00000180: 0761 5bb9 67c1 aa39 82dc 303a 8553 193a
00000190: 5763 f5b8 a2a9 c5b9 fc4d 40b7 c82f 033a
000001a0: 5073 c3b9 79a1 e3b9 ba14 09bb 5aeb 19bb
000001b0: 066a 9439 8b85 29b9 152f 6137 bc6c 6b39
000001c0: 1543 813a 20bf 0d3a f3d6 99ba 442d 50bb
000001d0: 1b95 cbba 47c6 ecba ca60 56ba fbb2 1b3b
000001e0: 867a f4b9 04fa 37ba 2c3b 9039 8f74 7f3a
000001f0: 87b8 2138 e1a8 61b9 9d33 3b39 7daa 193a
00000200: fb2c 5b38 cdaa f0b8 d5f5 2239 e4e1 d639
00000210: dbfb a9ba 9229 09bb 5461 3339 1342 233b
00000220: eec2 8cba 409f a3ba eb60 ed39 8cbc 1c3b
00000230: 3eb3 4d39 b246 c839 f7a8 2a37 0383 c2b9
00000240: 22ea 6739 b5fd d2b9 7cd6 0439 8c02 1c3a
00000250: b681 7139 0e2c 863a 7123 c339 0301 0ab9
00000260: 1fbf 153a fc8f 4eb6 80e9 38b8 84e3 1e39
00000270: b5c5 05bb 27e7 12ba e8b1 4839 9f5c 963b
00000280: 8cd7 bdb7 568c 503a aeee 7bb9 9a6c a4ba
00000290: c7b7 2bb9 3dd4 1d3b 19c6 65b8 ebf5 3fbb
000002a0: c0b2 3eba 07d8 1b39 5f99 2e3a d5e5 183a
000002b0: 13c7 75b8 1b21 93b9 79b1 6339 3f0c 463a
000002c0: 07a0 803b 01c0 9aba a848 6aba 4ef5 04bb
000002d0: c23b 5938 4bb3 73b9 42bc de38 a3a8 f039
000002e0: 19bc 51b9 975d 5d3a 0948 d339 320e 8eba
000002f0: 4423 3238 fa15 1c3a 2da2 3038 81e5 1bba
00000300: cb94 903a dd3f 943a 4da0 2c38 fcbd 82ba
00000310: 11a2 30bb a239 0c3c 5cde 81ba d219 7abc
00000320: 0521 2dba bea3 4d3b 4c15 4db9 26ce 84bb
00000330: be51 02ba dab9 3ab7 28dc 193a 23b5 5c3a
00000340: 2e53 4fb8 90e5 2339 1e8c 1e3a 4e00 793a
00000350: 801c d236 cc82 edb9 e1f5 ab38 f1f0 5d3a
00000360: 40f8 63b9 3889 41bb 961c e7ba ee8a abb9
00000370: eb5b df38 4731 2eb9 5fc4 da38 9b14 d339
00000380: 7d31 9eba e8ad 0b39 6559 fa39 af4c 0839
00000390: 1a14 a73a 3320 663a b515 2dba 8fea 75bb
000003a0: b2f0 3038 6846 73ba e130 8138 b652 a03a
000003b0: fece 7eb9 4810 053a ebce 4237 7e1c 54ba
000003c0: 4dc3 e4b8 6d5c b2b9 0233 1139 7194 333a
000003d0: 4172 9037 e566 8fb9 f06f 2e39 acdf 183a
000003e0: d89c e238 b2b6 2db9 469e d038 b10c ce39
000003f0: 8d86 01ba 8d96 e639 b2b7 ed39 06fa c7b8
