models/legacy trained/target_ppo_base.pt (torch, 270898 bytes, 36 tensors)

actor_logstd f4 [2]
0.98387367 0.6357899
00000000: 25df 7b3f 20c3 223f

shared.0.weight f4 [128, 23]
0.18527572 -0.24890739 -0.022065286 0.11857042 -0.084573075 0.14130805 -0.03460726 -0.039786376
0.07422004 0.17386904 0.20238546 0.22370945 0.22738735 0.20823404 -0.011247404 0.012446018
0.58639663 0.33051947 -0.04687249 -0.07057792 0.3389258 0.17389661 0.02464972 0.0689937
0.12248417 -0.06942904 0.23847054 -0.08140598 -0.6516399 -0.07967587 0.31723368 0.053253785
0.20096965 0.10518525 0.16071805 0.1889913 0.18079935 0.15246567 0.15321392 0.45440736
-0.5837912 -0.24951904 -0.19680186 0.19829388 0.21617584 0.00905244 -0.17221041 -0.18965277
0.21970579 0.15232977 -0.23966397 0.2501053 0.25050306 -0.17802875 0.23024619 0.17606145
0.32843474 0.20637295 0.097098805 0.19963546 0.15454204 0.2761206 0.25456995 0.35378045
0.18331431 -0.0873727 -0.21663372 0.14181855 0.113284186 0.2559785 0.109736 -0.3899695
-0.14070661 -0.05307904 0.11665722 0.2949644 -0.041062955 0.13677108 0.09320795 0.030916303
0.27530065 0.198994 0.07830038 0.19130886 0.17888275 -0.13883144 0.2628012 0.38633394
0.2431844 -0.014877307 0.21836263 0.24308576 -0.11398729 -0.29294518 0.05846178 0.08185425
-0.39922643 0.20543471 0.18112992 0.076105215 0.032583978 0.10371269 0.06868661 0.056553755
0.063938886 0.112866156 0.09420174 0.14158762 -0.19528577 0.021517586 0.21267934 0.20130882
0.09099512 -0.25875866 0.07096502 -0.3961509 -0.34485525 -0.14271915 0.23020709 0.16858648
0.53947026 -0.1539405 -0.060611166 0.1409107 0.15717392 0.11879527 0.10346448 0.042379223
0.32352304 0.17312165 0.15219493 -0.03325082 0.42753154 0.2870609 0.39010718 -0.3099692
0.08031851 0.05482658 -0.32237783 0.45159316 -0.031405535 -0.41929096 0.27717012 0.22507495
0.10534395 -0.21619745 0.15863375 0.0575069 0.15122381 -0.008734008 -0.037802435 0.15491873
0.098381944 0.2183566 0.37279278 0.13633072 0.137467 0.03244251 0.3382525 0.09648459
-0.024040585 0.5411189 -0.42936033 0.24128558 -0.33597448 0.057101127 0.36567903 -0.10993953
-0.1918641 0.19446181 0.29384407 0.088055894 -0.0026559052 -0.085924834 0.1613403 0.07994781
0.14197627 -0.2135498 0.31107944 0.20741788 0.2871654 0.17683454 -0.073324785 0.06515963
-0.5241095 0.12038176 0.06696717 0.04065174 0.2721051 0.20441908 -0.26201203 -0.34638548
0.09273544 0.2237251 0.18733728 0.15253511 0.08077023 0.17181547 0.093353726 0.12285975
0.33636737 0.33641702 -0.08488162 0.06473082 0.9283328 0.29767942 0.012746457 0.48279124
0.09069761 -0.3686459 -0.2723162 0.70317763 -0.19487168 -0.2535356 0.07660454 0.055581942
0.32307082 0.24164447 0.10978573 0.050958276 0.014925148 0.032825228 0.0076812645 0.24151146
0.048849173 -0.16453767 -0.10198254 -0.3150807 0.10254647 0.15174896 -0.473041 0.024908718
0.27916807 0.029144973 0.49687496 -0.61868536 0.25700706 -0.1634441 0.12403442 0.24249665
-0.046434876 -0.034775816 0.18634915 0.14697328 0.0033294286 0.10166949 0.14559337 -0.29034406
0.14303882 0.13338192 0.07327536 0.3005702 0.062738 0.7845425 -0.00568745 0.23061965
00000000: ebb8 3d3e 94e1 7ebe 42c2 b4bc 0cd5 f23d
00000010: a634 adbd 0fb3 103e 58c0 0dbd 0af7 22bd
00000020: ad00 983d ba0a 323e 223e 4f3e 1714 653e
00000030: 3bd8 683e 4e3b 553e 0847 38bc 62ea 4b3c
00000040: 171e 163f d939 a93e 5efd 3fbd 288b 90bd
00000050: af87 ad3e f411 323e 36ee c93c 924c 8d3d
00000060: fbd8 fa3d d030 8ebd 9f31 743e 2eb8 a6bd
00000070: dfd1 26bf 1a2d a3bd 746c a23e a420 5a3d
00000080: fdca 4d3e 5d6b d73d 4693 243e ef86 413e
00000090: 7723 393e f61f 1c3e 1ce4 1c3e 15a8 e83e
000000a0: 5773 15bf eb81 7fbe 6d86 49be 8d0d 4b3e
000000b0: 335d 5d3e af50 143c ed57 30be 5634 42be
000000c0: 8efa 603e 56fc 1b3e 796a 75be cd0d 803e
000000d0: f041 803e 2b4d 36be a8c5 6b3e 7449 343e
000000e0: 9928 a83e 6e53 533e bddb c63d 3d6d 4c3e
000000f0: 4540 1e3e ae5f 8d3e fe56 823e b622 b53e
00000100: bfb6 3b3e 75f0 b2bd 3bd5 5dbe e238 113e
00000110: 8a01 e83d 9d0f 833e 45bd e03d 15aa c7be
00000120: 6515 10be 6869 59bd fbe9 ee3d 9305 973e
00000130: a131 28bd b80d 0c3e cfe3 be3d 3044 fd3c
00000140: 35f4 8c3e 15c5 4b3e f35b a03d 78e6 433e
00000150: 0a2d 373e d429 0ebe e18d 863e 90cd c53e
00000160: 5505 793e f3bf 73bc 749a 5f3e 79eb 783e
00000170: 2b72 e9bd e9fc 95be 9f75 6f3d 33a3 a73d
00000180: 6867 ccbe 7a5d 523e 1f7a 393e 0ddd 9b3d
00000190: c776 053d 5267 d43d 91ab 8c3d e9a4 673d
000001a0: 64f2 823d 5f26 e73d d8ec c03d 58fc 103e
000001b0: fef8 47be a645 b03c 9dc8 593e e623 4e3e
000001c0: a65b ba3d 047c 84be 1c56 913d 4ad4 cabe
000001d0: de90 b0be f824 12be 68bb 6b3e efa1 2c3e
000001e0: b91a 0a3f 94a2 1dbe 6a43 78bd e54a 103e
000001f0: 33f2 203e ef4a f33d 2fe5 d33d d695 2d3d
00000200: d0a4 a53e cd46 313e fdd8 1b3e 0332 08bd
00000210: 6ae5 da3e a5f9 923e 21bc c73e 48b4 9ebe
00000220: 087e a43d d691 603d b50e a5be 3837 e73e
00000230: 17a3 00bd 4ead d6be 3ee9 8d3e 0c7a 663e
00000240: 92be d73d dd62 5dbe e370 223e 5b8c 6b3d
00000250: 6ada 1a3e 1619 0fbc bad6 1abd 04a3 1e3e
00000260: 797c c93d df98 5f3e b2de be3e 489a 0b3e
00000270: 26c4 0c3e 70e2 043d 6f2f ad3e b699 c53d
00000280: c3f0 c4bc c586 0a3f 1ed5 dbbe 9113 773e
00000290: d904 acbe dfe2 693d 483a bb3e fa27 e1bd
000002a0: 0678 44be ff20 473e bb72 963e a656 b43d
000002b0: b20e 2ebb 5cf9 afbd 6436 253e adbb a33d
000002c0: 3a62 113e ccac 5abe ce45 9f3e 5a65 543e
000002d0: 5807 933e 1d14 353e 4e2b 96bd 6972 853d
000002e0: 0a2c 06bf b68a f63d 1526 893d 7082 263d
000002f0: 5c51 8b3e 3c53 513e 7126 86be 7059 b1be
00000300: 14ec bd3d 3118 653e 58d5 3f3e 2a32 1c3e
00000310: dd6a a53d 65f0 2f3e 3d30 bf3d e59d fb3d
00000320: 5838 ac3e da3e ac3e 6ad6 adbd 9891 843d
00000330: 38a7 6d3f 7069 983e 84d6 503c 6a30 f73e
00000340: abbf b93d 28bf bcbe 076d 8bbe 7303 343f
00000350: 718c 47be 6bcf 81be d7e2 9c3d e4a9 633d
00000360: 8a69 a53e a671 773e 57d7 e03d a0b9 503d
00000370: 9c88 743c bf73 063d 1eb3 fb3b c84e 773e
00000380: 1216 483d 907c 28be 39dc d0bd 4252 a1be
00000390: e203 d23d 1464 1b3e 6e32 f2be 5e0d cc3c
000003a0: 1eef 8e3e 70c1 ee3c 6566 fe3e 2a62 1ebf
000003b0: 6e96 833e e45d 27be c205 fe3d 0b51 783e
000003c0: 7f32 3ebd 1671 0ebd 50d2 3e3e 2a80 163e
000003d0: 8b32 5a3b 1838 d03d 6e16 153e faa7 94be
000003e0: c578 123e 4595 083e 6411 963d 56e4 993e
000003f0: c87c 803d c7d7 483f ca5d babb 8f27 6c3e

shared.0.bias f4 [128]
0.105470605 0.23104149 -0.00300472 0.14903462 0.3283344 0.26624033 0.22413728 0.07512947
-0.055133857 0.27943194 0.09579546 0.3261667 0.26784238 0.23127696 0.2552176 0.119249105
0.22338624 0.09331818 0.2710711 0.4874741 0.053937323 0.34403336 0.2057949 0.22376229
0.31726006 0.22112998 -0.012425095 0.17733951 0.07111263 -0.011723941 -0.12194234 0.054935616
-0.16768216 -0.020025361 -0.030078737 0.16794787 0.097962864 0.19143716 0.16332524 0.2837653
0.0858868 0.26091704 0.15876941 0.24062322 0.21074994 0.008257532 0.15184498 0.16374104
0.15809017 0.13061056 0.18079132 -0.08752304 0.01788723 -0.07006848 -0.0031046353 0.31405103
-0.038840573 -0.18744688 0.23921996 0.26117063 0.21286683 0.10924736 0.2571114 0.22761454
0.25105378 -0.064806685 0.19837908 0.31261367 0.10529179 0.17164706 0.15346132 0.13896881
0.26034683 -0.13274495 0.26021817 0.0074000596 0.121543646 0.36222646 0.08572566 0.009541783
0.0068568657 0.13926083 0.16587019 0.32259077 0.02256826 0.007746533 0.3424872 0.088060275
0.3144601 0.071022235 0.35411748 0.3114949 0.20472059 0.112426504 0.14720118 0.19651979
0.3326893 0.18635426 0.108669624 0.1628847 0.30149075 0.3529198 0.013905652 -0.037189245
-0.0100823995 0.18829188 0.21788482 0.31965867 0.012029493 0.18221323 0.26378718 0.25660497
0.085142866 0.113033056 0.19686143 0.26637563 0.020682976 0.25568184 0.2679934 0.09678072
0.31691518 0.18269417 -0.06920824 0.018261375 0.02560041 0.23153812 0.27721497 0.18810153
00000000: f900 d83d 2496 6c3e d6ea 44bb 889c 183e
00000010: 721b a83e a750 883e 3e84 653e 7bdd 993d
00000020: 0ad4 61bd b411 8f3e 6930 c43d 52ff a63e
00000030: a322 893e ded3 6c3e e2ab 823e e038 f43d
00000040: 5dbf 643e 9a1d bf3d d5c9 8a3e 3596 f93e
00000050: 62ed 5c3d 2425 b03e e6bb 523e f121 653e
00000060: e96f a23e e66f 623e a092 4bbc 7d98 353e
00000070: 80a3 913d c615 40bc e8bc f9bd 2b04 613d
00000080: dfb4 2bbe 3a0c a4bc af67 f6bc 87fa 2b3e
00000090: c1a0 c83d 1a08 443e bb3e 273e af49 913e
000000a0: 6be5 af3d eb96 853e 7394 223e ef65 763e
000000b0: d5ce 573e 994a 073c 407d 1b3e bbab 273e
000000c0: 64e2 213e c6be 053e 5c21 393e 483f b3bd
000000d0: 3d88 923c 1080 8fbd 2377 4bbb 4ccb a03e
000000e0: 4b17 1fbd 13f2 3fbe 14f6 743e 28b8 853e
000000f0: c3f9 593e 14bd df3d 1ba4 833e c913 693e
00000100: 1f8a 803e 5eb9 84bd e323 4b3e e60e a03e
00000110: 39a3 d73d 3fc4 2f3e f724 1d3e d74d 0e3e
00000120: 2e4c 853e 4bee 07be 513b 853e 337c f23b
00000130: e0eb f83d bf75 b93e ef90 af3d 2355 1c3c
00000140: 8faf e03b 649a 0e3e e0d9 293e 9e2a a53e
00000150: 12e1 b83c a1d6 fd3b 7b5a af3e f258 b43d
00000160: ea00 a13e 1b74 913d e34e b53e 427c 9f3e
00000170: 46a2 513e de3f e63d e8bb 163e 7c3c 493e
00000180: 4056 aa3e a7d3 3e3e 2e8e de3d 3fcb 263e
00000190: ff5c 9a3e e7b1 b43e 88d4 633c c053 18bd
000001a0: a630 25bc 96cf 403e 331d 5f3e 4daa a33e
000001b0: 5a17 453c 1b96 3a3e 1d0f 873e ba61 833e
000001c0: 625f ae3d e07d e73d 0b96 493e 6362 883e
000001d0: 586f a93c bbe8 823e 6e36 893e f834 c63d
000001e0: b542 a23e 2e14 3b3e 0dbd 8dbd e198 953c
000001f0: f3b7 d13c 5418 6d3e 1fef 8d3e b09d 403e

shared.1.weight f4 [128]
1.2681931 1.7579007 1.2885824 1.2387371 1.2095963 1.3321812 1.2812887 1.5130255
1.4074734 1.7597128 1.363821 1.67701 1.4944264 1.0867413 1.2869426 1.2207463
1.6523278 1.4810123 1.4362484 0.4142587 0.9653474 1.6753336 1.5579644 0.9500717
1.0828975 1.4594309 1.1175416 1.5976455 1.5821106 1.1959304 1.3208828 1.2908974
1.417396 1.4320921 1.4054703 1.4108722 1.2401471 0.88026035 1.1783527 1.303564
1.8939358 1.1218491 1.2901512 0.9222343 1.2134441 1.2806166 1.2130165 1.098828
1.1655277 1.6703907 1.3432357 1.4655039 1.7525527 1.1875696 1.6378796 1.1617923
1.2047982 1.1885226 1.3828629 0.81160957 1.0828015 1.1031511 1.2914435 2.0699003
1.196909 1.290872 1.2073246 1.0090812 1.4376497 1.3266568 1.5840541 1.4585186
1.3190422 1.5339766 1.0356904 1.3159198 1.6601062 1.2354034 1.4913468 1.7988033
1.4757398 1.3452762 1.0685648 1.3296758 1.3601116 2.2142298 1.2344099 1.6873585
1.4791778 1.3248444 1.510495 1.435302 1.3001744 1.4796557 1.2377898 1.3698083
1.3382342 0.8670635 1.4084873 1.2431121 1.3819755 1.1251779 1.661654 1.194629
1.4616966 1.459361 1.528566 1.3314362 1.429662 1.1834123 1.3670303 1.2081951
1.7659286 1.404994 1.5075091 0.65567124 1.4351546 1.1509031 1.4479983 1.1078355
0.76625675 1.208816 1.4675056 1.1077337 1.8405079 1.2106823 1.8182697 1.7365268
00000000: 2754 a23f e402 e13f 45f0 a43f f08e 9e3f
00000010: 0dd4 9a3f ea84 aa3f 4501 a43f d2aa c13f
00000020: 1728 b43f 453e e13f b091 ae3f 44a8 d63f
00000030: 5d49 bf3f 571a 8b3f 89ba a43f 6a41 9c3f
00000040: 7a7f d33f d091 bd3f fdd6 b73f b719 d43e
00000050: 0221 773f 5571 d63f 616b c73f e637 733f
00000060: 639c 8a3f a2ce ba3f 9a0b 8f3f a67f cc3f
00000070: 9a82 ca3f 3f14 993f b012 a93f 203c a53f
00000080: 3b6d b53f cb4e b73f 73e6 b33f 7697 b43f
00000090: 24bd 9e3f be58 613f 43d4 963f 2fdb a63f
000000a0: 7d6c f23f c098 8f3f ad23 a53f 8c17 6c3f
000000b0: 2352 9b3f 3feb a33f 2044 9b3f 65a6 8c3f
000000c0: 0330 953f 5dcf d53f 26ef ab3f a295 bb3f
000000d0: a653 e03f 4802 983f 0aa6 d13f 9cb5 943f
000000e0: d436 9a3f 8221 983f a701 b13f a5c5 4f3f
000000f0: 3d99 8a3f 0e34 8d3f 054e a53f 3f79 0440
00000100: 5034 993f 4b3b a53f 9d89 9a3f 9329 813f
00000110: e804 b83f e4cf a93f 49c2 ca3f bdb0 ba3f
00000120: 60d6 a83f 5859 c43f 8191 843f 0f70 a83f
00000130: 5c7e d43f b321 9e3f 74e4 be3f 303f e63f
00000140: 0be5 bc3f 0332 ac3f bbc6 883f d132 aa3f
00000150: 2318 ae3f f1b5 0d40 2501 9e3f 5dfb d73f
00000160: b355 bd3f 8094 a93f e657 c13f fab7 b73f
00000170: 1d6c a63f 5c65 bd3f e56f 9e3f e155 af3f
00000180: 424b ab3f e0f7 5d3f 5049 b43f 4c1e 9f3f
00000190: 93e4 b03f d405 903f 14b1 d43f 9ae9 983f
000001a0: e018 bb3f 57cc ba3f 0da8 c33f 806c aa3f
000001b0: 2aff b63f 0e7a 973f d9fa ae3f 23a6 9a3f
000001c0: f309 e23f d8d6 b33f 0ff6 c03f 12da 273f
000001d0: 25b3 b73f cb50 933f 0258 b93f 8ecd 8d3f
000001e0: 6729 443f 7cba 9a3f 39d7 bb3f 38ca 8d3f
000001f0: c395 eb3f a3f7 9a3f 10bd e83f 8346 de3f

shared.1.bias f4 [128]
0.10811724 -0.1498685 -0.19044983 0.18465725 -0.027122343 0.100831345 -0.015384156 -0.13796811
0.0041003637 -0.06855537 -0.29648644 0.11508673 -0.13151051 0.07566963 -0.21736076 -0.056128804
-0.018843733 -0.13103004 -0.18876013 -0.6096286 -0.050431646 -0.16305584 -0.09644721 -0.20996766
-0.040119413 0.012240975 -0.2767047 -0.08490149 -0.2211519 -0.11088642 0.0017546441 -0.1352517
-0.073390685 -0.042554908 -0.083350666 -0.14862382 -0.10100928 -0.19376162 0.018137587 -0.053923346
-0.0006571178 -0.17709419 -0.15602721 -0.41579235 -0.09342211 -0.10498167 -0.26170462 -0.20815559
0.03014815 -0.03666815 -0.22368678 0.006223286 0.005304011 -0.088515274 -0.03238446 -0.22377762
-0.32382497 -0.22124153 -0.13491665 -0.43381244 -0.021948427 -0.027840814 -0.31538504 -0.06283587
0.012332368 0.060517393 -0.05837839 -0.32723114 -0.12896125 -0.19422452 0.04772713 -0.07886506
-0.14685094 0.07496639 -0.14437504 0.030354477 -0.13333127 -0.039661963 -0.056995485 0.05967987
0.06542989 -0.19835377 -0.11304619 0.030858977 -0.043756906 0.046266522 -0.014849712 -0.10473532
-0.06922067 -0.14391884 -0.19758 -0.008741389 0.045721617 -0.05274684 -0.05986405 -0.14031324
-0.059732586 -0.29736957 -0.34763065 -0.10645674 -0.055542503 0.0074367337 -0.14527342 -0.16645779
-0.19519782 -0.121121965 -0.09676034 -0.019178998 0.02199622 -0.2070768 -0.27268952 -0.054659896
0.050961006 -0.35502174 0.01608888 -0.33310163 -0.25857803 -0.16206719 -0.02633685 0.028922262
-0.3413855 -0.069747485 -0.012003469 -0.13719879 0.036589645 -0.05638499 -0.14086021 0.11152645
00000000: 926c dd3d 2177 19be 4805 43be ca16 3d3e
00000010: ad2f debc aa80 ce3d d40d 7cbc 8347 0dbe
00000020: 585c 863b c266 8cbd 12cd 97be 97b2 eb3d
00000030: b1aa 06be aef8 9a3d d293 5ebe 51e7 65bd
00000040: 2c5e 9abc bd2c 06be 564a 41be 9f10 1cbf
00000050: 6a91 4ebd 1cf8 26be 1d86 c5bd c301 57be
00000060: 4154 24bd 5f8e 483c 3dac 8dbe d5e0 adbd
00000070: a575 62be 6b18 e3bd 16fc e53a 6c7f 0abe
00000080: db4d 96bd 0e4e 2ebd c1b3 aabd d830 18be
00000090: f4dd cebd 7269 46be 4795 943c bade 5cbd
000000a0: 6e42 2cba 2e58 35be 99c5 1fbe bce2 d4be
000000b0: 1754 bfbd a100 d7bd 26fe 85be bd26 55be
000000c0: 41f9 f63c 5831 16bd 260e 65be b5ec cb3b
000000d0: 45cd ad3b 7f47 b5bd 91a5 04bd f625 65be
000000e0: 63cc a5be 248d 62be 9727 0abe aa1c debe
000000f0: 30cd b3bc 6b12 e4bc 267a a1be 18b0 80bd
00000100: b30d 4a3c 16e1 773d 2e1e 6fbd d78a a7be
00000110: 6b0e 04be cbe2 46be 867d 433d 0184 a1bd
00000120: 1860 16be fb87 993d 0dd7 13be f4a9 f83c
00000130: fe87 08be 9574 22bd 1974 69bd e172 743d
00000140: 1b00 863d 401d 4bbe c384 e7bd f7cb fc3c
00000150: 713a 33bd f781 3d3d 354c 73bc 797f d6bd
00000160: 91c3 8dbd 765f 13be 6952 4abe 0b38 0fbc
00000170: 9746 3b3d 120d 58bd 0234 75bd 46ae 0fbe
00000180: 28aa 74bd d340 98be a5fc b1be fe05 dabd
00000190: 8980 63bd d8af f33b 8ec2 14be e973 2abe
000001a0: f0e1 47be cb0e f8bd 492a c6bd 461d 9dbc
000001b0: 6b31 b43c f10b 54be f69d 8bbe 0ee3 5fbd
000001c0: 7dbc 503d 69c5 b5be d4cc 833c 4c8c aabe
000001d0: 5764 84be f1f4 25be 61c0 d7bc 61ee ec3c
000001e0: 15ca aebe c5d7 8ebd 33aa 44bc d77d 0cbe
000001f0: 06df 153d f3f3 66bd a93d 10be fb67 e43d

shared.3.weight f4 [128, 128]
0.34588444 0.29875508 0.11869946 -0.10778786 -0.19053613 -0.025675984 -0.021173436 -0.12634136
0.22564559 0.07325458 0.26052603 0.39465663 0.054604582 0.16462111 0.07609001 0.112677306
-0.29608676 0.4329113 0.35283652 0.116221145 0.078047596 -0.6419233 -0.13578114 0.042076133
0.007215468 0.108616 0.13227415 -0.25491148 0.12816319 0.038615063 0.07141047 0.022848938
0.47096065 -0.14690776 0.13020708 -0.094336405 -0.21464133 0.1506453 0.14911067 -0.5373028
-0.0651667 0.013381654 0.06660516 0.19074994 0.24683763 0.117751345 0.2610036 0.12882812
-0.2195577 0.3565157 -0.08092991 -0.05245998 0.35727146 0.06442118 0.092022836 0.26289144
0.08589639 0.05292612 -0.28596908 0.054952804 0.12429949 0.08311871 -0.18279476 0.38508618
0.02960007 0.2453994 0.09003278 0.26392788 -0.014134254 -0.34047908 0.37474158 -0.14080764
0.14137548 0.24142109 -0.22720256 0.083007865 -0.24175802 0.12923329 -0.010760798 0.14154495
0.25684765 -0.44208333 -0.057615474 -0.024762414 0.3136745 0.39120358 -0.11147397 0.40425465
0.025862046 0.1562229 0.23724557 0.3300255 0.08785658 0.06868257 -0.027061466 0.09445319
0.15001294 0.15260893 -0.07499478 0.18866204 -0.019519102 -0.029582575 0.101399705 0.03874583
-0.21342303 0.15157074 0.19193666 0.17441842 0.16390577 0.12309491 0.26219594 -0.17158337
-0.06451115 0.43681076 -0.016919397 0.16987649 -0.12257245 0.22674315 -0.084642686 -0.0024037042
0.23481058 0.17182302 0.5193423 -0.021754583 0.21371652 0.12842059 0.5369124 0.29486197
0.10510436 0.1918358 0.032654103 0.033345774 -0.17359498 0.11539179 -0.08347032 -0.3801553
0.3035211 0.30327827 0.07089239 0.25554982 0.03671642 -0.057756584 -0.058273558 -0.12724532
-0.082048215 0.352516 0.28017518 0.08412045 0.060099915 -0.7517988 0.09513106 -0.1692616
-0.119603455 -0.10735581 0.10437449 -0.04240399 -0.1093527 -0.16633677 0.096151225 -0.2337093
0.19929087 -0.16517337 -0.0638103 0.027798202 -0.15951365 0.10997367 0.13808489 -0.29867464
0.11775778 0.10714502 0.15057155 0.09505994 0.3523526 0.049343906 0.28862432 0.27756056
0.08941097 0.52488685 0.13359196 0.0605819 0.37639472 0.15252973 0.05366562 0.13904417
0.34130058 0.119148776 0.05194911 0.024811989 0.124214895 0.02227277 -0.32899877 0.43559638
-0.08941751 0.055816904 -0.04896446 0.10953577 0.08622674 -0.30541977 0.41967514 0.13625216
-0.18666972 0.22788991 -0.13126151 0.06865217 -0.21550554 0.23446263 0.04835168 0.19335596
-0.22719362 -0.3379422 0.019239133 -0.16814134 0.1931492 0.40703362 -0.022835491 0.3253623
-0.14649676 0.18247543 0.42151046 0.11243453 -0.058039486 -0.19385538 -0.022186914 0.14844559
0.06972946 0.18985406 -0.20765096 -0.13786966 0.117983565 0.045034587 0.06877412 0.051617846
-0.15796517 3.459813e-05 0.34251773 0.14964521 0.31417954 -0.0006746151 0.23458198 -0.116077706
-0.14731184 0.43414626 -0.1720462 0.063385665 0.06498436 0.14218746 -0.07782127 -0.021475736
-0.03625192 0.18537046 0.27274382 0.047707316 0.3555615 0.0058346693 0.8505743 0.25800687
00000000: c417 b13e 6df6 983e b418 f33d e2bf dcbd
00000010: e71b 43be 7156 d2bc ea73 adbc a15f 01be
00000020: a30f 673e 7f06 963d ab63 853e 6f10 ca3e
00000030: 0ea9 5f3d 7092 283e 14d5 9b3d 5cc3 e63d
00000040: af98 97be 8da6 dd3e fda6 b43e 5a05 ee3d
00000050: 6bd7 9f3d 1655 24bf 360a 0bbe 0658 2c3d
00000060: bc6f ec3b 1172 de3d e072 073e c283 82be
00000070: 363d 033e d42a 1e3d a73f 923d b22d bb3c
00000080: c121 f13e fd6e 16be 0155 053e 7233 c1bd
00000090: f0ca 5bbe c342 1a3e 78b0 183e ad8c 09bf
000000a0: 1e76 85bd ba3e 5b3c 4968 883d f453 433e
000000b0: 01c3 7c3e 9e27 f13d 44a2 853e 85eb 033e
000000c0: bcd3 60be 3a89 b63e 95be a5bd 47e0 56bd
000000d0: 49ec b63e 40ef 833d 7876 bc3d b599 863e
000000e0: 72ea af3d 0fc9 583d 8a6a 92be 3116 613d
000000f0: bb90 fe3d 243a aa3d 8d2e 3bbe 042a c53e
00000100: d97b f23c fb49 7b3e 1b63 b83d 8e21 873e
00000110: 5c93 67bc 4653 aebe 21de bf3e e12f 10be
00000120: bcc4 103e 1737 773e caa7 68be 0700 aa3d
00000130: 6a8f 77be bb55 043e 0f4e 30bc 29f1 103e
00000140: 8981 833e bf58 e2be 34fe 6bbd 8cda cabc
00000150: f299 a03e d64b c83e 774c e4bd 77fa ce3e
00000160: a4dc d33c e5f8 1f3e 81f0 723e 1af9 a83e
00000170: 27ee b33d 72a9 8c3d 02b0 ddbc ad70 c13d
00000180: fe9c 193e 8445 1c3e dd96 99bd 9f30 413e
00000190: 86e6 9fbc 2857 f2bc a6aa cf3d f3b3 1e3d
000001a0: 918b 5abe 5c35 1b3e 0b8b 443e be9a 323e
000001b0: ead6 273e 2f19 fc3d 8c3e 863e 8db3 2fbe
000001c0: 6c1e 84bd a9a5 df3e 8c9a 8abc 1af4 2d3e
000001d0: 4407 fbbd 5b2f 683e 2559 adbd 7787 1dbb
000001e0: 2f72 703e 60f2 2f3e 9ef3 043f ab36 b2bc
000001f0: 81d8 5a3e b080 033e 1773 093f 26f8 963e
00000200: f440 d73d 9b70 443e 4fc0 053d 9495 083d
00000210: e2c2 31be 8852 ec3d 7df2 aabd b7a3 c2be
00000220: 1e67 9b3e 4a47 9b3e 0830 913d 6dd7 823e
00000230: f563 163d 2b92 6cbd 41b0 6ebd 994c 02be
00000240: e508 a8bd fa7c b43e 1f73 8f3e 5847 ac3d
00000250: 542b 763d e375 40bf 13d4 c23d ea52 2dbe
00000260: a8f2 f4bd 5ddd dbbd 4bc2 d53d ceaf 2dbd
00000270: 4ff4 dfbd 3054 2abe efea c43d 7e51 6fbe
00000280: e812 4c3e 3523 29be f9ae 82bd 0eb9 e33c
00000290: 8c57 23be e039 e13d 2066 0d3e e2eb 98be
000002a0: fe2a f13d d96e db3d 6e2f 1a3e c9ae c23d
000002b0: 8f67 b43e d61c 4a3d 91c6 933e 6b1c 8e3e
000002c0: 191d b73d fc5e 063f 55cc 083e ba24 783d
000002d0: cfb6 c03e c130 1c3e 7bd0 5b3d 9861 0e3e
000002e0: f3be ae3e 4604 f43d 97c8 543d 8342 cb3c
000002f0: 6164 fe3d 6275 b63c 8772 a8be 7d06 df3e
00000300: 8720 b7bd 44a0 643d f58e 48bd 4a54 e03d
00000310: a597 b03d fb5f 9cbe a9df d63e b085 0b3e
00000320: 5926 3fbe f95b 693e 6b69 06be 8299 8c3d
00000330: 7cad 5cbe f916 703e 690c 463d 1bff 453e
00000340: 72a5 68be c306 adbe 639b 9d3c 3e2d 2cbe
00000350: e7c8 453e b666 d03e 7f11 bbbc e395 a63e
00000360: 3f03 16be d7da 3a3e 38d0 d73e 1344 e63d
00000370: d0ba 6dbd 0682 46be 55c1 b5bc 1f02 183e
00000380: 52ce 8e3d 1a69 423e 74a2 54be b42d 0dbe
00000390: 5ea1 f13d 3076 383d 72d9 8c3d 3c6d 533d
000003a0: 9fc1 21be 761d 1138 7c5e af3e 983c 193e
000003b0: 24dc a03e a7d8 30ba 4236 703e 26ba edbd
000003c0: ead8 16be 6b48 de3e e12c 30be 58d0 813d
000003d0: 8516 853d 9799 113e c260 9fbd e2ed afbc
000003e0: e57c 14bd c1d1 3d3e 14a5 8b3e bf68 433d
000003f0: 280c b63e c130 bf3b 3dbf 593f 7a19 843e

shared.3.bias f4 [128]
0.20532852 0.15062225 -0.094493136 0.15543053 0.14916496 -0.019653527 0.14902386 -0.03312285
0.047214217 0.02407809 0.010347958 0.07991404 0.10081192 0.040331524 0.28337818 0.050951727
-0.018589934 0.06418717 -0.081067465 0.09212962 0.04621268 0.13816093 0.0038445634 0.08625899
0.08862148 0.080506794 0.14886755 0.21501195 0.13281842 -0.040908825 0.08961753 0.16472168
0.080797896 0.07681414 0.07972519 0.04707648 0.13878933 -0.043013018 0.08405133 0.029192377
0.02622249 0.13549545 -0.0033123004 0.11295325 -0.040358655 0.006309861 0.20195295 0.058719017
0.14630948 0.07889338 0.0830055 0.0013859057 0.05267566 0.10753778 0.00541632 0.13455798
-0.08942815 0.14657226 0.10169354 0.07810261 0.15606926 0.017722474 -0.043282095 0.069480516
0.056106333 0.004726054 0.011220457 0.08526766 0.1005187 0.09586843 0.03242836 0.010132396
0.10377675 0.020070659 0.15963812 0.18318167 0.04675847 0.09286108 -0.011728834 0.20115681
0.06123331 0.11294241 0.20263028 -0.009936136 0.045312013 -0.062061407 0.05266378 0.19677408
0.14014879 0.17274638 0.1278663 0.10409761 -0.024961287 0.0035736298 0.07813493 -0.054793026
0.17374705 0.023955492 0.08261887 0.10482927 -0.06559385 0.014033397 0.07565336 -0.014376059
0.16236113 0.19118807 -0.014180766 0.04405934 0.16425313 0.12908013 0.09701423 0.11505954
0.12722047 0.0098884 0.17504883 0.05395953 0.08083754 0.0015364531 0.10368678 0.15976731
0.028444106 0.105748415 0.1309433 0.0690675 0.10736154 0.10647325 -0.116496176 0.02114686
00000000: a441 523e b83c 1a3e 9e85 c1bd 2e29 1f3e
00000010: b3be 183e 6f00 a1bc b699 183e d3ab 07bd
00000020: b263 413d 6a3f c53c 7b8a 293c f9a9 a33d
00000030: 7b76 ce3d ab32 253d f216 913e c2b2 503d
00000040: eb49 98bc 9074 833d b306 a6bd 74ae bc3d
00000050: 8249 3d3d 0f7a 0d3e 12f5 7b3b 8ea8 b03d
00000060: 2e7f b53d bfe0 a43d bc70 183e 182c 5c3e
00000070: 8d01 083e 0390 27bd 6589 b73d cdac 283e
00000080: 5e79 a53d bb50 9d3d f646 a33d 44d3 403d
00000090: ca1e 0e3e 6b2e 30bd 1b23 ac3d da24 ef3c
000000a0: 8cd0 d63c 52bf 0a3e 2e13 59bb 0954 e73d
000000b0: 1e4f 25bd f3c2 ce3b c1cc 4e3e 5a83 703d
000000c0: 27d2 153e da92 a13d cafe a93d 47a7 b53a
000000d0: 6fc2 573d c53c dc3d 637b b13b 91c9 093e
000000e0: 1b26 b7bd 0a17 163e b444 d03d 43f4 9f3d
000000f0: 9fd0 1f3e b92e 913c 9148 31bd cd4b 8e3d
00000100: c1cf 653d 04dd 9a3b 02d6 373c d0a0 ae3d
00000110: c0dc cd3d ab56 c43d 9ad3 043d 5902 263c
00000120: e888 d43d 396b a43c 2d78 233e fa93 3b3e
00000130: cf85 3f3d f32d be3d 4c2a 40bc 0dfc 4d3e
00000140: c7cf 7a3d 5a4e e73d 507e 4f3e 2dcb 22bc
00000150: 1799 393d 1a34 7ebd fab5 573d 257f 493e
00000160: 2a83 0f3e 6de4 303e 62ef 023e 2131 d53d
00000170: 9d7b ccbc 8f33 6a3b 3505 a03d a76e 60bd
00000180: bfea 313e 4f3e c43c 1534 a93d bab0 d63d
00000190: 1256 86bd 55ec 653c 26f0 9a3d 9089 6bbc
000001a0: ff41 263e cec6 433e 7256 68bc 9177 343d
000001b0: f931 283e 952d 043e 66af c63d 56a4 eb3d
000001c0: 1546 023e f502 223c 0040 333e ab04 5d3d
000001d0: 278e a53d d062 c93a bc59 d43d 0b9a 233e
000001e0: 9d03 e93c a092 d83d 0016 063e 4373 8d3d
000001f0: 5ee0 db3d a60e da3d 8c95 eebd 2e3c ad3c

shared.4.weight f4 [128]
1.648073 1.7759202 0.80397916 3.4912422 2.1452768 1.0462899 1.960905 1.0808516
1.4758347 2.1813908 3.9735675 1.9881638 2.9962938 2.2444544 3.3980072 2.5492625
1.2028842 2.2948477 1.0549303 3.1767743 1.0602357 2.022678 1.3404745 4.249461
4.258637 1.7885661 1.3048146 4.3727365 2.2329957 1.2194735 2.191399 3.8768208
1.9158847 3.745913 3.4205878 2.692867 3.2264237 0.95864886 1.1281114 0.930422
3.2838392 2.0893633 1.2707846 3.6848526 1.1855942 2.4199994 1.8772442 1.3033143
3.8224545 1.4952568 1.419446 1.3020732 1.9765625 1.4013658 3.3013217 2.4490173
1.0694681 4.0181985 2.4302082 3.535027 3.7934365 4.139988 0.8466569 3.5177512
1.8036311 1.6191984 1.7505664 1.7765822 2.420157 3.1713483 3.083659 1.0220287
3.5689924 1.8049923 3.9014165 3.8705826 1.2821852 2.3998113 3.7935874 2.3096304
2.3928714 2.5281978 3.6672924 3.7972825 1.897162 0.7104569 1.5519357 4.469647
1.2783387 3.960482 1.6095773 4.0140433 2.1147888 1.1663605 4.484682 1.0680649
1.7264277 1.5675715 1.3231184 1.1904992 0.868254 1.3180934 1.5307667 1.3221889
2.2864227 2.9019663 1.2414056 3.8945642 3.450697 1.6700432 1.0509363 4.211574
2.4164505 1.2154642 2.1387537 1.917369 0.61615735 1.9705554 2.2874904 1.8688486
1.2529553 1.13114 3.218199 1.3766793 1.6646572 3.468725 0.8549303 3.4474943
00000000: 0ef4 d23f 5a51 e33f 94d1 4d3f 8370 5f40
00000010: 374c 0940 d4ec 853f effe fa3f 5859 8a3f
00000020: 27e8 bc3f e89b 0b40 ee4e 7e40 277c fe3f
00000030: 47c3 3f40 24a5 0f40 f378 5940 1e27 2340
00000040: 1cf8 993f c9de 1240 f507 873f 4550 4b40
00000050: ceb5 873f 8e73 0140 ab94 ab3f 96fb 8740
00000060: c146 8840 bcef e43f 2a04 a73f 75ed 8b40
00000070: 67e9 0e40 b517 9c3f e23f 0c40 d51d 7840
00000080: b63b f53f 0abd 6f40 e9ea 5a40 ef57 2c40
00000090: ba7d 4e40 036a 753f f465 903f 2330 6e3f
000000a0: 6c2a 5240 21b8 0540 12a9 a23f a0d4 6b40
000000b0: 8dc1 973f 45e1 1a40 8a49 f03f 01d3 a63f
000000c0: 18a3 7440 9364 bf3f 68b0 b53f 56aa a63f
000000d0: 0000 fd3f f45f b33f db48 5340 b3bc 1c40
000000e0: 55e4 883f 1595 8040 8888 1b40 e23d 6240
000000f0: aac7 7240 c87a 8440 82be 583f d622 6140
00000100: 62dd e63f e541 cf3f 8f12 e03f 0c67 e33f
00000110: dae3 1a40 5ff7 4a40 ab5a 4540 d6d1 823f
00000120: 5f6a 6440 fd09 e73f cfb0 7940 a0b7 7740
00000130: a51e a43f 8296 1940 23ca 7240 fcd0 1340
00000140: ce24 1940 fecd 2140 ebb4 6a40 ad06 7340
00000150: 34d6 f23f 81e0 353f d4a5 c63f 5907 8f40
00000160: 9aa0 a33f 8978 7d40 a106 ce3f 0b73 8040
00000170: b358 0740 4d4b 953f 8482 8f40 5ab6 883f
00000180: 95fb dc3f 2fa6 c83f f25b a93f 4762 983f
00000190: e545 5e3f 49b7 a83f 2af0 c33f 7c3d a93f
000001a0: c054 1240 d1b9 3940 61e6 9e3f 8a40 7940
000001b0: 38d8 5c40 fac3 d53f 1585 863f 37c5 8640
000001c0: 20a7 1a40 5594 9b3f 57e1 0840 596c f53f
000001d0: 7dbc 1d3f 293b fc3f 3e66 1240 6e36 ef3f
000001e0: d760 a03f 32c9 903f f9f6 4d40 0737 b03f
000001f0: 7d13 d53f 97ff 5d40 b6dc 5a3f bfa3 5c40

shared.4.bias f4 [128]
0.47976917 0.11249461 0.3942948 1.9600981 0.22637832 -0.06803898 0.22532655 -0.04257855
0.5544638 0.3040811 1.5957643 0.2615786 0.17200857 0.47217792 0.6593834 1.9934162
0.40697357 0.31544098 0.37465784 0.33645493 0.016585793 0.3734375 0.189473 1.710447
1.6890587 0.4699733 0.5088025 1.59044 0.54864645 0.5129245 -0.08068323 1.7911649
0.53407586 1.8039006 1.9310161 2.1111925 1.7499418 0.47162428 0.46308917 0.23963176
0.4807242 0.24759611 -0.020805096 1.8211874 0.06834581 0.42343962 0.30063853 0.2393256
1.6683878 0.09162962 0.5621468 0.36648703 0.30501634 0.5871018 1.8828276 0.12759261
0.01637515 1.718747 0.55965614 1.8573911 0.25717452 0.18327685 0.4301562 1.8287138
0.60703963 -0.024077175 0.43087494 0.46706846 0.32528928 0.5090576 2.0125453 0.524289
1.8238741 0.5110565 1.6019932 1.7424507 0.46606147 0.3431114 1.6298652 0.2483558
0.3504899 0.30128834 1.7337751 1.7701814 0.55361944 0.09024098 0.59606516 1.6186868
0.54140127 1.7659479 0.54579085 1.711936 0.45576325 -0.014413488 1.5988384 0.12608024
0.16561066 0.106371135 0.44838712 0.59378225 -0.028733736 0.044368003 0.5239133 0.57269293
0.3069631 1.9886945 -0.0005118909 1.8019854 1.734268 0.28915435 -0.027773535 1.5477685
0.5705348 0.08163684 0.27635655 0.095230184 -0.1573974 0.3652178 0.53189385 0.43121496
0.012911797 0.054201696 2.0261602 0.059882484 0.51466525 2.0293384 0.19349054 1.9464324
00000000: 4ea4 f53e 9363 e63d 02e1 c93e 7fe4 fa3f
00000010: b8cf 673e 0558 8bbd 01bc 663e d866 2ebd
00000020: 57f1 0d3f 85b0 9b3e 0142 cc3f a1ed 853e
00000030: 0423 303e 4ec1 f13e 5acd 283f 4328 ff3f
00000040: d75e d03e 7b81 a13e 27d3 bf3e d243 ac3e
00000050: eede 873c 3333 bf3e 3605 423e edef da3f
00000060: 1333 d83f 57a0 f03e e140 023f 8a93 cb3f
00000070: 1874 0c3f 054f 033f 403d a5bd e444 e53f
00000080: 32b9 083f 37e6 e63f 892b f73f c71d 0740
00000090: 18fe df3f bd78 f13e 061a ed3e 0762 753e
000000a0: 7b21 f63e d689 7d3e 736f aabc ab1c e93f
000000b0: e3f8 8b3d 14cd d83e 4bed 993e c511 753e
000000c0: bb8d d53f 4fa8 bb3d dae8 0f3f 30a4 bb3e
000000d0: 1a2b 9c3e 4e4c 163f 7f00 f13f a3a7 023e
000000e0: 2e25 863c e7ff db3f a045 0f3f febe ed3f
000000f0: 61ac 833e edac 3b3e 6f3d dc3e 4b13 ea3f
00000100: f366 1b3f 7f3d c5bc a49b dc3e 9923 ef3e
00000110: 518c a63e 9951 023f 8bcd 0040 ce37 063f
00000120: b574 e93f 99d4 023f 1d0e cd3f a008 df3f
00000130: 9c9f ee3e 4cac af3e 6c9f d03f fc50 7e3e
00000140: 6a73 b33e 7742 9a3e 58ec dd3f 4e95 e23f
00000150: 01ba 0d3f 43d0 b83d ba97 183f 2131 cf3f
00000160: 4699 0a3f 950a e23f f3b8 0b3f b820 db3f
00000170: cd59 e93e 8d26 6cbc bda6 cc3f 2e1b 013e
00000180: d795 293e 1cd9 d93d ff92 e53e 1d02 183f
00000190: 0363 ebbc 39bb 353d 2f1f 063f 019c 123f
000001a0: 442a 9d3e 8b8d fe3f 6b30 06ba 75a7 e63f
000001b0: 7efc dd3f 0a0c 943e 5385 e3bc 471d c63f
000001c0: 920e 123f 3731 a73d 9b7e 8d3e 0b08 c33d
000001d0: c92c 21be d4fd ba3e 322a 083f 35c8 dc3e
000001e0: 008c 533c 9902 5e3d 9cac 0140 5647 753d
000001f0: 1ac1 033f aee0 0140 6222 463e b224 f93f

actor_mean.weight f4 [2, 128]
0.06568826 -0.17233385 -0.046706595 -0.06812541 -0.12767717 -0.05787507 -0.25448215 -0.18145218
-0.09379962 0.12178855 -0.110485435 0.027844995 0.058414787 0.020805193 0.08339916 0.0007437629
0.12723406 -0.03097312 0.113135695 0.055138603 0.17615423 -0.22842032 -0.108555295 -0.026882986
-0.032502312 0.11551235 -0.004970786 0.021270217 0.041414563 0.040138844 -0.081911154 -0.032999855
-0.084013686 -0.0023601227 -0.184364 0.00025090642 -0.032646976 0.054667365 0.062456395 0.120469
0.003992235 0.038868256 -0.32050782 0.26312116 0.06623602 0.020965356 -0.15648164 0.2143133
0.07317488 -0.31096923 0.14070077 -0.101267695 -0.13971 -0.072720945 -0.15917356 -0.22487815
-0.16781229 0.07568102 0.24325506 -0.01427891 0.0073099253 0.115704186 0.045380995 -0.078710355
-0.0050325333 -0.4361172 0.039892726 0.06950531 -0.050731245 0.072489046 -0.067432955 -0.030190658
0.21382084 0.08560403 -0.06558866 -0.04005235 0.022108207 0.013442324 -0.08581302 -0.39169708
-0.073844396 -0.014874898 0.23432101 0.18035698 0.1397156 0.06878195 -0.00033315178 0.11004437
0.026079593 -0.024354286 0.029801952 0.22453795 0.09384691 -0.06049022 -0.07681565 0.20286487
-0.15504307 -0.110758044 0.16409428 -0.13101053 -0.079698905 0.07754085 0.14976977 -0.0777023
0.24815196 -0.040739603 0.118935645 -0.11316134 -0.21567908 0.09344961 0.10788392 0.13792288
0.08663211 0.047405094 -0.27368668 -0.2283782 0.032955613 0.06505651 0.024438439 -0.056995284
-0.18989389 0.025229516 -0.04905725 -0.12358832 0.018248178 -0.30069062 0.07611029 -0.23950057
-0.10483758 -0.046387058 0.083831504 0.28255606 -0.07531343 0.25256664 -0.099566564 -0.0018986826
-0.20995454 0.19312203 -0.12054119 0.19867098 -0.002000572 -0.078211926 0.04786278 -0.09765558
0.13545193 -0.012544708 0.17462325 0.09836834 -0.22933857 -0.045609687 -0.10368803 0.030408172
-0.14238314 0.023935663 0.036072753 -0.0641736 0.0085981665 -0.12468726 -0.18568623 0.02151958
0.3476524 0.013013115 -0.13477592 -0.08758102 -0.13190418 0.09410044 -0.11923726 0.04324254
0.053800795 -0.05510586 -0.33821404 -0.021457152 -0.059222583 -0.24521117 -0.09431412 -0.024545038
-0.015175037 -0.13585675 -0.051459912 0.082379326 0.063466966 -0.24756025 -0.06898144 -0.2536708
0.069641225 -0.028996117 0.061391216 -0.004688355 -0.0046485728 0.017695408 0.113554 -0.048773635
-0.117508575 -0.01867043 0.064440764 0.075741276 0.03760016 -0.053796537 -0.021609455 0.015170543
0.15455589 -0.041149635 -0.06139588 0.049474183 0.14349984 0.07624136 0.09680621 -0.11757806
0.14775795 0.02963085 0.10161819 0.103790544 0.19552155 0.03618573 0.022878645 -0.014698069
-0.13411099 -0.18729904 0.0034528521 0.07526264 0.02391253 -0.10643416 0.06865377 0.09564754
-0.032475222 -0.07516228 -0.18147317 -0.29487818 -0.06612145 -0.15766558 -0.00042969102 -0.10318185
-0.13886045 0.16306737 0.066241466 -0.1774104 0.085436955 -0.017034955 -0.09533009 -0.060451996
0.004569054 -0.10312173 -0.15938546 -0.03545376 0.007747695 0.13738614 -0.06248593 -0.079026155
-0.080631696 -0.12029927 0.25669542 0.09873624 -0.17009415 -0.19004837 -0.17038189 -0.10217896
00000000: 9187 863d 4978 30be 6a4f 3fbd 5685 8bbd
00000010: cebd 02be 690e 6dbd 7c4b 82be 9ace 39be
00000020: 041a c0bd 466c f93d 3046 e2bd 301b e43c
00000030: 5844 6f3d a76f aa3c 2ecd aa3d 15f9 423a
00000040: a549 023e 57bb fdbc b0b3 e73d 04d9 613d
00000050: c661 343e 04e7 69be 3d52 debd b539 dcbc
00000060: 2521 05bd bd91 ec3d fae1 a2bb e13e ae3c
00000070: 51a2 293d a168 243d 09c1 a7bd db2a 07bd
00000080: 5e0f acbd 4aac 1abb ebc9 3cbe 178c 8339
00000090: d6b8 05bd e3ea 5f3d 47d2 7f3d 73b8 f63d
000000a0: 4bd1 823b 5234 1f3d 9a19 a4be d1b7 863e
000000b0: c0a6 873d 8abf ab3c b93c 20be f274 5b3e
000000c0: b6dc 953d 5c37 9fbe dd13 103e 7065 cfbd
000000d0: 2310 0fbe b8ee 94bd 65fe 22be 7546 66be
000000e0: fcd6 2bbe a7fe 9a3d db17 793e 17f2 69bc
000000f0: 1988 ef3b 51f6 ec3d 6ce1 393d e532 a1bd
00000100: f3e7 a4bb c14a dfbe 8e66 233d cd58 8e3d
00000110: 91cb 4fbd 2375 943d 4a1a 8abd 6652 f7bc
00000120: daf3 5a3e 2a51 af3d 5953 86bd ef0d 24bd
00000130: 451c b53c 313d 5c3c bdbe afbd 858c c8be
00000140: bb3b 97bd d8b5 73bc d9f1 6f3e 80af 383e
00000150: 9b11 0f3e 8ddd 8c3d e0aa aeb9 f15e e13d
00000160: dfa4 d53c a482 c7bc 3923 f43c 47ed 653e
00000170: cf32 c03d 98c4 77bd 8651 9dbd cfbb 4f3e
00000180: 9cc3 1ebe 1dd5 e2bd 5508 283e a027 06be
00000190: 2e39 a3bd bdcd 9e3d 3f5d 193e 6222 9fbd
000001a0: 8c1b 7e3e 92de 26bd 8894 f33d 22c1 e7bd
000001b0: fada 5cbe 8262 bf3d 3ff2 dc3d a83b 0d3e
000001c0: 2d6c b13d d82b 423d a920 8cbe fadb 69be
000001d0: 77fc 063d 593c 853d 1f33 c83c e373 69bd
000001e0: 8b73 42be 21ae ce3c 41f0 48bd e01b fdbd
000001f0: 347d 953c 1ff4 99be b6df 9b3d a33f 75be
00000200: 16b5 d6bd 5b00 3ebd daaf ab3d 30ab 903e
00000210: ed3d 9abd 6a50 813e 8ee9 cbbd 37dd f8ba
00000220: 53fe 56be c8c1 453e 4dde f6bd 6870 4b3e
00000230: 071c 03bb 932d a0bd c30b 443d a6ff c7bd
00000240: e9b3 0a3e 5288 4dbc 70d0 323e 5775 c93d
00000250: bbd7 6abe 39d1 3abd 645a d4bd 8f1a f93c
00000260: e3cc 11be b914 c43c 06c1 133d 736d 83bd
00000270: 53df 0c3c 095c ffbd 8824 3ebe d549 b03c
00000280: 7fff b13e f634 553c b302 0abe ae5d b3bd
00000290: e411 07be bbb7 c03d aa32 f4bd 171f 313d
000002a0: 395e 5c3d afb6 61bd 642a adbe e9c6 afbc
000002b0: 6193 72bd a318 7bbe c327 c1bd ad12 c9bc
000002c0: b8a0 78bc 081e 0bbe a1c7 52bd 7eb6 a83d
000002d0: f8fa 813d 6f80 7dbe 2446 8dbd 24e1 81be
000002e0: 0fa0 8e3d 4489 edbc 5b75 7b3d c6a0 99bb
000002f0: 0e53 98bb f6f5 903c 008f e83d ddc6 47bd
00000300: 56a8 f0bd bbf2 98bc 85f9 833d 3e1e 9b3d
00000310: a002 1a3d c259 5cbd 5006 b1bc df8d 783c
00000320: e643 1e3e 858c 28bd 3f7a 7bbd 71a5 4a3d
00000330: 9ff1 123e 6e24 9c3d 5642 c63d c4cc f0bd
00000340: dc4d 173e 65bc f23c 331d d03d 2390 d43d
00000350: cd36 483e 7d37 143d ff6b bb3c 2bd0 70bc
00000360: 6454 09be 52cb 3fbe 3f49 623b 4d23 9a3d
00000370: 36e4 c33c 27fa d9bd 599a 8c3d dce2 c33d
00000380: bd04 05bd aeee 99bd 1ad4 39be 46fa 96be
00000390: af6a 87bd 1673 21be 2748 e1b9 0151 d3bd
000003a0: 6f31 0ebe 22fb 263e 9ba9 873d 12ab 35be
000003b0: 92f9 ae3d e48c 8bbc 6c3c c3bd 839c 77bd
000003c0: 01b8 953b 7c31 d3bd f135 23be f637 11bd
000003d0: 60e0 fd3b f4ae 0c3e 3ff1 7fbd 77d8 a1bd
000003e0: 3b22 a5bd 775f f6bd 956d 833e 3a36 ca3d
000003f0: 292d 2ebe 0a9c 42be 9778 2ebe 3443 d1bd

actor_mean.bias f4 [2]
-0.018258862 0.059795786
00000000: 9c93 95bc 6dec 743d

critic.weight f4 [1, 128]
0.60851467 0.66613173 0.08283479 -2.084182 1.0721985 -0.012468487 0.95293367 -0.13706398
0.52065325 1.1291652 -2.4281178 0.9581184 1.5841662 1.051851 1.9518818 -1.5878793
0.2885914 1.2761745 0.19083689 1.9308465 -0.028324923 0.92899656 0.3928745 -2.7325969
-2.8815339 0.6918843 0.4288375 -2.7205215 1.0517693 0.34387794 -1.0641288 -2.295103
0.8260815 -2.390753 -2.095717 -1.7969382 -2.0252514 0.1824506 0.26341325 0.10910017
1.9084085 1.0253906 -0.32333586 -2.4668243 -0.25874776 1.1357132 0.7942615 0.33788162
-2.3186576 0.4711529 0.50472045 0.34733465 0.86153513 0.5012063 -1.9700654 1.2232196
-0.13515571 -2.40895 1.1244106 -2.2567086 2.4074602 2.5754845 0.14894782 -2.2421792
0.7495616 0.54735136 0.7398779 0.720223 1.3803962 1.7856497 -2.0292847 0.20778999
-2.2603998 0.77797496 -2.283712 -2.5139792 0.3575293 1.3154563 -2.1313365 1.2422987
1.0328366 1.2591814 -2.1610487 -2.29739 0.8668993 0.0032493533 0.6706035 -2.7394743
0.37370238 -2.4669676 0.6561172 -2.4161153 1.1102132 -0.24162471 -2.7647316 0.1547982
0.677933 0.54303616 0.40382248 0.30722758 -0.03035755 -0.31965494 0.5447334 0.48466578
1.1348566 -2.0133803 -0.3212156 -2.5270076 -2.1905065 0.5869944 0.1431116 -2.5346448
1.2638925 -0.25763097 0.9656368 0.99019426 -0.010150328 0.9127423 1.072187 0.737435
-0.25807992 -0.17279422 -2.0258186 0.41207278 0.688417 -2.1539218 0.02187113 -2.0062373
00000000: 9ec7 1b3f 9c87 2a3f 49a5 a93d 3d63 05c0
00000010: cd3d 893f a048 4cbc 76f3 733f 805a 0cbe
00000020: 8849 053f 7c88 903f 4866 1bc0 3f47 753f
00000030: f5c5 ca3f 0ea3 863f 43d7 f93f a13f cbbf
00000040: 41c2 933e b059 a33f bf6a 433e fa25 f73f
00000050: ab09 e8bc b8d2 6d3f d926 c93e dee2 2ec0
00000060: 0d6b 38c0 541f 313f 9790 db3e 061d 2ec0
00000070: 60a0 863f c510 b03e 5f35 88bf f8e2 12c0
00000080: 147a 533f 1902 19c0 3a20 06c0 1202 e6bf
00000090: b89d 01c0 55d4 3a3e 1ade 863e e96f df3d
000000a0: bb46 f43f 0040 833f 478c a5be 73e0 1dc0
000000b0: 967a 84be 0d5f 913f b954 4b3f d2fe ac3e
000000c0: e364 14c0 f43a f13e 5c35 013f d9d5 b13e
000000d0: 918d 5c3f 0e4f 003f 1a2b fcbf 7692 9c3f
000000e0: 4266 0abe 3d2c 1ac0 b0ec 8f3f ea6d 10c0
000000f0: d413 1a40 bdd4 2440 c785 183e dd7f 0fc0
00000100: 45e3 3f3f 381f 0c3f a368 3d3f 8960 383f
00000110: d3b0 b03f 2b90 e43f cddf 01c0 e6c6 543e
00000120: 64aa 10c0 5e29 473f 5628 12c0 09e5 20c0
00000130: 150e b73e df60 a83f d167 08c0 a503 9f3f
00000140: fd33 843f db2c a13f 9f4e 0ac0 7008 13c0
00000150: 1ded 5d3f 1af3 543b acac 2b3f 8c53 2fc0
00000160: eb55 bf3e cce2 1dc0 4cf7 273f a2a1 1ac0
00000170: 771b 8e3f 786c 77be 5df1 30c0 6b83 1e3e
00000180: 048d 2d3f 6b04 0b3f d2c1 ce3e ef4c 9d3e
00000190: 66b0 f8bc d0a9 a3be a673 0b3f 1d26 f83e
000001a0: fb42 913f 39db 00c0 5f76 a4be 7eba 21c0
000001b0: 4231 0cc0 4445 163f d98b 123e 9f37 22c0
000001c0: 3bc7 a13f 35e8 83be f933 773f 5f7d 7d3f
000001d0: 904d 26bc 7ba9 693f 6c3d 893f 8ac8 3c3f
000001e0: 0d23 84be f8f0 30be 03a7 01c0 34fb d23e
000001f0: 193c 303f dbd9 09c0 162b b33c 3166 00c0

exp_avg f4 [2]
-0.00020080744 -0.00026597906
00000000: d68f 52b9 1b73 8bb9

exp_avg_sq f4 [2]
1.6190501e-06 1.4168035e-06
00000000: 234e d935 ff28 be35

exp_avg f4 [128, 23]
0.0011002463 -0.0010975439 0.0020846336 0.0024488624 0.0013529666 0.0010333039 0.0021054684 -0.002094699
0.0009104746 0.0007489017 0.00019393861 0.0002881637 0.0013547945 0.0005126348 0.0015277498 0.0022600912
0.0017726193 0.0010333043 0.0028048456 0.0025387683 0.0016343247 0.002432213 0.002688143 -0.001602319
-0.0013425548 -0.0014677697 -0.0005935259 0.00020572974 0.00021874819 0.0005866709 -0.0011242647 -0.0014258523
-0.0009983948 -0.0009563859 -0.0015664719 -0.0010189876 -0.0013192301 -0.0011080627 0.00053099415 -0.0010876158
0.00021874822 -0.0007519042 -0.001084063 -0.00023591271 -0.00037407558 -0.00093920255 0.00010145463 0.0012045775
0.00065092527 9.303294e-05 -0.0002088591 0.00010279943 0.00014987671 0.00015478783 -0.00028922813 6.383517e-05
0.00025815362 0.00021240048 4.763717e-05 -0.00012717473 -0.0007403378 -0.0008384655 2.2510814e-05 0.00010279948
0.0001263527 -7.1410795e-05 -0.00022912816 -4.1280906e-05 0.00016827277 0.0003580955 0.000524392 -0.00075727265
-0.00015002619 0.00027991727 -0.00023189263 -0.0001764413 0.00027295414 -6.599562e-06 0.00019588706 5.435195e-05
0.00042863894 0.00015929528 0.00011253025 0.00045524785 0.00021929253 -4.570261e-05 -0.0002318924 -8.216798e-05
-6.8027395e-05 0.00032414705 3.9694027e-05 -0.00016292163 -4.3694563e-05 0.00015388343 -6.849748e-05 -0.000116199255
-6.960335e-05 -5.4587224e-05 -1.722473e-05 0.00013578519 -0.00015376566 -7.131727e-05 -5.511654e-05 -0.00011883385
-0.00011544998 -0.00022456062 -0.00014254513 -0.00048548632 -0.00016842505 -5.458727e-05 -0.00014790102 -0.00018620388
-0.0001306634 -0.00014053042 -0.00015200199 0.0008357051 0.0010039837 -0.0010670024 0.00051330664 0.00035170605
5.400229e-05 -0.00044246286 0.001170007 7.3194926e-05 0.0005999308 0.00047745905 0.00031108412 0.000186678
-0.00053992344 0.00020990252 -0.000140399 0.00033891844 5.4002263e-05 0.0005680807 0.00045300584 0.000498244
0.00055146805 0.00051192817 -0.00012895255 0.00012294608 -3.9543436e-05 -8.140607e-06 4.4730383e-05 -1.0831717e-05
-2.9986846e-05 -2.3564007e-05 9.317245e-05 0.00021630594 0.00025162744 0.00021310688 0.00010196572 -5.2364918e-05
-9.688025e-05 5.1342915e-05 0.00011527656 -1.0831705e-05 2.2738774e-05 1.7920795e-05 0.00010449559 8.0281105e-05
4.2800635e-05 -0.00014298537 -0.0001835676 -0.0001583261 -1.2249015e-05 -0.000117647854 0.00010428263 -7.812619e-05
6.1720435e-05 0.00021462807 0.00016331597 0.00018522801 -1.555545e-05 -0.00015117817 -0.00014214468 2.5816973e-05
0.00017407157 1.5083706e-05 0.00010428263 -1.2640839e-05 8.98094e-06 -6.639143e-05 -8.916713e-05 -2.6897129e-05
0.0004049272 0.00034220883 0.0013057984 -0.00012985953 -0.00015789909 0.00012645702 0.000576061 -0.00075807
4.0239397e-06 0.0005852915 0.00095203397 0.0006297263 0.0010994215 0.0006517941 -0.000106102954 0.0002080383
0.0003874723 0.00012645687 7.075944e-05 0.00013354972 -4.122524e-06 1.853259e-05 0.00013908568 -0.00044469087
-0.0006854017 -0.00022401915 -3.9207964e-05 -0.00048031384 0.00018746544 5.6667624e-05 -0.00027749926 -0.0003109523
-0.00022940742 -0.00042733437 -0.0011710647 -0.0008831941 -0.00061423524 -0.00028481736 -0.00015637756 -0.00032337787
0.00018746557 -0.00018952054 -0.00034729327 -0.00058627134 -0.00043925826 4.993712e-05 -9.452978e-05 6.117888e-05
-5.2692147e-05 -0.000105123276 -7.962026e-05 -2.6007034e-05 -5.001921e-06 5.8347192e-05 -0.00012483967 -3.602273e-05
-2.2607308e-06 -7.4344556e-05 -7.4036754e-05 -0.00013710416 -0.00017878988 -0.00015321963 -0.00012867062 -2.6007026e-05
-0.0001301636 -0.00014626113 -0.00011677076 -0.00013809804 -0.00013124409 0.0011868669 0.0007895854 0.00024436694
00000000: 2436 903a 76db 8fba 599e 083b 187d 203b
00000010: 0756 b13a ed6f 873a e6fb 093b 3847 09bb
00000020: ebac 6e3a f151 443a 005c 4b39 ad14 9739
00000030: 5c93 b13a 5762 063a c73e c83a 0a1e 143b
00000040: 3c57 e83a f06f 873a 80d1 373b 7761 263b
00000050: d636 d63a c365 1f3b 8e2b 303b e704 d2ba
00000060: aaf8 afba 2e62 c0ba d996 1bba 28b9 5739
00000070: c55f 6539 d1ca 193a 105c 93ba aae3 baba
00000080: 92dc 82ba f9b5 7aba 1352 cdba 8d8f 85ba
00000090: 04ea acba 6a3c 91ba 6a32 0b3a 558e 8eba
000000a0: c75f 6539 701b 45ba 1e17 8eba 565f 77b9
000000b0: 931f c4b9 d134 76ba 0ac4 d438 eae2 9d3a
000000c0: dba2 2a3a ae1a c338 3001 5bb9 0696 d738
000000d0: 3928 1d39 8b4e 2239 8ba3 97b9 3fdf 8538
000000e0: cb58 8739 d2b7 5e39 06ce 4738 355a 05b9
000000f0: 3b13 42ba 78cc 5bba 9bd5 bc37 0d96 d738
00000100: 8b7d 0439 61c2 95b8 1f42 70b9 0925 2db8
00000110: 6172 3039 c4be bb39 5a77 093a b583 46ba
00000120: 5950 1db9 dcc1 9239 3428 73b9 1a03 39b9
00000130: 491b 8f39 ce71 ddb6 0867 4d39 f6f7 6338
00000140: f2ba e039 8008 2739 38fe eb38 55ae ee39
00000150: e4f1 6539 ceb0 3fb8 2428 73b9 9951 acb8
00000160: eea9 8eb8 48f2 a939 237d 2638 f1d5 2ab9
00000170: ae44 37b8 c55b 2139 4ea6 8fb8 00b0 f3b8
00000180: 04f8 91b8 96f4 64b8 d37d 90b7 8f61 0e39
00000190: 283c 21b9 2b90 95b8 ef2c 67b8 7036 f9b8
000001a0: bc1d f2b8 0878 6bb9 2b78 15b9 df88 feb9
000001b0: 419b 30b9 a3f4 64b8 e115 1bb9 b93f 43b9
000001c0: b002 09b9 595b 13b9 b962 1fb9 3813 5b3a
000001d0: 1a98 833a a9da 8bba 6d8f 063a 3065 b839
000001e0: 8480 6238 5cfa e7b9 ec5a 993a 3a80 9938
000001f0: ad44 1d3a 7853 fa39 0119 a339 febe 4339
00000200: a689 0dba 4719 5c39 1238 13b9 ddb0 b139
00000210: 7d80 6238 40eb 143a 6a81 ed39 979c 023a
00000220: 6590 103a eb32 063a 7037 07b9 16eb 0039
00000230: 71db 25b8 a493 08b7 e29c 3b38 dfb9 35b7
00000240: 438c fbb7 52ab c5b7 9465 c338 2fd0 6239
00000250: ddec 8339 7175 5f39 6ed6 d538 67a2 5bb8
00000260: 302c cbb8 0959 5738 a2c0 f138 d2b9 35b7
00000270: 25bf be37 9d54 9637 a524 db38 975c a838
00000280: d584 3338 58ee 15b9 0d7c 40b9 5704 26b9
00000290: 1e81 4db7 b6b9 f6b8 50b2 da38 aed7 a3b8
000002a0: e86f 8138 c90d 6139 cc3f 2b39 c439 4239
000002b0: 137d 82b7 9585 1eb9 ac0c 15b9 8791 d837
000002c0: fb86 3639 0610 7d37 50b2 da38 fd13 54b7
000002d0: d8ac 1637 a13b 8bb8 3dff bab8 25a1 e1b7
000002e0: 694c d439 7e6a b339 5327 ab3a e72a 08b9
000002f0: b791 25b9 8c99 0439 cd02 173a 37b9 46ba
00000300: 6105 8736 3f6e 193a eb91 793a 3714 253a
00000310: 771a 903a 29dd 2a3a 9783 deb8 db24 5a39
00000320: a725 cb39 8299 0439 af64 9438 7b09 0c39
00000330: 3654 8ab6 6f76 9b37 87d7 1139 6625 e9b9
00000340: 88ac 33ba afe6 6ab9 3b73 24b8 a2d2 fbb9
00000350: 5f92 4439 66ae 6d38 527d 91b9 5007 a3b9
00000360: 168d 70b9 d90b e0b9 697e 99ba 2786 67ba
00000370: a104 21ba 8a53 95b9 48f9 23b9 0b8b a9b9
00000380: 6892 4439 08ba 46b9 ea14 b6b9 01b0 19ba
00000390: 3f4c e6b9 9373 5138 4a3e c6b8 294d 8038
000003a0: c301 5db8 a175 dcb8 cdf9 a6b8 ae29 dab7
000003b0: 2dd6 a7b6 d2b9 7438 65e7 02b9 1d17 17b8
000003c0: 0fb7 17b6 6ee9 9bb8 2e44 9bb8 9ec3 0fb9
000003d0: 8b79 3bb9 95a9 20b9 c2eb 06b9 aa29 dab7
000003e0: 867c 08b9 ac5d 19b9 d3e2 f4b8 69ce 10b9
000003f0: 919e 09b9 a590 9b3a 2efc 4e3a 601e 8039
