models/A2C_racing.pt (torch, 953506 bytes, 36 tensors)

actor_logstd f4 [2]
00000000: 02b9 44ba 67d1 45bc
-0.0007504375 -0.012073851

shared.0.weight f4 [256, 18]
00000000: b339 0dbd 6d97 47be 76f2 713e fa5e 5f3e
00000010: e244 4abd d389 13be a396 df3d 68dd 1dbe
00000020: 3c89 f2bc f3ac 1fbe f81a c33d 5d3d 1fbe
00000030: 29f3 1d3d 1cd9 58be 15cb 63be 8f47 fc3c
00000040: aac0 3f3d 7874 97bd ca2a 45bd d6ac 013e
00000050: be2d 21be be9f 113e 1a10 063e e042 b73d
00000060: c0bc 45be e43f ba3d 0509 eabc f778 3e3e
00000070: 6169 b33c 0626 fcbd 104d 4fbe 51a5 663e
00000080: a65f 28bc 6895 87bd b9cc 233e 4c30 5abe
00000090: 84db 81be 6ac5 463e c7fd 84bd 1bcd 9abd
000000a0: 6dd2 843d 9904 20be ec7c 27bb d0de f63d
000000b0: e49e debd 0731 553e 1040 583e dd24 0ebe
000000c0: d824 313e bb39 26be 4037 93bc 74d1 b4bc
000000d0: 43f3 9f3d 96ab 51bc b38a 59bd 589d 973d
000000e0: 7e71 66be 2624 00bd 4db1 7f3b 5020 2fbd
000000f0: 01f6 44be 1200 d7bd 4aa7 1fbe ab6b 60be
00000100: e6db c93d 9f37 a9bd 23a2 933d 8f33 84be
00000110: 6646 82be 6ac9 203d 253c 5cbe b8e2 563d
00000120: 8442 053e dc6f dd3d 3b74 5b3e a5c4 bfbc
00000130: 9d94 23be b1a2 cf3d c6f9 e93d 2d14 4dbe
00000140: 6ef7 9fbd 5d35 ba3d 8bdd 53be 8c58 a23d
00000150: 3e60 403e 6157 2a3e c18d 40be 1847 68be
00000160: 3fc8 d23d 1ca0 49be 8c31 a13d 1170 423e
00000170: 2c27 5a3d 71b8 01be 43c1 973d b9a4 91bd
00000180: b132 4e3e 8bfd f33d 1811 0fbc 9d78 953d
00000190: 4c45 64bd 8242 323e c8d5 9f3d 8a12 373d
000001a0: 239a 55be 5574 ee3d f56f 7fbd f6c1 4d3e
000001b0: 259b 68bd 2b69 43bd cc30 163e 77b5 cdbd
000001c0: 017a 27be b062 50bd 6471 8cbc 2258 11be
000001d0: 2b08 5ebe 801f 50be 8cc9 cbbc 7c59 9f3d
000001e0: 5f07 a93d 0fdc 243e 5d13 85be 3701 1abe
000001f0: b101 3fbe be71 9cbd 7c4f 6ebe de89 61be
00000200: 22cf 273e 4143 063e 284b e7bd bc34 fbbd
00000210: b561 563e ad0f 323e da60 913d ffd8 0abe
00000220: a211 e43d e0ff 09bd e0f6 6e3d eaee e6bd
00000230: d594 403e dc9e b0bd f8df 1dbe 9e20 b23c
00000240: d10b 3c3e dbe6 58bd 1f3f f5bd b7bf bf3d
00000250: 1309 593d 61c7 4b3e 888c c3bc b7f1 2bbe
00000260: f946 713b 3287 213e 3627 f6bd 91f1 6d3e
00000270: 8dcb 03be 1557 3b3e 7f2a a53c 3407 45be
00000280: dd45 57be 4a87 87bd d5b4 cf3d fa78 cd3d
00000290: 36ab 0ebe 3890 763e c25c d43d 3fed 5b3d
000002a0: eab4 eebb daa8 5d3a 82fd bfbc 1e0d 96bd
000002b0: 3ee5 363e 4d3a 3dbe d42d a4bd c5f6 d4bd
000002c0: 8518 2fbe 0af2 fa3d 5f3a 3c3e 6046 2c3e
000002d0: e614 433c 8595 33be 491f 6a3e 9127 4cbc
000002e0: 0521 56be 4154 1bbe e860 aabd 9b81 ff3d
000002f0: 6328 833d 6e4f ec3d f8a6 53be 1273 0f3e
00000300: 1e07 293d 9729 d2bd 15e2 403e bcb9 303e
00000310: f8d7 a63d 66e0 fc3d f1cd 06be b863 9339
00000320: 940d 19be 3343 bdbd d98a f6bd c80b 563e
00000330: 7974 f4bd ca5d 023e 4115 f33d 35c3 2bbd
00000340: 807d 353a 25f4 4b3e 8a59 543c 186c b3bd
00000350: da32 133c 558c 6fbe f310 393e 9370 623e
00000360: 00b3 b9b9 910a 16be 97b3 d03d 902f d4bd
00000370: 355c 623d 0c0d 1ebe 394d fd3b 4cc9 01be
00000380: 636a febc 628a 393e 0e11 acbd f137 593e
00000390: 35a3 cfbd c033 993d b707 5ebe 8d87 e1bd
000003a0: 3342 02be a07b 34be 932a 96bb 50c4 4dbe
000003b0: 4663 48be ec8d 063e b2ce 58be 77b1 8b3d
000003c0: 45b6 33be bb88 06be 89b2 d33c 3500 04bd
000003d0: 7e0f ea3d 3dc6 2f3d d072 053e 766a ffbd
000003e0: 885d c33d f8c6 903d fc50 f53d 194e 053e
000003f0: c258 16be 22e2 f83d bb91 b53d 062b 24be
-0.034478854 -0.19491358 0.23627648 0.21813574 -0.049382098 -0.14408045 0.109174035 -0.15416491
-0.029606454 -0.15593319 0.09526628 -0.15550752 0.038561974 -0.2117657 -0.22245438 0.03079584
0.0468146 -0.073952615 -0.04813651 0.12663588 -0.15740106 0.14221093 0.1309208 0.08948302
-0.19310284 0.090942174 -0.028568754 0.18600832 0.021900835 -0.1231194 -0.20244241 0.22524
-0.010276711 -0.06620294 0.15996064 -0.21307486 -0.2536279 0.19411245 -0.06493717 -0.07558652
0.06485448 -0.15626754 -0.0025556637 0.12054217 -0.1087015 0.20819484 0.21118188 -0.1388125
0.17299211 -0.1623296 -0.017970681 -0.022072531 0.0781007 -0.012797257 -0.05311079 0.07403058
-0.22504231 -0.031284474 0.0039015592 -0.042755425 -0.19234468 -0.1049806 -0.1559116 -0.21916072
0.098563954 -0.08262562 0.072086595 -0.25820586 -0.25444335 0.039254583 -0.21507318 0.05246231
0.13013655 0.10812351 0.21431057 -0.023409197 -0.1597466 0.10138453 0.114245936 -0.20027228
-0.07810865 0.090922095 -0.2068998 0.07927045 0.18786713 0.16634895 -0.18804075 -0.2268337
0.102921 -0.19689983 0.078707784 0.18988062 0.053260013 -0.12668015 0.074099086 -0.071114965
0.20136525 0.11913594 -0.008732103 0.07298396 -0.05573015 0.17408183 0.078044474 0.044695415
-0.2085958 0.11643282 -0.06236263 0.20093521 -0.056788582 -0.047707718 0.14667052 -0.10044377
-0.16355135 -0.050875366 -0.017143913 -0.14193776 -0.21682803 -0.20324516 -0.024876378 0.0778074
0.08253359 0.1609957 -0.25991336 -0.15039526 -0.18652989 -0.07638882 -0.23272508 -0.22025248
0.16387609 0.13111593 -0.11293632 -0.12265918 0.2093571 0.17388792 0.07098551 -0.1355934
0.11136176 -0.033691287 0.058340907 -0.11276038 0.18806775 -0.0862405 -0.15417469 0.021744069
0.18363883 -0.052954536 -0.1197493 0.093627386 0.05298717 0.19900276 -0.023870721 -0.16791426
0.0036815985 0.15774229 -0.12019198 0.23236682 -0.12870617 0.18294938 0.020161865 -0.19241029
-0.21022744 -0.06617601 0.10141913 0.1003284 -0.139325 0.24078453 0.10369255 0.053693052
-0.00728475 0.0008455642 -0.023436312 -0.07326721 0.17860886 -0.18479271 -0.080165535 -0.1039863
-0.17099197 0.122531965 0.18381642 0.16823721 0.011906838 -0.17537506 0.22863497 -0.012460605
-0.20911033 -0.15168859 -0.08319265 0.12475892 0.064041875 0.115385875 -0.20669162 0.1400874
0.041266553 -0.10261839 0.18836243 0.17258352 0.081466615 0.12347488 -0.13164498 0.0002811232
-0.14946586 -0.09241333 -0.12038202 0.20902932 -0.11936278 0.1273109 0.11869288 -0.04193421
0.0006923303 0.19917352 0.012960801 -0.087608516 0.008984292 -0.23393376 0.18072872 0.22113256
-0.00035419315 -0.14652468 0.10190504 -0.10360634 0.055263717 -0.15434664 0.007730153 -0.12674445
-0.031056589 0.18119195 -0.084016904 0.21212746 -0.10138551 0.07480574 -0.2168263 -0.110121824
-0.12720565 -0.17625284 -0.004582712 -0.20094419 -0.1956912 0.13140076 -0.21172598 0.06820958
-0.17549999 -0.13138096 0.025841968 -0.03222676 0.11428736 0.042913664 0.13032079 -0.12471478
0.09539324 0.070692 0.11978337 0.13018073 -0.14682296 0.121525064 0.088656865 -0.16032037

shared.0.bias f4 [256]
00000000: d9f5 e8bb db31 2ebe af25 ddbd 96d7 013e
00000010: 81cb c9bd 2f6b 1e3e 62e6 12be b3ce 4d3e
00000020: d7de 11be 8852 b5ba a824 99bc d72e 333e
00000030: e7e3 a9bc a93d 5c3c 152a 3a3d 7af0 3dbe
00000040: 8f82 0d3e f184 d0bd 7160 443e e1ac b6bd
00000050: dfea 25be c0e2 353e 75d3 2a3e 3338 2a3d
00000060: 86b4 62be 1908 14be 16ce 223e bb95 31be
00000070: 9ed6 5e3d 464f 1a3e 65a3 28be 5902 40be
00000080: ec92 55be af2a 2fbd d42f 5ebe 9b50 96bb
00000090: 1a3e 91bc ce17 083e 4586 5abd fcf8 4fbe
000000a0: 1572 4d3e 4e6e 54be fb4b ce3d 95a0 ffbd
000000b0: d1fe 8ebc 57d3 49be 9703 6cbd 2500 f3bd
000000c0: c625 d5bd 9d0b ac3d f841 303e dc2f 203e
000000d0: 5331 703e 2008 59be 1a4a c53d 02f0 dd3d
000000e0: 6d56 a53d 9829 04bd 9eda 55be 50f8 003d
000000f0: ddf2 16bd 7fd3 463e 3ea7 25be 2243 e13d
00000100: 4e42 6d3e bc34 4c3e 9703 6bbe 0c68 e93d
00000110: affa 1fbe d3fe 5e3e 357e acbd 5d42 c7ba
00000120: db5b 4b3d 1b53 363e ff36 c3bd 7b0e 83bd
00000130: 209d 0c3e a350 573e e18b babd cd9e 263c
00000140: 7b66 d0bd 4cb3 343e 01a5 a7bd 7984 a2bd
00000150: 00ef 22be da2f ba3d edba fb3d 4a0b 633e
00000160: 0902 303e 9776 c5bd bdba 4d3d c0f7 983d
00000170: 4d2e 00be b0f5 39be 29ef 9c3d 9c72 64bd
00000180: 6eb9 0fbe 480c 1e3e cf39 18be 5d50 063d
00000190: b9f4 73be 28d6 8cbd 3823 5f3c 470c 5ebe
000001a0: ef48 30be ca21 033e 40bc 133e 1505 07bc
000001b0: e9f4 513e 8e09 77be c186 e0bd 6867 53bd
000001c0: a560 603d 631c 87bc d4ad 5cbe 7054 4d3e
000001d0: 526e 0e3e 320e 80be fae2 793d 4115 0d3d
000001e0: 32fd eabd 97b0 27bd 3326 5fbe f04e 7abe
000001f0: 040a 033e 63e5 493e abe4 81bd ef30 b4bd
00000200: c727 123e 0c54 71bc 8f7d 793e 2fe7 07be
00000210: 59cd 39bd adb9 d4bd 3b1b 303d 9b48 2ebe
00000220: 2c22 4e3e 6771 7abe 450e 28be 0c37 3fbe
00000230: e67b 52be dab8 693d c29e ac3d d77c 2e3e
00000240: dcc3 da3d 4bda 40be bf11 0cbe db21 82bc
00000250: 1481 20be 3044 483d 9165 eabd 825f 3b3e
00000260: 5c6d 533d 3a27 eb3d 65be 403d df8d 793d
00000270: 7fc9 f03d a836 4f3e 8a9d 82be 3c21 4dbe
00000280: 4569 fabd 3189 a1ba 0da5 86be 2c56 523c
00000290: cd9b 183d 509a 1cbd f9b9 e4bd a45a 3a3b
000002a0: 0737 aabd 5056 f6bd fd95 e03c 5ecf 5bbd
000002b0: 97eb 98b9 dedc 403e 0861 833d d916 a63d
000002c0: 8fc9 393e 3344 c93d 660d 55be a3a2 5e3e
000002d0: 0f30 583e 2b85 f1bd f054 b4bd 08fc edbd
000002e0: 0aaf 5c3e f266 71bd a309 b73b 610c fd3b
000002f0: 710c 50be 86ad 58be 9c97 483e 3a9c 433e
00000300: 2b9b 2a3e 6c1a 3abe 1a6d 453d e53e 1e3d
00000310: 75e5 b23c b9ca fb3d 6f4b 663e bb00 393e
00000320: e180 40be 285a a73d bae6 5c3e 6c19 12be
00000330: 1fee 46be db0b 1cbe 5ba6 4abc df4d 30be
00000340: 3586 17be 78ba d9bc 2e00 1a3e 8a57 463e
00000350: 2229 94bd 659f 2c3e 9625 533e f695 a13d
00000360: c571 d2bd 0383 22bd f3c2 94bd 1d13 b2bd
00000370: b0b9 e23d 5122 653c 7e33 6cbe e85b 8e3d
00000380: e7e5 14bd 7781 54be f037 753c ff11 113d
00000390: afb0 a33d 6740 eabd 0f9f 63be dcd5 f93c
000003a0: 9d34 23be dbf0 373e 0368 2cbe a3e7 663e
000003b0: e37a 503e e1bf bbbc 2551 6fbd af9f 6e3e
000003c0: f6d9 e3bd c2fc 693e 681d e7bd f436 6f3e
000003d0: 2d3a c53d 0434 29be 26aa dcbd 15f7 9f3d
000003e0: 168c 79be 3c28 e0bd 2722 1c3e b778 4b3d
000003f0: 6de3 6abd 8d46 5cbe f2ce cbbd 0dfe f63c
-0.0071093854 -0.17011206 -0.10798203 0.12679896 -0.098532684 0.15470575 -0.14345697 0.2009838
-0.14245163 -0.00138338 -0.018694237 0.17498337 -0.020738555 0.013442435 0.04545029 -0.18548766
0.13819335 -0.101816066 0.19177414 -0.08919693 -0.16202877 0.1776228 0.16682227 0.041557502
-0.22139177 -0.14456214 0.15898928 -0.17342274 0.054403894 0.15069303 -0.1646858 -0.18750896
-0.20856827 -0.042765316 -0.21697932 -0.0045872456 -0.017729808 0.13290331 -0.053350706 -0.20309824
0.2006305 -0.20745203 0.10073086 -0.124818005 -0.01745549 -0.19709526 -0.05762061 -0.11865262
-0.10407595 0.084006526 0.17212665 0.15643257 0.23456316 -0.21194506 0.096332744 0.108367935
0.08073125 -0.03226623 -0.20884177 0.03148681 -0.036852706 0.19416617 -0.16177079 0.10999133
0.23169824 0.19941992 -0.22950588 0.113967985 -0.15622972 0.21776895 -0.084225096 -0.0015202273
0.049648147 0.1780514 -0.09531974 -0.06399246 0.13731813 0.21026854 -0.09108711 0.010169697
-0.101757966 0.17646521 -0.08185769 -0.079354234 -0.15911484 0.09091158 0.12291513 0.22172275
0.17188276 -0.0964176 0.050226916 0.074691296 -0.12517662 -0.18160129 0.07662804 -0.055773363
-0.1403558 0.15434372 -0.14865802 0.032791484 -0.23823823 -0.068767846 0.013619237 -0.21684371
-0.17215322 0.12805858 0.1442728 -0.008240958 0.20503582 -0.24124739 -0.10963202 -0.051612288
0.054779667 -0.016493028 -0.21550685 0.20051742 0.13909271 -0.2501083 0.061007477 0.034444097
-0.114740744 -0.040939894 -0.21791916 -0.24444175 0.1279679 0.1971641 -0.06342443 -0.08798396
0.14272986 -0.014729511 0.24364303 -0.13271783 -0.04536185 -0.10386977 0.04299472 -0.17019884
0.20130223 -0.24457322 -0.16411693 -0.18673342 -0.20555076 0.057061054 0.08428718 0.1703981
0.106818885 -0.18833272 -0.13678645 -0.015885284 -0.1567424 0.048893154 -0.114451535 0.18298152
0.051617965 0.11482091 0.047056574 0.060926314 0.11757182 0.20235693 -0.25510818 -0.20032209
-0.1222711 -0.0012324211 -0.262978 0.012837928 0.03725796 -0.0382331 -0.11168284 0.0028435374
-0.08311277 -0.120281816 0.02741527 -0.053664558 -0.00029167227 0.18834254 0.064149916 0.081098266
0.18143295 0.09827461 -0.20805892 0.21741728 0.21112083 -0.11792978 -0.08805263 -0.11620337
0.21551147 -0.058936067 0.0055858656 0.007722423 -0.20317246 -0.21159944 0.19589084 0.19102564
0.16660754 -0.18174142 0.04819975 0.0386342 0.02183793 0.12294526 0.22489713 0.18066685
-0.18799163 0.08171493 0.2157239 -0.1426751 -0.19426773 -0.15238898 -0.012368764 -0.17217205
-0.1479729 -0.026578173 0.15039131 0.19369331 -0.07234408 0.16857679 0.20619807 0.07889931
-0.10275606 -0.039675724 -0.07263746 -0.08695052 0.11070573 0.013985232 -0.23066518 0.069511235
-0.036352064 -0.20752512 0.01496695 0.035417553 0.07992684 -0.11438065 -0.22228645 0.030497484
-0.15938039 0.17962973 -0.16836552 0.225493 0.20359378 -0.022918643 -0.058426995 0.23303102
-0.11125557 0.22850326 -0.11284906 0.23360807 0.09630237 -0.16523749 -0.10774641 0.07810799
-0.24369845 -0.10945174 0.15247403 0.04967567 -0.057345796 -0.21511288 -0.09951581 0.030150438

shared.1.weight f4 [256]
00000000: b9a2 833f 50cf 7f3f ef80 7f3f 191a 803f
00000010: 4bce 893f 887a 833f bbe0 7f3f 1700 7d3f
00000020: 249d 803f c4b6 803f fe88 803f 41f2 7d3f
00000030: be55 803f 337e 7f3f 2343 803f c983 883f
00000040: 6752 803f 75bf 813f 6b57 7c3f 9e16 803f
00000050: 473f 803f 85ee 7b3f 27ea 7d3f cde8 803f
00000060: 6d79 803f f0d5 7d3f 4520 833f 8ceb 803f
00000070: bbdb 7f3f 22da 803f 8eaf 803f 7e28 813f
00000080: b3b2 813f 0527 7f3f 9578 7f3f fc58 8b3f
00000090: 8715 803f 33be 7d3f d325 803f d08c 7e3f
000000a0: 20c3 813f 0000 803f b1dc 7f3f 69a6 813f
000000b0: 5fc7 7e3f 6d1d 803f 8205 803f 8cf0 813f
000000c0: ec8e 7c3f 6fb7 813f b38a 813f c313 7d3f
000000d0: 3d60 803f 9fb0 803f b941 803f 3bd8 803f
000000e0: a476 803f 081d 7f3f 3888 7f3f 1961 7c3f
000000f0: ee98 813f 9b76 7e3f b519 823f 96d8 7a3f
00000100: ced7 803f fa8f 803f b2ac 7f3f 660c 803f
00000110: 40e0 803f a954 803f 4c85 7d3f 689f 7c3f
00000120: f17c 803f 62d7 7e3f dbfe 833f 8c26 803f
00000130: 7f9a 7d3f 48ee 7c3f 0000 803f 6e53 7f3f
00000140: 6cec 7f3f 3baf 7d3f d9fc 823f 9326 803f
00000150: 5a06 813f d892 833f c69f 7c3f ce12 7d3f
00000160: 99af 7f3f 3e4c 813f d272 813f 5656 803f
00000170: fbdd 7d3f 244f 803f a49b 7d3f e363 803f
00000180: 0000 803f f6ea 813f 47e8 7d3f 46e6 7f3f
00000190: 4f7d 7c3f 0000 803f 1f9c 7e3f 09fa 7d3f
000001a0: e0f5 7e3f c902 7c3f d856 803f 7b7f 7f3f
000001b0: f578 7c3f 592f 803f 2305 873f 0000 803f
000001c0: c779 7f3f 31e0 813f a997 7a3f 3fd9 7d3f
000001d0: d02b 803f 0000 803f 0f07 823f 94eb 8a3f
000001e0: 1852 803f e47d 7e3f e137 803f 7f23 803f
000001f0: 265c 813f a748 803f 5c28 803f a4b9 853f
00000200: 1da2 7e3f 8e04 803f 7911 813f fa9f 7f3f
00000210: 021a 813f bdbf 803f 1557 803f 5bc5 8d3f
00000220: b2c4 7c3f d60d 7e3f 58e0 7e3f a018 7f3f
00000230: c160 813f e131 7e3f 9c81 813f 7e09 7e3f
00000240: 207a 7f3f f39d 803f a02a 7f3f ad66 893f
00000250: 1d51 7b3f fd56 843f c9de 813f 04a2 823f
00000260: bb66 7b3f 8cb1 7d3f ec9a 7f3f be3f 853f
00000270: e697 803f cead 803f 0000 803f 15fd 7f3f
00000280: 5226 803f 3634 803f 0000 803f bd3f 833f
00000290: b37f 833f 2100 833f d98d 7e3f 26df 7f3f
000002a0: da6e 7f3f 7362 7f3f e0e7 7e3f d738 803f
000002b0: dfca 7f3f 668a 803f f1fa 7e3f 4c07 7c3f
000002c0: cd6a 7e3f 8aa4 813f 5439 813f f73a 7d3f
000002d0: 6b74 7c3f 61d8 7f3f 71f8 7f3f c56d 803f
000002e0: bb6d 7c3f 8f6c 803f a600 7c3f 879a 813f
000002f0: f660 803f d048 7f3f 5eec 803f debf 803f
00000300: ad8e 7e3f 0f6d 803f eb00 7e3f 0e47 7e3f
00000310: 9dd5 8d3f a883 7f3f e1ba 7e3f 0127 803f
00000320: da1a 7e3f e239 813f ae4b 7e3f 581b 7f3f
00000330: 16ed 7f3f 73fd 7e3f 2956 843f 0000 803f
00000340: 615d 7f3f 910b 823f 1b47 813f 4bd2 7f3f
00000350: 9b44 803f eb63 803f f43c 7d3f acde 7f3f
00000360: dbdf 813f 19e9 7f3f 706e 833f 46a1 7e3f
00000370: 72b5 803f eea7 7e3f 0000 803f 9858 7f3f
00000380: 4669 803f fc95 803f 48ba 7d3f 1ba9 7e3f
00000390: 2f13 803f 7205 7f3f e2b2 803f b083 7d3f
000003a0: f9f0 7e3f 63b3 803f 69f3 823f 2835 823f
000003b0: 8627 813f 84cb 803f e0b0 7e3f fa9e 7f3f
000003c0: c586 803f 29db 7f3f dc00 803f 7731 803f
000003d0: 8bbe 803f 1c96 813f 7fef 7a3f 7729 7d3f
000003e0: d8e2 873f 68af 7a3f e331 7b3f 079a 7f3f
000003f0: 1200 843f f2b4 803f f897 7d3f 9663 7e3f
1.0284034 0.9992571 0.9980611 1.0007964 1.0766081 1.0271769 0.99952286 0.9882826
1.0047956 1.0055776 1.0041807 0.99197775 1.0026166 0.9980194 1.0020489 1.0665218
1.0025147 1.0136553 0.9857089 1.0006902 1.0019311 0.98410827 0.99185413 1.0071045
1.0037056 0.9915457 1.0244223 1.0071883 0.9994466 1.0066569 1.0053575 1.0090482
1.013266 0.99668914 0.9979337 1.0886531 1.000657 0.99118346 1.0011543 0.9943361
1.0137672 1.0 0.99946123 1.0128909 0.99522966 1.000898 1.0001681 1.0151534
0.9865558 1.0134104 1.0120453 0.9885828 1.002937 1.00539 1.0020057 1.0065988
1.0036206 0.99653673 0.9981723 0.9858566 1.0124795 0.9939973 1.0164095 0.97986734
1.0065858 1.0043938 0.9987289 1.0003784 1.0068436 1.0025836 0.9903152 0.98680735
1.0038129 0.995474 1.0312151 1.0011764 0.9906387 0.9880109 1.0 0.9973668
0.99970126 0.99095505 1.0233413 1.0011772 1.0080063 1.0279188 0.98681295 0.9885682
0.99877316 1.0101392 1.0113165 1.0026348 0.9916684 1.0024152 0.99065614 1.0030483
1.0 1.0149829 0.9918255 0.99960744 0.98628706 1.0 0.9945697 0.9920965
0.99593925 0.9844175 1.0026503 0.99803895 0.98622066 1.0014449 1.0548443 1.0
0.9979519 1.0146543 0.97887665 0.99159616 1.001337 1.0 1.0158404 1.0853143
1.0025053 0.99410844 1.0017053 1.0010833 1.0106246 1.0022172 1.0012317 1.0447278
0.99466115 1.000139 1.0083457 0.9985348 1.0086062 1.0058514 1.0026575 1.1075853
0.98737633 0.9923986 0.9956107 0.9964695 1.0107652 0.9929486 1.0117679 0.99233234
0.9979572 1.0048202 0.99674416 1.0734459 0.98170644 1.0339047 1.0146114 1.0205693
0.9820363 0.9909904 0.9984577 1.0410078 1.0046356 1.0053041 1.0 0.9999555
1.0011694 1.0015934 1.0 1.0253826 1.0273346 1.0234414 0.9943519 0.9994987
0.9977852 0.99759597 0.99572563 1.0017346 0.9991893 1.0042236 0.99601656 0.98448634
0.99381715 1.0128338 1.009562 0.989181 0.9861514 0.99939543 0.99988467 1.0033499
0.98604935 1.003313 0.9843849 1.0125283 1.002959 0.9972048 1.0072134 1.0058553
0.99436456 1.0033282 0.9922015 0.9932717 1.1080815 0.99810266 0.99503905 1.0011903
0.9925972 1.009579 0.9933423 0.996511 0.9997114 0.9960548 1.0338794 1.0
0.9975186 1.015978 1.0099825 0.99930257 1.0020937 1.0030493 0.9892113 0.99949145
1.014644 0.99965054 1.0268078 0.99464834 1.0055373 0.9947499 1.0 0.9974456
1.0032127 1.0045772 0.9911237 0.99476784 1.0005854 0.99617684 1.0054591 0.99029064
0.99586445 1.0054744 1.0230533 1.0172472 1.0090187 1.0062108 0.9948864 0.99851954
1.0041128 0.99943787 1.0000262 1.0015095 1.0058149 1.0123935 0.9802169 0.98891395
1.0616102 0.979239 0.98122996 0.998444 1.0312521 1.005522 0.9906001 0.99370706

shared.1.bias f4 [256]
00000000: b459 b73c 4750 343b 0aaf 2bbb b1c8 d63a
00000010: 38ba 8f3d c1d0 c03c af13 0e3b 9473 2cbc
00000020: a38b 113c 18e4 3d3c 6b44 263c ca33 25bc
00000030: 22c1 5f3b 7b65 a9ba fdd1 8f3b 02f9 a23d
00000040: 45df 6a3b ecc1 6b3c 7b29 28bc 9280 b33a
00000050: d654 363b a40b 0dbc dfb9 8abb 9fe0 f33b
00000060: f0d4 5e3c 0d60 01bc 07dd b03c eada 563c
00000070: bd76 933b 90d8 5d3c 19ac 313c 0767 4f3c
00000080: 078e 9c3c 7242 5f3a 2730 72bb ec94 9f3d
00000090: 30ec d23b b0bd c7bb bbc1 103c 6cad ebbb
000000a0: 5156 8e3c 0000 0000 2cdb ef3b 0dff 8b3c
000000b0: 7091 5e3c 174b 59ba 1430 0c3c dffc a73c
000000c0: ee7d 59bc ed60 c13c 5f20 373c 319c 74bc
000000d0: c83d 993b 61cf d73b f911 8c3b 84ae 0e3c
000000e0: 3697 513c 162b cf3a 84c7 84b9 da52 6cbc
000000f0: 0836 733c e8b6 41bb 7d25 933c 95bc 76bc
00000100: be32 fb3b 2259 033c a1f6 f83a 1b60 3e3a
00000110: 5dde 0d3c fc68 913b 9148 7ebc fce4 4abc
00000120: 891c b33b 93d5 423b ec34 e43c 9c2c d13b
00000130: c98f 09bc 189f 26bc 0000 0000 54eb fe3a
00000140: ebd9 b2ba 76d9 85bb 6903 b83c e33b 153b
00000150: a558 173c d4f8 f93c 25db 27bc 3dc9 05bc
00000160: c9a5 d33b 9872 373c 6754 823c 76ff e73b
00000170: a211 863b 578b 0b3b d0f2 a2bb 509b e23b
00000180: 0000 0000 784a 7e3c 4db1 f2ba 836e 783b
00000190: 518e 89bc 0000 0000 ee8a 39bc 3b66 04bc
000001a0: e7d6 23bb 3493 81bc ac8c d73b f89c 84ba
000001b0: 96e3 36bc 86d2 103b ef82 083d 0000 0000
000001c0: a31c 843b a5e2 833c 06d8 31bc c2a9 b0bb
000001d0: 50f9 783b 0000 0000 e6d2 8e3c 4134 663d
000001e0: d33e cb3b 52a0 c1bb 42ef ef3a 7a46 a6bb
000001f0: f2be 6f3c 3ad8 593b 9d90 023b f6cc 2c3d
00000200: 2944 66bb c80f b03b 8dc3 413c 027a 9e3a
00000210: 46f1 5a3c ac15 133c 8343 963b 245c 9b3d
00000220: 0bf8 16bc 4d86 6fbb a6eb 023c 02a2 07bb
00000230: d6b2 7f3c 8f05 c8bb 476d 4d3c 5bfd 81bb
00000240: 3dd6 ef3a 35b1 b83b 2e74 013b 055c 533d
00000250: 2e7e 6dbc ff19 b43c 6dc2 b13c 4da4 a63c
00000260: 3d9a 8dbc b628 60bb 3c63 ab3b 5e76 003d
00000270: 5d3c 7e3c f6be d53b 0000 0000 f132 5dbb
00000280: 4c94 253c 81fb 083b 0000 0000 74ce d83c
00000290: 6f95 f63c c47c d63c 6371 39bb a828 a239
000002a0: 4c88 c03b 3ddd 66bb 0d5c 72bb eb93 1a3b
000002b0: ba03 e13b 59e7 f93b 22bd 453b 6a72 aebc
000002c0: 01da 0339 dee2 713c e5b0 303c a126 18bc
000002d0: 2004 4dbc bfda e63b aa32 883a 765a ee3b
000002e0: d4f9 59bc aaed 5e3b e67d 7dbc c162 823c
000002f0: 21ae 0b3c db6c 11bb 915a 413c 7ca7 623b
00000300: a7d5 97ba 7f26 853b 1e0a b13b c9ff afbb
00000310: bef0 7a3d 3ac6 58ba b37b 29bb d1be c93b
00000320: 9182 d3bb 41c2 4f3c 132b a8bb 753a 9d3a
00000330: 8359 8b3a 9e6c 91bb 4a4c c43c 0000 0000
00000340: 77ed 82bb addb 583c 9dd5 553c f514 263a
00000350: 6ac6 133b 895a d03b b682 54bc 27ce 173b
00000360: c6ce 863c 2bee 433b 54a7 d53c dff8 0fbb
00000370: 7e3b ba3b 0f39 46bb 0000 0000 e4a7 4d3c
00000380: ed4c f33b 46fb 203b 070d e3bb 46ea b1bb
00000390: 8655 653b 993e ebbb c216 263c d795 40bc
000003a0: da12 6ebb 43ad 7c3c 1136 f33c 3591 a43c
000003b0: 1c49 123c 6102 693c cad0 a6bb f7a2 823b
000003c0: bb6f 4b3c 7dfb 3abb faf5 1d3b abcd 0c3c
000003d0: 1b9a 233c 5dbc ce3c 7f42 4dbc fd7d ba3b
000003e0: 5506 893d 1393 0bbc 497d 86bc 00c3 073a
000003f0: 810f f43c f3e2 0f3c 90e4 a0bb 2e80 26bc
0.022381641 0.002751367 -0.002619686 0.0016386715 0.0701794 0.023537042 0.0021679213 -0.010525603
0.00888339 0.011590026 0.010148148 -0.010083148 0.0034142216 -0.001292392 0.004389046 0.07957651
0.0035838645 0.014389496 -0.010263796 0.0013694933 0.0027821562 -0.008608732 -0.0042335833 0.0074425484
0.013600573 -0.007896435 0.021589769 0.013113717 0.0045002387 0.013540402 0.010844254 0.012658841
0.019110693 0.0008516676 -0.003695497 0.077920765 0.006436847 -0.0060956106 0.008835251 -0.0071923044
0.017375143 0.0 0.0073198285 0.017089391 0.01358448 -0.00082890823 0.008556385 0.02050632
-0.013274653 0.023605788 0.011177151 -0.014929817 0.0046765544 0.006586001 0.0042746034 0.0087086
0.012792399 0.0015805687 -0.00025325653 -0.01442405 0.014844425 -0.0029558484 0.017962212 -0.01505961
0.007665961 0.008016856 0.00189944 0.00072622456 0.008658973 0.004437564 -0.015520231 -0.012383696
0.005466048 0.002972935 0.027857266 0.0063834917 -0.008396097 -0.010169767 0.0 0.0019448795
-0.0013645267 -0.0040847613 0.022462564 0.002277129 0.009237443 0.030514158 -0.010245119 -0.008165655
0.006458972 0.011196755 0.015909387 0.007080014 0.0040914575 0.002129277 -0.004972793 0.0069154873
0.0 0.015520684 -0.0018515975 0.0037907667 -0.016791495 0.0 -0.011324627 -0.008081014
-0.0024999918 -0.015817262 0.0065780487 -0.0010117581 -0.011162659 0.0022098138 0.033327993 0.0
0.004031734 0.016099283 -0.010854727 -0.0053913305 0.0037990399 0.0 0.017434549 0.056202177
0.0062025576 -0.0059090042 0.0018305557 -0.0050743194 0.014632927 0.0033240453 0.0019922622 0.042187653
-0.0035135841 0.005372975 0.011826408 0.0012090805 0.013363188 0.008977335 0.0045856847 0.07585934
-0.0092144115 -0.0036548555 0.007990753 -0.002069593 0.015606603 -0.0061041783 0.012538261 -0.00396697
0.0018298101 0.005636359 0.0019753086 0.05160143 -0.014495416 0.021985052 0.021699155 0.020342017
-0.01728546 -0.0034203953 0.0052303355 0.031362884 0.015517321 0.0065230085 0.0 -0.0033752287
0.0101061575 0.002090186 0.0 0.026465632 0.030100552 0.02618254 -0.0028296344 0.0003092934
0.005875623 -0.0035227083 -0.0036981136 0.00235867 0.0068668993 0.0076264557 0.0030172546 -0.021294791
0.00012574346 0.014763562 0.010784362 -0.009286554 -0.0125131905 0.0070451195 0.0010391076 0.0072739674
-0.013304193 0.003401617 -0.015471911 0.01591623 0.008525402 -0.0022190127 0.011801378 0.0034584692
-0.0011584059 0.004063427 0.0054028174 -0.005371068 0.061264746 -0.0008269284 -0.0025861084 0.0061567803
-0.0064547737 0.012680591 -0.005132088 0.0011995571 0.0010631535 -0.004437997 0.023962159 0.0
-0.003995593 0.013235969 0.013051418 0.00063355203 0.0022548684 0.006358449 -0.012970617 0.0023163648
0.01645602 0.0029896598 0.026080765 -0.0021968407 0.0056833616 -0.0030246412 0.0 0.012552235
0.0074249418 0.0024563833 -0.006929043 -0.005429539 0.0034993603 -0.007179093 0.010137262 -0.011754475
-0.0036327154 0.015422168 0.029688867 0.020088771 0.008928563 0.014221759 -0.0050908076 0.003986712
0.012416775 -0.0028531246 0.0024102912 0.008593957 0.009985472 0.025236303 -0.012528061 0.0056912885
0.06690661 -0.008518952 -0.016417162 0.00051788986 0.02979255 0.008782136 -0.0049100593 -0.010162396

shared.3.weight f4 [256, 256]
00000000: ecc3 8e3d c21a 4c3d 5944 7c3d 9818 7a3d
00000010: d127 bbbc 636e 6b3c 7e2c 483d 5456 03bd
00000020: edd6 883d 2c2b 663d 7172 553c f3b0 3cbd
00000030: 2c0e 13bd 19bf 483d e27f 423c 973a dcbc
00000040: ba24 813d 9d86 d93c de82 843d 2144 5a3d
00000050: eed5 353d e483 23bd 0751 4abd 1102 703d
00000060: 8c64 d4bb cf60 e13b 0d81 5bbc a9be 3e3d
00000070: 5310 55bc 11ef 333c 4592 febb 9563 f63c
00000080: 013e 46bc e202 40bd 1e13 c33c 1d01 d13c
00000090: cc1b c23c d303 ebbc 6233 f03c e167 97bc
000000a0: 072b 12bc 481e 6a3c cc07 643d affb 29bc
000000b0: 2704 453b 6f68 d03c 8379 433d 955f 803d
000000c0: 8fd2 6f3d 2399 6e3c 1ecd 583d be42 11bd
000000d0: 1bd3 17bd 6d0c 92bc ed49 6ebc 2d5e 163d
000000e0: 8a31 223c c5b9 673d 9b45 41bc 1641 14bd
000000f0: 8cca af3c 1d03 3e3d 5fb7 13bd db73 30bd
00000100: 1a93 0d3d 4168 d63c 0bc6 5a3d f1d8 b4bc
00000110: 3269 513c d18f d23c 0526 393d 0826 34bd
00000120: 0207 5ab9 4a18 75bc c037 313d 009d 183d
00000130: 92d0 dbbc 4c75 583c ba93 55bd 5de2 d53a
00000140: 6327 193d d03d 1d3c 867c 793d 8961 92bb
00000150: a036 993a cc36 2f3d 48d6 663c e5e9 143d
00000160: 576f a23d 8735 d9bc e0a1 633d c4a1 003d
00000170: 0856 313d 71fc f03c c2dc 203d 89f2 423d
00000180: e4f7 cb3c 1f79 1f3d c466 74bc be1a 98bc
00000190: 5db7 cbbc fcaf 803c 2d9d fcbc 5ba8 3c3d
000001a0: 6276 16bd f0dc 99bc d80e 283d a696 c63b
000001b0: eed1 433d 612a 9e3c 8113 3c3d f00c 87bb
000001c0: 1fb6 443d a105 f53c 70e7 f03b a5f9 85bc
000001d0: 5392 bfbc 208a ecbc 5f93 37bd 193b 813d
000001e0: 2f2a cabc 322d adbc 05f9 24bd d88c 493d
000001f0: 7778 963d 71bd 583d fff0 4d3d 9e83 1f3d
00000200: da2d 6bbc 8f5d 8a3b 7dfb 873d 6fdc 443d
00000210: d698 603d b590 ebbc dcfd 49bd af8d cabc
00000220: fb55 8b3d 9c55 c4bc e47f 173d 025e 933c
00000230: 9e59 d73c 5ed9 573d 90ff f03c 9958 a93c
00000240: 6872 34bc e1d2 55bd 199f 943d 3d8b d63c
00000250: 6bcd c53c 5482 16bd ef27 c3ba 3f39 043d
00000260: 6445 18bb 524d 5d3d 7834 1bbb 8735 303c
00000270: db09 71bc 9972 723d 54d6 d2bc 40fa 40bd
00000280: e5c5 153d 7138 553d 6a69 04bd 844a 8f3d
00000290: e83b 11bc 8286 07bd 2cbc 803d 2e34 6d3c
000002a0: 731c 513d f186 85bc a118 e8bc ee1c ba3c
000002b0: af84 c5bc 27ac 483d 9e89 cbbc ff1e 9e3a
000002c0: cff3 ee3b 1224 fa3c a344 1abc a64c 36bd
000002d0: 819f 873d 121f 22bc 573e e83c 4bd6 dbbc
000002e0: 54e0 2cbd f40b b0bc 7a30 05bd c547 81bc
000002f0: 16e3 463d 99cd 203d f80b 9a3d 2e9f 393d
00000300: 0ad4 413d 928a e23c 52ae ccba 469c 583d
00000310: 2040 7c3d fd90 663d d174 883d 81ef debc
00000320: a46f 263c a66f 1e3d 4766 8f3d 8458 7b3d
00000330: a2bc 7d3d 2442 67ba c1f4 143c 1a54 21bd
00000340: d7c9 333d bd5e bfbc 2824 13bd 0174 59bc
00000350: a358 2f3c 3d2b 693d 9ba9 2fbd 99ee 743d
00000360: b3af dabc 316b 79bc a366 fcbc f9a1 a53b
00000370: e6dc 2fbd cac4 233d 9078 f83c fa28 123d
00000380: df43 213d 3b43 cb3b bb42 863d 3a2d 83bb
00000390: 0c1f ce3c c77e 323d ddf1 1e3d e954 51bc
000003a0: 4d79 56bd 74f1 d8bc 6ae2 743c 57e0 88bc
000003b0: c732 f1bc 53a4 a53c 8ab3 243d bdf0 873d
000003c0: ca30 1fbd c1aa 0fbd c8ed ffbc cd04 ef3c
000003d0: cdbe 14bd 4e51 33bc 1cc7 8f3d f5e1 303d
000003e0: 18ab 8f3d 97c2 fb3c 6e7b 503d 73f6 8f3d
000003f0: 1cb1 2b3d 892b b53a 16f8 763d 4ca0 8a3a
0.06970963 0.049830206 0.06158862 0.06105861 -0.022846134 0.01436958 0.048870556 -0.03206475
0.06681619 0.056193516 0.013027773 -0.04606719 -0.035902187 0.04901037 0.01187131 -0.026883407
0.06305833 0.026553446 0.064702734 0.05328763 0.044393472 -0.039920703 -0.04939368 0.05859572
-0.0064817127 0.0068779956 -0.013397467 0.046568546 -0.01300438 0.010982291 -0.0077689015 0.030076781
-0.012099744 -0.04687775 0.023812827 0.025513226 0.023694895 -0.028688347 0.029321376 -0.01848215
-0.008921391 0.014289446 0.0556715 -0.010374947 0.003006229 0.025440423 0.047723304 0.06268231
0.058550414 0.014562878 0.05292999 -0.03546404 -0.03706656 -0.01782819 -0.0145439925 0.036710907
0.009899506 0.056573648 -0.01179638 -0.036194883 0.021458887 0.046389688 -0.03606355 -0.04307924
0.034564115 0.026172759 0.053411525 -0.022076102 0.012781428 0.025703343 0.045202274 -0.043981582
-0.0002079271 -0.014959404 0.043266058 0.037259102 -0.026832853 0.0132115595 -0.052142836 0.0016318072
0.037391078 0.009597257 0.06090977 -0.0044671935 0.0011689253 0.042776868 0.014089175 0.03635587
0.07931393 -0.026514782 0.055574298 0.03140427 0.043294936 0.029417248 0.03927303 0.04759458
0.024898477 0.03893387 -0.014917079 -0.01856744 -0.024867708 0.015708916 -0.030836666 0.046058994
-0.036733992 -0.018782109 0.04102978 0.006060439 0.047807626 0.019307317 0.045917038 -0.0041214153
0.048025247 0.02990991 0.0073518082 -0.016354391 -0.023385203 -0.028874457 -0.04481828 0.063101
-0.024678318 -0.021139715 -0.040276546 0.049206585 0.073471956 0.05291504 0.05027866 0.03894388
-0.014354194 0.004222579 0.066397645 0.048061784 0.054833256 -0.028755525 -0.049314365 -0.024725763
0.06803509 -0.023966603 0.0369872 0.017989162 0.02628785 0.052697532 0.029418737 0.02067213
-0.011013605 -0.052203063 0.07256908 0.02618944 0.024145802 -0.036745384 -0.001488922 0.032281157
-0.002323472 0.054028817 -0.0023682397 0.010754949 -0.014711822 0.05919132 -0.025736965 -0.047113657
0.03656568 0.05205578 -0.032327093 0.069966346 -0.00886438 -0.03308726 0.06285891 0.014477773
0.051052522 -0.016299697 -0.028332056 0.022718873 -0.02411112 0.048992302 -0.024845894 0.0012063681
0.007292248 0.030534778 -0.009415778 -0.04450669 0.0662222 -0.009895103 0.028350038 -0.026835581
-0.042206123 -0.021490075 -0.032516934 -0.015781293 0.04855641 0.039258573 0.07521814 0.04531782
0.047321357 0.027653966 -0.0015615916 0.05288341 0.061584592 0.056290615 0.06662906 -0.027213814
0.010158453 0.038680695 0.0700193 0.061363712 0.061947472 -0.00088218064 0.009091557 -0.039386846
0.04389366 -0.023360604 -0.035923153 -0.013272286 0.010702285 0.056926 -0.042886358 0.059797857
-0.026695108 -0.01522331 -0.03081066 0.005054709 -0.042935275 0.039982595 0.030330926 0.03568361
0.039371368 0.006203083 0.065556966 -0.004003194 0.025161289 0.043577936 0.038804878 -0.012776592
-0.052361775 -0.026482321 0.014946559 -0.016708536 -0.029443158 0.020219957 0.040210284 0.06637714
-0.03886489 -0.035074953 -0.031241313 0.029177094 -0.036314774 -0.0109446775 0.07020399 0.04318424
0.070150554 0.030732436 0.05089896 0.07029428 0.04191695 0.0013822179 0.060295187 0.0010576337

shared.3.bias f4 [256]
00000000: 175f f83c da5e 3e3d 0385 cd3c 5e1f fb3c
00000010: 4d0f 12bd 24da 05bd 41e3 1d3c 0bbc 543d
00000020: 2e37 ef3c 06d7 a0ba 5b56 b73b c942 713c
00000030: 17a7 833c cd09 09bd d840 e4bc 7be7 4b3c
00000040: 9aab 81bd d3f0 f13c 0835 9b3c 4ef3 413d
00000050: 46a0 46bd 3c6e ccbc 4c02 d1bc e483 0e3d
00000060: 507a 89bc 7fc9 6dbd 9463 4cbd 169d 243d
00000070: 7060 1a3d c879 253d 3a6a 1ebb ecf0 3b3d
00000080: aab0 10bd 2aed a23c 3d29 503d b30d 313d
00000090: a0ad 3a3d 7d65 ef3c 76a1 08bd cc3b e8bb
000000a0: 16ae 3d3d 1b60 093d fac1 df3c b980 1abd
000000b0: ed56 69bd 5876 45bb a13f c13b d314 35bd
000000c0: 3891 babb eb89 993d 1758 5ebd bb54 3cbc
000000d0: 4a77 04bd 0630 8bbc 92d8 d4bc 1a82 15bd
000000e0: a602 e3ba 0323 823c c3d9 4c3d bc86 963c
000000f0: 00d7 4d3d c903 81bc 9ade 02bc 7cd3 683d
00000100: c868 0cbd a459 bfbc 3d08 92bd 1214 96bc
00000110: 14a2 bcbc 399f e7ba 625b 603c 70e5 bf3b
00000120: eca3 3b3d b9f3 183d 1ba0 963c 7984 3a3c
00000130: 3a5c e63c 1f50 eb3b 5cf8 643d a9fc 3b3d
00000140: 0c8c 2fbd 7169 803d a1a2 ff3c 0687 efbc
00000150: c067 bdbc b65b e7bc 16b7 04bd 4641 57bc
00000160: 0a84 4a3d 7802 20bc 6a8f 88bc ec52 2f3d
00000170: 6a1a 5d3c 2a0f 643d 5d91 593c 2536 523d
00000180: fd42 f63c a5f6 873d 743c 4fbd 4da6 67bd
00000190: fb78 023d 70ec 1dbd f97e 0bbd 5193 0bbd
000001a0: 69e4 c63c 3205 003d 9ae3 64bd 425a 9839
000001b0: 5e81 a13d b5c3 53bc 82e9 37bd 8a75 5e3c
000001c0: aff0 26bd a46b 293d d018 4b3d ef34 483d
000001d0: 6316 07bd e021 873c c1ce 643d 271c 8e3c
000001e0: 67fd 61bd e97b 6d3d f4fc fabc bfd3 f4bb
000001f0: 1be4 74bd db26 27bd 25e9 ed3c 019d 1b3d
00000200: 6981 a73b 13e6 bc3c 2b66 103d 4edd 343c
00000210: 0224 d2bc 79e8 443c 2d5c c63c 19bc 06bd
00000220: dc41 a0bc 93c3 e0bc 9e32 71bd fac9 c2bb
00000230: 8ac5 95bc ff15 bcbc 36a4 583d 1f85 cbbc
00000240: 0c5a fcbb af6d 3d3d 7775 333d 2ed5 6b3d
00000250: 4364 2dbd 8a16 6e3c c268 5939 f6aa 20bd
00000260: e0bb 913c 92e3 25bd 87db 6bbc 6db6 2b3d
00000270: 8f19 2fbd 0f1c 5a3d 8996 44bb 1aed d4bc
00000280: e1c4 63bd a49a 663d 9ee0 febc dd20 a33a
00000290: 0184 713d 9159 d33c 7cff 13bd cebb 583c
000002a0: 6005 5cbd 02a2 30bd 2f96 efbc 3f95 7c3c
000002b0: e8c3 f5bb f09a 243d 8b03 20bd 08ee a03d
000002c0: 1212 c6bc ff35 703c 2160 e0bc 6b89 c8bc
000002d0: 467b 17bd 3349 593d c2bd df3c a9cc 33bb
000002e0: 6917 3c3d fb04 423d 59f5 103d d16e 85bd
000002f0: 11a9 cc3c 17e9 123d 0a7d bdbc e708 28bb
00000300: d5e4 f7bc f91a 8ebc e33b c3bc d451 763c
00000310: 078c 25bd 7313 093d 02cd e2bc c714 8ebd
00000320: 02f8 45bd bd83 4c3a ceb6 5f3d 17d3 1a3d
00000330: 5aa3 80bd 6b85 69bc a7ab 07bd 8277 703d
00000340: 0f14 02bd 22f1 6ebb de19 483d 3890 70bd
00000350: 8be7 a73a 6f44 343c 65f9 423c e490 95bc
00000360: fa2f 1cbc b0cb 853d 99fe 4fbd 6d6c fcbb
00000370: c0f4 ca3c 4ca0 25bc d363 493d 00c4 c3bc
00000380: adff 1a3c 74d7 b4bc 92e1 fdbc df6d 193d
00000390: f5aa 30bc 994d 01bc 5870 36bd 540b b23c
000003a0: 264b ba3a b5e4 87bb 1a33 0dbd 168b a53c
000003b0: d486 7cbb c013 da3c 6012 ad3b 5625 6fbb
000003c0: 7b1b 34bd b56f 3ebd 61e1 6cbc bf82 a63a
000003d0: d0a7 e4bc beed 6a3b 7b05 29bb 9371 203d
000003e0: 04f0 a8bb edb2 633d 1d8e 8abc e949 4bbb
000003f0: 05e5 6dbc 0c2f 133d b60c 623d 2dfc f0bc
0.03031878 0.046477176 0.025087839 0.030654605 -0.035659123 -0.03267874 0.009636701 0.051937144
0.029201116 -0.0012271113 0.005595011 0.0147253955 0.016070886 -0.033456612 -0.027862951 0.012445326
-0.063315585 0.02953378 0.018946186 0.047351174 -0.048492692 -0.024954908 -0.02551379 0.03479375
-0.016781956 -0.05805349 -0.049899653 0.04018887 0.037689626 0.040399343 -0.0024172203 0.045884058
-0.03532473 0.01988848 0.050820578 0.043225955 0.045575738 0.029223198 -0.033357106 -0.0070872065
0.0463086 0.03353892 0.027314175 -0.037720416 -0.056967665 -0.0030130353 0.0058974777 -0.044209313
-0.005693581 0.07497009 -0.054283228 -0.011494811 -0.032340325 -0.016990673 -0.025982175 -0.036501028
-0.0017319515 0.015885836 0.05001236 0.018374793 0.050253868 -0.015748875 -0.007987643 0.056842312
-0.034279615 -0.023358174 -0.071304776 -0.018320117 -0.023026504 -0.0017671353 0.013693662 0.0058562085
0.045810625 0.037341807 0.018386891 0.011384123 0.028120149 0.007181182 0.055900916 0.045895252
-0.04285817 0.06270111 0.031205477 -0.029239189 -0.02312076 -0.028241973 -0.032401167 -0.013138121
0.04944233 -0.009766214 -0.016669948 0.04280369 0.013495067 0.055678524 0.013279286 0.051321167
0.03006124 0.066388406 -0.050594762 -0.05655508 0.031853657 -0.038555562 -0.034056637 -0.03407604
0.024278836 0.031254955 -0.05588112 0.00029058947 0.07886003 -0.012925078 -0.044900425 0.013577828
-0.040756878 0.04136242 0.04958421 0.048878606 -0.032980334 0.016495645 0.05586124 0.017347408
-0.055173304 0.057979498 -0.030638196 -0.007471531 -0.05978785 -0.04080854 0.029041836 0.037991527
0.0051118624 0.023058927 0.035253685 0.011039091 -0.025651935 0.012018316 0.024213875 -0.032894228
-0.019562654 -0.027437007 -0.058886163 -0.0059444876 -0.01828267 -0.022959707 0.05289098 -0.02484375
-0.007701164 0.04624718 0.043813195 0.05757635 -0.042331945 0.014531741 0.00020733758 -0.03922554
0.017789781 -0.04050023 -0.014395601 0.04192202 -0.042748984 0.053249415 -0.0029996953 -0.025991965
-0.05560768 0.05629982 -0.031112965 0.0012445707 0.05896378 0.025799545 -0.03613232 0.01322837
-0.053716063 -0.043123253 -0.029246418 0.015416442 -0.0075001605 0.040186822 -0.03906588 0.07857901
-0.024178538 0.014661311 -0.027389588 -0.024479588 -0.036982797 0.053048324 0.027312163 -0.002743522
0.045920763 0.04736803 0.03539023 -0.06515277 0.02498296 0.035866823 -0.023130912 -0.0025640072
-0.030260483 -0.017346846 -0.023832267 0.015034158 -0.040416744 0.033465814 -0.027685646 -0.06937557
-0.04833222 0.0007801613 0.054617696 0.037798967 -0.06281157 -0.014253001 -0.033122685 0.05870772
-0.03175741 -0.0036459644 0.048852794 -0.058731288 0.0012810094 0.011002644 0.011900281 -0.018257566
-0.009532923 0.06532991 -0.050779913 -0.007703355 0.024774909 -0.010109019 0.049167465 -0.023897171
0.009460372 -0.022075392 -0.03099135 0.037458297 -0.010782947 -0.007892036 -0.044540733 0.021733917
0.001421307 -0.004147137 -0.034472562 0.020207923 -0.0038532512 0.026620746 0.0052817315 -0.003649076
-0.04397152 -0.04649325 -0.014458031 0.001270376 -0.02791205 0.0035847272 -0.002579062 0.039170813
-0.005155565 0.05559056 -0.016913468 -0.0031019396 -0.014519935 0.03593354 0.055187903 -0.029417122

shared.4.weight f4 [256]
00000000: 2134 8f3f 123f 7f3f 74b1 823f e990 7f3f
00000010: de10 8e3f 9714 8d3f 8e7c 803f d5ba 8d3f
00000020: 1a4d 7f3f 93a8 7e3f e6cd 7e3f a539 8e3f
00000030: 400b 903f da83 7f3f c3a8 7f3f ab4c 803f
00000040: 301c 7f3f e19e 803f df60 7f3f 686f 8e3f
00000050: 31a0 803f 7928 813f 5c29 7f3f 1705 8e3f
00000060: 1094 7d3f dad6 813f bcc4 7c3f 69f3 7f3f
00000070: d733 7f3f 64e3 893f ed8e 8f3f 44b1 7e3f
00000080: 482d 7f3f bb95 7e3f 294f 7f3f bd9b 7f3f
00000090: 38ab 7f3f 2f87 7c3f a5d7 7e3f 1f9e 8b3f
000000a0: bfc2 7e3f cb59 8e3f fbba 8f3f 238a 7f3f
000000b0: db05 803f 2157 8e3f 8c58 7e3f 25bb 7e3f
000000c0: 60d6 8d3f 37ca 8f3f 8728 7f3f 6c4f 7e3f
000000d0: ab10 8f3f b94c 803f 4bf0 7d3f d30b 7d3f
000000e0: de56 7f3f 0a5c 7f3f c510 803f 84e1 7f3f
000000f0: c240 7f3f e4e9 7f3f d978 7e3f eff9 8d3f
00000100: c294 8e3f 2b0c 7e3f 8748 7e3f 7797 803f
00000110: 10a2 893f 172a 7f3f 44bc 7f3f bf0d 7f3f
00000120: d50d 7f3f bf9b 7f3f 7714 813f fd26 8f3f
00000130: 7369 7e3f 5100 7e3f a273 8f3f 3f71 8f3f
00000140: eaae 7e3f 5076 8e3f 9c83 903f 9920 7f3f
00000150: ad65 803f fdcb 7e3f 42b1 7f3f 2c42 803f
00000160: 4d2f 7f3f 25d9 803f 8fb3 7e3f 7ef9 8d3f
00000170: 0c76 8e3f 4f11 803f 4a69 8d3f 1b8d 7f3f
00000180: 5d08 8d3f 37d9 8e3f 41bd 7f3f cabc 803f
00000190: 5aba 7e3f be5f 913f 801f 7f3f b23c 903f
000001a0: 2c38 803f 77a7 8e3f 2621 7f3f 6857 7f3f
000001b0: 101a 8f3f 164b 803f 3cee 7d3f e0dd 8d3f
000001c0: b2a5 7f3f 1f1a 923f f9b0 7d3f 7b47 7f3f
000001d0: ffb0 803f 544f 7e3f ecdf 7e3f 7765 7f3f
000001e0: b6ac 7f3f 2da2 8e3f bd99 7e3f 7f81 7f3f
000001f0: 7a14 803f e505 803f 327a 7e3f 42ef 8e3f
00000200: eb7b 7f3f 7e54 803f 95fc 7e3f 4f8e 7f3f
00000210: 78ae 7e3f fe1e 7f3f d7ab 7e3f b9b9 7e3f
00000220: 0d37 803f b896 843f 86b0 7e3f 205b 7f3f
00000230: d6dc 7e3f b48f 7f3f 5f0e 803f 2d6e 8e3f
00000240: 491b 8b3f eb35 7e3f f047 803f b328 7f3f
00000250: 12ff 7e3f 5d59 7f3f 8aca 7f3f 79e7 7e3f
00000260: 4cbc 7e3f c553 8f3f 034c 8f3f 78d1 7e3f
00000270: a11e 923f 7611 803f a7c5 7e3f 2e02 803f
00000280: f0e2 7e3f 3bff 7f3f f0c0 7f3f e260 7e3f
00000290: b61b 7d3f b91c 7d3f f581 7e3f 816f 8e3f
000002a0: 7486 7f3f fd1b 7f3f 4896 7e3f 340c 8e3f
000002b0: 79fd 7e3f 7642 7f3f f860 8f3f c408 8f3f
000002c0: f856 7f3f eb42 803f 3b28 7f3f 6aa4 7e3f
000002d0: 6bc1 7e3f 536d 8f3f 54e1 7d3f 55a3 7e3f
000002e0: ec38 803f af29 7d3f f041 803f 38e0 803f
000002f0: e35f 8e3f 16be 7f3f e544 8e3f ba0b 8f3f
00000300: 5395 7f3f d578 8e3f cbfa 7f3f 15d4 803f
00000310: 5674 7f3f 93a1 8e3f 3208 803f e570 7e3f
00000320: e296 7e3f ec9f 7f3f a21b 803f 0edb 7e3f
00000330: 786d 803f 0602 7d3f 17d4 7e3f eef4 803f
00000340: 38ff 7f3f 304f 7f3f 0fb4 7e3f 1cc6 7e3f
00000350: 7dbb 8e3f 3c42 903f 8e97 7f3f 5fb3 7e3f
00000360: 4113 7f3f 3ee8 8d3f 6db3 7f3f 9a59 7f3f
00000370: b4d1 8e3f dccf 7f3f 79fb 803f 059a 7f3f
00000380: 7475 7f3f 48a7 803f 21d6 7e3f b8a5 8e3f
00000390: 6a09 7f3f 224b 7c3f fc48 803f 0f23 7f3f
000003a0: 90cf 7e3f a085 7f3f 4e5f 7f3f 9c07 803f
000003b0: 6b90 7e3f 3cc3 7e3f 040f 7f3f 9524 7f3f
000003c0: 5639 913f 7ead 803f 21a2 7e3f fa4c 7f3f
000003d0: 33fc 7f3f 990f 8e3f b4c6 803f f0fb 7e3f
000003e0: cf56 7f3f bb94 7e3f ca2b 923f 67b9 823f
000003f0: d02e 7e3f 263f 7f3f 4c0f 903f a96a 7f3f
1.1187783 0.9970561 1.0210404 0.9983049 1.1098897 1.1021909 1.0038011 1.1072642
0.9972702 0.99475974 0.99532926 1.1111342 1.1253433 0.99810565 0.99866885 1.0023397
0.99652386 1.0048486 0.9975719 1.1127748 1.0048887 1.0090476 0.99672484 1.1095303
0.9905405 1.0143692 0.9873769 0.9998079 0.99688476 1.0772519 1.1215492 0.99489236
0.9967847 0.9944722 0.99730164 0.9984701 0.99870634 0.98643774 0.995478 1.090763
0.9951591 1.1121153 1.1228937 0.99820155 1.0001787 1.112034 0.9935386 0.9950431
1.1081047 1.1233586 0.99671215 0.9933994 1.1176962 1.0023414 0.9919478 0.9884617
0.99741924 0.99749815 1.0005118 0.99953485 0.9970819 0.99966264 0.9940315 1.1091899
1.1139147 0.99237317 0.9932942 1.0046223 1.0752583 0.996736 0.99896646 0.9963035
0.9963048 0.99847025 1.008437 1.1183773 0.9937965 0.9921923 1.1207163 1.1206435
0.9948565 1.1129856 1.1290164 0.99659115 1.0031029 0.9953001 0.9987985 1.0020194
0.9968155 1.0066267 0.99492735 1.1091764 1.1129775 1.0005282 1.1047757 0.99824685
1.1018177 1.1160039 0.99898154 1.0057614 0.995031 1.1357343 0.9965744 1.1268523
1.0017142 1.1144856 0.99659956 0.99742746 1.1179829 1.0022914 0.9919164 1.1083336
0.99862206 1.1414222 0.99098164 0.99718446 1.0054015 0.99339795 0.9956043 0.997642
0.9987291 1.1143242 0.99453336 0.9980697 1.0006249 1.0001799 0.99405205 1.1166766
0.9979846 1.0025785 0.9960416 0.9982652 0.9948497 0.99656665 0.99480957 0.9950214
1.00168 1.0358496 0.99488103 0.9974842 0.9955572 0.9982865 1.0004386 1.1127373
1.0867702 0.9930102 1.0021954 0.9967148 0.99607956 0.9974573 0.99918425 0.9957195
0.9950607 1.119744 1.1195072 0.99538374 1.1415597 1.0005329 0.99520344 1.0000665
0.9956503 0.99998826 0.99903774 0.9936658 0.9887041 0.9887195 0.9941705 1.1127778
0.99814534 0.9965208 0.9944806 1.1097474 0.9960552 0.99710786 1.1201468 1.117455
0.9974208 1.0020422 0.9967076 0.99469626 0.9951388 1.1205238 0.9917195 0.99467975
1.0017371 0.9889173 1.0020123 1.0068426 1.1123012 0.99899423 1.1114775 1.1175454
0.99837226 1.1130625 0.99992055 1.0064722 0.9978689 1.1143059 1.0002501 0.99391013
0.9944898 0.99853396 1.0008433 0.99553 1.0033407 0.9883121 0.99542373 1.0074747
0.9999881 0.99730206 0.994935 0.9952104 1.1150967 1.1270213 0.9984063 0.9949245
0.99638754 1.10865 0.99883157 0.99746096 1.1157746 0.99926543 1.0076743 0.9984439
0.99788594 1.005105 0.99545485 1.1144323 0.9962374 0.98552144 1.0022273 0.9966287
0.99535465 0.9981327 0.997548 1.0002322 0.99439114 0.99516654 0.9963229 0.99665195
1.1345623 1.0052946 0.9946614 0.9972683 0.999942 1.109851 1.0060639 0.99603176
0.99741834 0.99445695 1.1419613 1.021283 0.9929018 0.9970573 1.1254668 0.99772125

shared.4.bias f4 [256]
00000000: cad2 e33d 3a57 d5bb 0dc3 dc3c f888 893b
00000010: 694e d43d 1fbb f53d 236b 303b f5c8 db3d
00000020: dfd7 60bb 2dcc ccbb c06d a5bb 2e6a 003e
00000030: 8de9 e73d 04ee d2bb 1247 9ebb 6b11 9cbb
00000040: cd0e 83bb a63d c6b9 8d20 dabb 8f08 e83d
00000050: 7a82 643c f035 163b a21d 84bb dd78 dc3d
00000060: ffb9 39bc 331e 013d 7ae6 62bc b555 68bb
00000070: 34f2 c4bb 7b67 a53d 705e f93d e2e8 acbb
00000080: 2576 5fbb d694 c7bb 0c9d 0ebc e007 b2bb
00000090: 7ecd 123b 673f 33bc 1be1 8cbb 0517 e33d
000000a0: 23da c1bb 8276 e13d ee3f d83d a2d1 edbb
000000b0: 04af 85bb 7553 e33d b0a3 c3bb b65a a2bb
000000c0: 01de e13d 1530 e03d 29fa 59bb 75c6 00bc
000000d0: edaa f83d 7874 153b 19f4 01bc 33c1 5ebc
000000e0: ee2f f5ba 9779 aebb 1e27 96bb e27c 9ebb
000000f0: 3e3a a5bb 0561 96bb 2d8a f1bb 89f5 d53d
00000100: 1c1c d83d b178 1fbc 42cc 74bb da69 9138
00000110: 60f4 d63d c410 fdbb 257d 853b 7a66 9cbb
00000120: 1f83 a5bb 426c 94bb ac99 553a 8f99 d93d
00000130: 2bce 0fbc 04eb 13bc fe9c e13d 394e e63d
00000140: 1f9d b3bb 80e9 f83d 3d79 f93d e786 82bb
00000150: 6c00 213b c3c5 cabb 4488 92bb eb5d ddba
00000160: 75e2 adbb ba99 923a 999a ebbb d4ee e03d
00000170: 21ff f53d 98df 53bb f22f ea3d f095 cebb
00000180: 42c0 f23d 5268 f73d 70a6 4ebb ee61 11bb
00000190: 3b85 9ebb 1add fa3d 4c2b 79ba d618 ef3d
000001a0: db0a 09bb 3125 f13d ee96 2fbb 7b89 e2bb
000001b0: da16 e13d c3e9 fd3a 8e7b 11bc ccd2 ea3d
000001c0: a005 b1bb 38b2 043e 936b 0fbc 368f c9bb
000001d0: 243d 623c 3495 47bc 790f b8bb 2018 b1bb
000001e0: 2470 abbb e978 e63d 7681 c6bb 0aaa e3bb
000001f0: 3dca 67bb b075 85bb ce94 ccbb 1f48 e33d
00000200: 93d8 84b9 9306 4aba 3a0a 96bb bc98 263b
00000210: 52ab 01bc ca36 a3bb 536b cdbb 53d6 d6bb
00000220: f99d 6abb 10c8 223d d40d e6bb 5643 cebb
00000230: 64b7 b0bb 320f c4bb b7e5 afbb 4adc e83d
00000240: 9622 c13d ac4e 0dbc cf92 bebb 55be 5fbb
00000250: 7ac9 98bb feb6 ddbb 3824 6fbb 6238 e8bb
00000260: ec39 8abb cd86 e73d 1fcb e13d dacd b7bb
00000270: ed4b 023e 8a02 72bb 336f bfbb 446c b8bb
00000280: 21ec a9bb 830a 1ebc 5c65 a9ba 43c4 ddbb
00000290: bb98 46bc 2e95 6fbc b37b e1bb 2b26 e13d
000002a0: ef2c fabb 2c15 88bb 465b 06bc e8a4 f03d
000002b0: be21 f539 84dd 28bb 7519 dc3d cdfa df3d
000002c0: a3d6 e0ba c633 5bbb 7eee e3bb 52b2 d1bb
000002d0: 98fa dfbb 9ae3 f23d 5d47 24bc a53d debb
000002e0: 65e3 d83a f816 0dbc 404a 253b 4f48 01ba
000002f0: 68bc e23d f12d d9bb 59ed de3d 2751 f83d
00000300: 59c2 39bb 5df6 e43d ff2d b0ba 436e 063c
00000310: adc8 a5bb c24d da3d 138f c9bb 22e6 f8bb
00000320: ffcf f1bb 0f95 97bb 3353 f6ba 076b 93bb
00000330: 4f82 6d3b 08ec 4ebc 2bad e9bb 93dd 443c
00000340: 51d3 8ebb a658 4bbb ac19 d4bb 4152 e2bb
00000350: c05f da3d e992 f13d 3386 55bb 9bbe 10bc
00000360: 8db0 87bb 9ad1 ea3d 95ad abba a1f5 96bb
00000370: c1f9 d93d 8863 18bb 4f68 0d3c 0bd1 e3bb
00000380: dda4 9ebb f71f 943c bfcf bdbb b86e db3d
00000390: 9efc d5ba 77d5 67bc 16a3 583a 2049 d9bb
000003a0: 4725 a4bb 935f 44bb 1782 48bb 4363 84ba
000003b0: d857 eabb bb76 9ebb aedc 05bc 2f4b 87bb
000003c0: 1960 033e b06f f0ba 87e5 e4bb bd90 bb3b
000003d0: b0eb c63a 57b6 da3d 3526 0bba 4f2d d2bb
000003e0: 0562 d1bb 1140 bfbb 8b5a 033e 5835 903c
000003f0: e9ba 1fbc 042a b0bb 6398 e93d 09d9 8d3b
0.11124189 -0.0065106424 0.026948476 0.004197236 0.10366518 0.11998581 0.0026919327 0.10731689
-0.0034308357 -0.0062499256 -0.0050484836 0.12540504 0.11323843 -0.006437065 -0.0048302496 -0.0047628186
-0.003999567 -0.00037811435 -0.0066567124 0.113297574 0.013947124 0.0022920333 -0.004031853 0.1076524
-0.011335849 0.03152294 -0.013848895 -0.0035451476 -0.006010318 0.08076378 0.12176216 -0.005276785
-0.003409752 -0.0060907407 -0.008704435 -0.0054330677 0.0022400315 -0.010940409 -0.0042992956 0.11088375
-0.0059158965 0.11008932 0.105590686 -0.007257656 -0.0040797014 0.110999025 -0.005970441 -0.0049546612
0.11028672 0.10946671 -0.003326068 -0.007859816 0.121419765 0.0022805016 -0.007931733 -0.013595867
-0.0018706301 -0.005324553 -0.0045823 -0.0048366645 -0.0050423434 -0.0045892023 -0.007371208 0.10447223
0.105522364 -0.009733365 -0.0037353192 6.933855e-05 0.104958296 -0.007722946 0.0040737563 -0.0047729583
-0.0050510312 -0.004529507 0.0008148204 0.10624992 -0.008777182 -0.0090282 0.11016272 0.112453885
-0.005481377 0.121539116 0.121813275 -0.003983367 0.0024566902 -0.006188126 -0.0044718105 -0.0016888952
-0.005306537 0.001118473 -0.0071900603 0.10983053 0.120115526 -0.0032329317 0.11434926 -0.006304495
0.118530765 0.120804444 -0.003153231 -0.0022183615 -0.0048376597 0.12249203 -0.0009505048 0.11674659
-0.0020911011 0.11774672 -0.0026792842 -0.0069133616 0.10990687 0.0019372035 -0.008879555 0.114659876
-0.005402282 0.1295861 -0.008753675 -0.0061511053 0.013808522 -0.012181569 -0.005617079 -0.0054044873
-0.005231874 0.112535305 -0.0060579134 -0.0069477605 -0.0035368346 -0.0040728673 -0.006243325 0.110977404
-0.00025338362 -0.0007706668 -0.004578856 0.0025420627 -0.007914381 -0.0049808966 -0.0062688976 -0.006556311
-0.0035799725 0.039741576 -0.0070206914 -0.006294648 -0.0053929556 -0.0059832567 -0.0053679603 0.11370142
0.09430425 -0.008624714 -0.005815841 -0.0034140546 -0.0046626898 -0.006766199 -0.0036490094 -0.0070867995
-0.0042183306 0.11305008 0.110250704 -0.005609256 0.12724276 -0.0036927783 -0.0058421134 -0.0056281406
-0.0051856195 -0.009646061 -0.0012923884 -0.006767781 -0.012121375 -0.01462297 -0.006881201 0.10993608
-0.007634751 -0.0041529145 -0.008200472 0.11750203 0.0004675518 -0.00257668 0.10747043 0.10936508
-0.001715381 -0.0033447607 -0.0069559207 -0.0063994313 -0.006835293 0.11859818 -0.01002678 -0.006782251
0.0016547261 -0.008611433 0.0025221258 -0.00049317343 0.11071092 -0.006627791 0.10885114 0.121248536
-0.00283446 0.111798026 -0.0013441442 0.008204999 -0.005059323 0.106593624 -0.006151089 -0.0075957933
-0.0073795314 -0.0046259235 -0.0018793106 -0.0044988426 0.0036241 -0.012629516 -0.007131239 0.012015718
-0.004358687 -0.003102818 -0.006472787 -0.006906778 0.10662794 0.11795599 -0.003258121 -0.008834506
-0.0041409195 0.114657596 -0.0013097996 -0.004606918 0.1064334 -0.0023252685 0.008630826 -0.00695241
-0.0048414306 0.018081648 -0.0057925875 0.10714477 -0.0016325896 -0.014150015 0.0008264048 -0.0066310316
-0.0050093266 -0.0029964193 -0.0030595118 -0.0010100383 -0.007151585 -0.004835931 -0.00817029 -0.0041288356
0.12829627 -0.0018343832 -0.0069853696 0.0057240413 0.0015176442 0.1067931 -0.00053081225 -0.0064140926
-0.0063898587 -0.0058364947 0.12827508 0.017603561 -0.009749153 -0.0053761024 0.114060186 0.004328851
