models/GODS_THIRD_FAVORITE.pt (torch, 301538 bytes, 36 tensors)

actor_logstd f4 [2]
000000 24 ae a6 3e e7 7e 3f bd
       0.32554734 -0.046751883

shared.0.weight f4 [128, 31]
000000 ce f8 ce 3c 92 a1 52 be d1 fe 2f 3e 5f 84 15 3e
       0.025265124 -0.20569447 0.17187048 0.14601277
000010 33 00 e5 3e ef 4f 50 3d 07 0a 86 3d cc 97 87 3d
       0.44726714 0.05085748 0.06544881 0.0662075
000020 a5 7d 8a 3e 52 cf 81 3d c3 2b 16 3e ae f3 4e 3e
       0.27048984 0.06338371 0.14665131 0.20210144
000030 4b b0 e7 3b 32 62 3a bb e0 60 db bd b8 00 ad 3d
       0.0070705763 -0.0028439877 -0.10711837 0.08447403
000040 c4 79 72 3c 18 38 ec bd 7d 1b 0b bd b5 3c e4 3d
       0.014799539 -0.115341365 -0.03396176 0.111443914
000050 00 f3 e7 bd 02 85 b0 bd 79 2e c6 3d 73 a8 14 bd
       -0.113256454 -0.08619119 0.09676833 -0.03629346
000060 d9 12 be 3e dd 4c 42 3e c3 98 5c bb 08 79 88 3e
       0.37123755 0.18974634 -0.003366039 0.2665484
000070 25 49 34 3e 00 e1 bc 3d f5 c1 eb 3d ef fa 11 3e
       0.17606027 0.09222603 0.11511604 0.1425588
000080 eb 68 4b be f4 f0 a1 bc 7d 0b 57 3e c4 76 0f 3e
       -0.19864242 -0.019768216 0.21000476 0.14010149
000090 d6 d3 05 3e 56 b3 d5 bd 80 bc 09 3c 6c 95 5a 3e
       0.1306909 -0.10434596 0.008406758 0.21346062
0000a0 37 4a a6 3d 74 65 63 bd fe 8e 08 3e aa af 91 bd
       0.08119624 -0.055516675 0.13335797 -0.071135834
0000b0 6c 8f d5 bd 3c 6d 0a 3e 99 41 82 3b c2 f2 80 bc
       -0.10427746 0.13518232 0.003975105 -0.015740756
0000c0 6e fb 0a bd 53 a4 bc bb 92 18 4c 3e 45 c9 1b 3e
       -0.03393119 -0.0057568937 0.19931248 0.15213497
0000d0 70 b1 f2 bd 22 9d f8 3c 37 56 ab bd 46 f0 fe 3d
       -0.1185025 0.030348364 -0.083660536 0.12448172
0000e0 35 ae 3c 3e a6 bb 22 3e c2 3b 05 bd f0 2e b9 3e
       0.1842583 0.15891895 -0.032527693 0.36168623
0000f0 cc 1c f8 bd 6f d3 95 3d a3 17 9f 3d fa b0 8e 3e
       -0.121148676 0.073157184 0.0776818 0.27869397
000100 44 10 e9 3d 8a 92 38 3d 47 19 83 3d 7e aa 3e be
       0.113800555 0.045061626 0.06401306 -0.18619725
000110 59 e1 ce bd 73 4d 98 3e 77 7c d7 3d 19 dc 18 3d
       -0.101015754 0.2974659 0.10521787 0.037319276
000120 80 a7 a0 bd 2a 3f 4a 3d f1 79 f8 bd a6 54 83 bd
       -0.07844448 0.049376644 -0.121326335 -0.0641263
000130 cb f3 55 bd 92 82 18 3e ab 73 68 3d ea 1a 96 bc
       -0.052234452 0.14893559 0.056750935 -0.01832338
000140 87 9d 68 3d 51 5e 97 bd 3c ba 40 bd 64 13 03 3e
       0.056790855 -0.07391036 -0.047052607 0.12800366
000150 94 35 4f 3e 15 73 7d 3e a2 bd 8c 3e 41 fe b0 3d
       0.20235282 0.24750932 0.27488428 0.08642245
000160 fd 10 08 3d 15 63 c9 bd df ab b7 3e 39 8e 9a 3d
       0.033219326 -0.098333515 0.35873315 0.07546658
000170 04 cd 2b bc 78 e3 15 bc cd 15 7a bc fa b1 52 3e
       -0.010485891 -0.009148471 -0.015263987 0.20575705
000180 78 cb ff 3d 42 46 c5 be 04 ae 34 3d ed 1b 1b 3d
       0.124899805 -0.38530165 0.044111267 0.03786843
000190 0f 4a 37 3e cc e8 10 3e 12 07 1e 3e b3 f0 74 bd
       0.17899345 0.14151305 0.15432385 -0.05979986
0001a0 4a 71 3b 3e 04 42 6b bd 2b 91 34 bd e9 43 2f 3e
       0.18304935 -0.057436004 -0.044083755 0.1711575
0001b0 28 65 ff bd af bb a6 3b 68 b1 46 3e 04 d2 78 3c
       -0.12470466 0.0050882916 0.19403613 0.01518679
0001c0 07 d8 07 be 1d 58 16 3c 06 3a 3f 3e 2f 58 10 be
       -0.13266002 0.009176281 0.18674478 -0.1409614
0001d0 3a 0f f5 3d c1 8f 62 3e 73 9c 0b 3e 07 5b 19 be
       0.11965795 0.2212515 0.136339 -0.1497613
0001e0 0d c2 d7 bc 60 96 b3 bd 7e 25 8c 3e 48 9c e4 3d
       -0.026337648 -0.08768916 0.27372354 0.11162621
0001f0 f5 ad f0 be 4a cb 98 bc 83 ce fd 3d d8 db c0 3e
       -0.4700772 -0.018651623 0.123929046 0.37667727
000200 bc f8 c2 be 54 d5 b1 3d d5 3f 4f be 61 77 25 3e
       -0.38080394 0.08683267 -0.20239194 0.1615882
000210 30 aa a4 bd 6f fd 25 3e c1 cd 0c 3e 8a d4 b8 3d
       -0.08040273 0.16209958 0.13750364 0.090249136
000220 87 a8 c9 bd 53 22 c5 3d 85 74 d9 3d 99 fd 41 bd
       -0.09846597 0.096256875 0.106179275 -0.04736099
000230 7e 39 b7 3d 13 ee 23 3e 9c 42 10 3d e7 41 c3 3d
       0.08946513 0.16008787 0.035219774 0.09534054
000240 5e 7b ed bd fa 33 35 3e 00 75 e8 3d 57 c5 98 3b
       -0.11595796 0.17695609 0.11350441 0.0046621966
000250 a6 9f 8a 3e 49 47 56 3e 3d b5 c7 3c ed 24 17 bd
       0.27074927 0.2092563 0.024378413 -0.03690045
000260 c5 c9 08 be 81 83 40 3d d4 3e cf bd af d9 a3 3e
       -0.13358219 0.047000412 -0.101194054 0.32002017
000270 f7 39 79 bd 98 6a 95 3e dd ab 9d 3e fb c2 3a be
       -0.060846295 0.29182887 0.30795184 -0.18238442
000280 cc d5 d1 be 35 c8 86 bd a6 8b 88 3e 00 92 b8 3d
       -0.40983427 -0.06581155 0.26669043 0.09012222
000290 cb a0 9d 3d f4 4b 43 3e 5e ea 35 bd 7a af 29 3c
       0.076966844 0.19071943 -0.044412963 0.010356778
0002a0 ac 20 33 bd 6e d2 ff 3b 5f 3c 2c 3e 97 26 e4 3d
       -0.04373233 0.0078070676 0.16819905 0.11140173
0002b0 eb 0b 19 be e8 e9 2f bd 7b 87 77 3d f8 0e 27 3d
       -0.14945953 -0.04294768 0.06043194 0.04078576
0002c0 b9 57 14 3c fc 24 60 3c f4 cc 22 3e c1 03 31 be
       0.009054118 0.013680693 0.15898496 -0.17286588
0002d0 f8 5f b5 be fd 9d 03 3e b0 7b a4 3d 42 98 59 3d
       -0.3542478 0.12853236 0.08031404 0.05312372
0002e0 1d 7e 2b be 44 17 01 be e5 6f e4 3d 28 e1 db bc
       -0.16747327 -0.12606531 0.11154155 -0.026840761
0002f0 9f b1 82 bd 72 8d 03 3f 53 56 36 3d 4e ac ed 3d
       -0.06381535 0.51387703 0.04451592 0.1160513
000300 6d 0b ff 3c 5c 71 4d 3e 13 c4 15 3c a1 7f 4d 3d
       0.031133378 0.20062774 0.009140986 0.050170545
000310 c8 64 8f 3d b9 06 e3 3d e4 26 15 3e 49 55 c7 3b
       0.070016444 0.110852666 0.14565617 0.006083165
000320 16 43 90 bd 5b d6 19 3e 43 69 bc 3c 24 4d 0a 3d
       -0.070440456 0.15023176 0.022999411 0.033764973
000330 c1 ac 1e 3e 72 38 47 bd d6 15 6b 3e 2d bc 86 bd
       0.15495588 -0.048637815 0.22957548 -0.065788604
000340 49 18 e2 bd 1c c6 fe bd 6d 13 ac 3e 42 3f 37 3e
       -0.11039788 -0.1244013 0.3360857 0.17895225
000350 f7 10 62 be 10 4b 7a 3d 17 6a 79 bc 95 6e d4 3d
       -0.22076784 0.06110674 -0.015223048 0.10372654
000360 66 87 7b 3d 24 3e 50 3e c5 3d 49 be 2e 29 d6 bc
       0.061408423 0.20336205 -0.1965247 -0.026142683
000370 cf 18 ea 3d 84 bb 4d 3d 0d 6d 89 3e e2 93 09 3d
       0.11430513 0.050227657 0.26841012 0.033588298
000380 e1 ec 34 be 7e 32 f8 3d 66 de 78 bc 01 64 f6 bd
       -0.17668487 0.121190056 -0.015189743 -0.12030793
000390 b0 6f 85 bd 6b 42 33 bc c6 61 3f 3e 2f 90 da 3d
       -0.06515443 -0.010941128 0.18689641 0.10672032
0003a0 f3 68 07 3e d0 c1 c6 bd f0 5d d6 3d f2 a5 00 3e
       0.13223629 -0.097049356 0.10467136 0.12563303
0003b0 aa c1 5e 3e 23 ca d8 3d 86 f0 4a bd 2b fc 2e 3e
       0.21753564 0.105854295 -0.049545787 0.17088382
0003c0 91 51 d4 bd 36 80 85 3e 38 b6 55 3c 2b 28 51 be
       -0.1036712 0.2607438 0.013043933 -0.20425479
0003d0 3d e9 9a 3d 73 84 4b 3e 21 ac 0a 3e 90 a8 91 3d
       0.07564018 0.19874744 0.13542224 0.07112229
0003e0 59 9f 1d be a7 c5 10 be 42 e6 12 be 8b d6 0f 3e
       -0.15392818 -0.14137898 -0.14345649 0.14046685
0003f0 1c 4b 2b be 8a 15 1d 3e 15 35 9f 3e 3b 3b 2c 3e
       -0.1672787 0.15340248 0.31095186 0.1681947

shared.0.bias f4 [128]
000000 e1 20 da 3c 89 0d 0f 3d e4 9d 55 bd 9c aa 1c bd
       0.026627006 0.034925018 -0.05215253 -0.038248643
000010 e3 5b 8d 3d d8 e4 1e bd 40 7d 34 3e 32 29 5d 3d
       0.069022916 -0.03879246 0.17625904 0.053994365
000020 f6 b5 52 3e 47 12 25 3d a7 51 a0 3d 7d 00 10 3d
       0.20577225 0.040300634 0.07828074 0.035156716
000030 26 0f 21 3e 2e 1c c6 bc ab 95 8c 3d 94 58 a1 3d
       0.15728435 -0.024183359 0.068644844 0.07878223
000040 9b 71 46 3e 11 e0 d7 3c b6 7f 5a bd 63 82 b8 3d
       0.19379275 0.02635196 -0.05334445 0.09009244
000050 22 e1 fe 3d 10 3e 26 3e 30 30 59 bc 13 d4 bb 3d
       0.124452844 0.16234612 -0.013256118 0.09171309
000060 0f 19 25 be 1f ce 12 3e 71 52 5a 3d a6 9a 17 3e
       -0.1612284 0.14336441 0.05330128 0.14805087
000070 0c cf 25 3c e9 65 a9 3d b2 f2 7a 3e c6 0d 42 3c
       0.010120165 0.08271391 0.24506643 0.011844104
000080 6d fa 27 3e 1a 1a 24 3d 59 7f 03 3e 82 05 d9 bd
       0.16404124 0.040063955 0.12841548 -0.10596754
000090 fa 71 cc bd 2f 6b d5 3d aa e1 fd bc e4 71 3a 3d
       -0.09982677 0.10420834 -0.030991394 0.04551877
0000a0 3c b2 d1 bd 0d 1a 83 bd e9 65 13 be f8 40 23 bd
       -0.10239074 -0.06401453 -0.14394344 -0.03985688
0000b0 c6 d7 87 bd 17 0d b6 3d 79 39 55 3d d9 8b bb 3c
       -0.066329524 0.088892154 0.052056763 0.022893833
0000c0 60 28 a9 bc 89 59 60 3d 45 f3 49 3e 8d 1c fc 3c
       -0.020649135 0.054772887 0.19721706 0.030775333
0000d0 c8 e6 bb bc 85 bf 38 3e 23 b5 2d 3d c9 1e dc 3d
       -0.022937194 0.18041809 0.042409074 0.10748059
0000e0 90 9c 81 bc b7 ac 0c 3e 13 2e 43 3d 02 5c fb bc
       -0.015821725 0.1373776 0.04765136 -0.030683521
0000f0 4c e1 37 3e e7 2a 27 3e 1a 9b 7e 3e f7 3d 1d bc
       0.17957038 0.1632496 0.24863854 -0.009597293
000100 96 c9 17 3e d2 23 66 3c 0b 8c 3e 3d 59 d9 82 3c
       0.14822993 0.014046626 0.046520274 0.01597278
000110 0a 0d 15 3e c6 e3 c3 3d eb a8 2e 3c 05 96 30 be
       0.14555755 0.09564929 0.01066039 -0.17244728
000120 83 ba 37 bd 66 69 dd 3d f4 9a dc bd 23 63 37 3d
       -0.044855606 0.10811119 -0.107717425 0.04477228
000130 19 da 37 3e 62 3b b8 bd 8c f9 d7 bd 67 94 52 3e
       0.17954291 -0.089957014 -0.10545644 0.20564424
000140 67 ca 30 3e b2 30 08 3e 67 42 47 3e 03 bb d7 bd
       0.1726471 0.13299826 0.19458924 -0.105337165
000150 6b 12 16 bc a9 f1 72 3c 12 56 27 3b 35 35 85 3d
       -0.009159665 0.014828124 0.002553348 0.06504289
000160 99 a6 6c 3e dc 8c 34 3e 7c 5d 5f 3e db 01 55 3d
       0.23110427 0.17631859 0.21813005 0.052003723
000170 b8 89 cd 3d 3b f2 40 3e 11 18 71 3d 0d 26 37 3e
       0.100360334 0.18842404 0.058860842 0.17885609
000180 b9 03 77 3d 88 40 ad bd 99 65 f3 bd 7b db 04 3b
       0.060306285 -0.08459574 -0.118846126 0.0020272422
000190 dc 87 fd 3a d5 e5 d0 bd 4f 66 1f be 79 93 a0 3d
       0.0019342857 -0.10200087 -0.15566371 0.07840628
0001a0 83 7a 7d 3d 46 9a 9d bc 35 8f 13 bd da bd 16 be
       0.061884414 -0.019238602 -0.036025245 -0.1472086
0001b0 5c 38 e2 3c fa cc 1f bd 6f 1e 66 3e 1e 65 84 3d
       0.027614765 -0.03901384 0.22472547 0.06464599
0001c0 0c 40 db bd 08 96 0d 3e 71 ac 9d 3d b0 bb d4 3d
       -0.10705575 0.13826764 0.07698906 0.10387361
0001d0 a2 ce ca bc 96 5a 3b 3d 3e 7d e2 3c e4 fc c3 3d
       -0.024756733 0.045740686 0.02764761 0.095697194
0001e0 c0 00 6b 3e 61 a3 29 3e 54 be 52 3d 89 95 b6 3d
       0.22949505 0.1656623 0.051451042 0.0891524
0001f0 73 f6 23 3e d3 c1 b7 bd 32 97 e7 3d ff a5 e6 3d
       0.16011982 -0.08972516 0.11308135 0.1126213

shared.1.weight f4 [128]
000000 eb ae 84 3f dc f1 78 3f f0 33 a2 3f 54 62 89 3f
       1.0365881 0.9724405 1.26721 1.0733132
000010 f4 9d a9 3f 43 2d bf 3f ad 51 77 3f cb 4e 86 3f
       1.3251328 1.4935688 0.96609 1.0492796
000020 e2 0c 81 3f 9c 72 b2 3f b2 12 68 3f df 0c a9 3f
       1.0082057 1.3941226 0.90653527 1.3207053
000030 86 9d 92 3f 95 ed 9b 3f ee f5 a2 3f d1 f2 92 3f
       1.1454322 1.2181879 1.2731302 1.1480352
000040 7d fd 92 3f d4 f8 94 3f c6 04 73 3f a1 5b 96 3f
       1.1483608 1.1638436 0.9492916 1.1746713
000050 df ff 9e 3f 0e b1 95 3f dc b3 83 3f 04 ab 94 3f
       1.2421836 1.1694658 1.0289264 1.161469
000060 f0 fc a2 3f 0e 98 96 3f 7d 68 73 3f e9 6f 6f 3f
       1.273344 1.1765153 0.9508131 0.93530136
000070 a5 0d 3b 3f 23 2b a2 3f 7c 37 9d 3f 7e fe 83 3f
       0.73067695 1.2669414 1.2282557 1.031204
000080 0b b4 a6 3f 71 50 62 3f 56 44 88 3f 66 6c 8c 3f
       1.3023695 0.88403994 1.0645854 1.097058
000090 6a 31 9f 3f 32 a8 94 3f d3 68 89 3f 63 4c 97 3f
       1.2436955 1.1613829 1.0735115 1.1820186
0000a0 f2 30 a2 3f b5 d4 73 3f 1d 0a 94 3f 54 58 8a 3f
       1.2671187 0.9524644 1.1565586 1.0808206
0000b0 6d 57 6d 3f 30 8e 5d 3f cf f2 73 3f b7 19 a8 3f
       0.92711526 0.86545086 0.9529237 1.3132848
0000c0 a5 3c 97 3f c3 6a 46 3f 72 db 8e 3f 50 c0 a9 3f
       1.1815382 0.77506655 1.1160719 1.3261814
0000d0 81 66 86 3f 0d 72 6c 3f db 87 7a 3f 0f b0 8c 3f
       1.0500032 0.9236153 0.9786355 1.0991229
0000e0 09 00 71 3f 56 87 96 3f 12 4b 85 3f 60 02 91 3f
       0.9414068 1.1760051 1.0413535 1.132885
0000f0 5f 7f 8b 3f 99 8a 8c 3f f4 c4 87 3f 63 9d 9f 3f
       1.0898246 1.0979797 1.060698 1.2469906
000100 22 a7 86 3f 96 96 92 3f 01 15 b1 3f de 04 97 3f
       1.0519755 1.1452205 1.3834535 1.179836
000110 77 83 9a 3f ad 71 aa 3f 1c 40 8c 3f 59 34 6b 3f
       1.207137 1.3315941 1.0957065 0.9187675
000120 94 4e 98 3f 5a d6 85 3f a0 1e 92 3f e1 b5 82 3f
       1.189898 1.045604 1.1415596 1.0211755
000130 62 1f c7 3f 97 45 89 3f 95 19 97 3f ee 50 9f 3f
       1.5556452 1.0724362 1.1804682 1.2446573
000140 69 35 64 3f 5b 6e 9a 3f f7 04 94 3f f9 80 8f 3f
       0.89144 1.2064928 1.1564015 1.1211234
000150 7f 4b ac 3f 90 52 99 3f 08 06 9d 3f 24 f9 b9 3f
       1.346054 1.1978321 1.2267466 1.4529157
000160 35 35 a5 3f 62 2b 7b 3f 6a 20 58 3f 8d a4 a0 3f
       1.2906862 0.9811307 0.8442446 1.2550217
000170 7b 0c 92 3f cb 0b 88 3f 91 44 91 3f c3 75 8c 3f
       1.1410059 1.0628599 1.134905 1.0973438
000180 5d fb 82 3f 55 3c 8d 3f e2 79 88 3f bf a1 8a 3f
       1.023296 1.1034037 1.0662196 1.0830611
000190 12 4c 56 3f ec f0 90 3f 7f 6b aa 3f 97 d4 9a 3f
       0.83709824 1.1323524 1.3314055 1.2096127
0001a0 f7 94 8f 3f 44 d0 82 3f fb e8 81 3f 55 1d a5 3f
       1.1217335 1.0219808 1.0149225 1.2899576
0001b0 36 a1 a2 3f 88 e2 98 3f 00 22 88 3f ae 44 80 3f
       1.2705448 1.1944132 1.0635376 1.0020959
0001c0 e5 69 7b 3f 1d fb 86 3f 95 dd 6f 3f c8 5a 85 3f
       0.9820846 1.0545384 0.9369748 1.0418329
0001d0 10 3f 98 3f 23 68 8b 3f 2d 87 7e 3f 3c 1e a5 3f
       1.1894245 1.0891155 0.9942501 1.2899852
0001e0 04 42 6b 3f 3f 40 7d 3f 99 1f 8d 3f 5d 7f 9f 3f
       0.91897607 0.98926157 1.1025268 1.2460743
0001f0 94 03 94 3f 5f 37 90 3f b2 9d 94 3f e6 d7 82 3f
       1.1563592 1.1266898 1.1610625 1.0222137

shared.1.bias f4 [128]
000000 86 ab 10 be 59 47 af be 91 97 f3 bd c3 21 38 be
       -0.14127931 -0.3423412 -0.118941434 -0.17981629
000010 8e 83 eb bd 8e 52 08 be 88 8d 7b be 38 d1 11 be
       -0.114997014 -0.13312742 -0.24565709 -0.14239967
000020 a1 ef d6 bd 19 0e 04 be 1b e4 05 be b2 df b5 bd
       -0.10494924 -0.12896003 -0.13075297 -0.08880557
000030 c5 b4 eb bd 40 0e 1d be 32 3e f4 bd 00 22 f7 bd
       -0.115090884 -0.15337467 -0.11925925 -0.12067032
000040 6d e8 39 be 2f 40 15 be 20 b2 8e bd 56 70 e8 bc
       -0.1815507 -0.14575265 -0.069675684 -0.028373878
000050 f8 dd 16 be ab 3f 1d be 9c f1 3a bd e4 c2 ba bd
       -0.14733112 -0.15356319 -0.045640573 -0.09119204
000060 73 df 54 be c3 53 13 be 52 47 4e be a9 76 09 be
       -0.20788364 -0.14387421 -0.20144394 -0.13424172
000070 9d 93 83 be 11 cd da bd a3 47 d4 3b be 9f 9f bd
       -0.25698557 -0.106836446 0.0064782663 -0.0779414
000080 b8 7d 82 bd fd 8a 3b be 69 ce 47 be 06 8d 3a be
       -0.06371635 -0.18314739 -0.19512333 -0.18217859
000090 e8 4f 21 bd b9 f1 e5 bd c3 78 4c be 6c a6 98 bd
       -0.039382845 -0.112277456 -0.19967942 -0.074536175
0000a0 5e 57 84 bd d7 4c 1b be cf f3 b6 bd da 20 2a be
       -0.064619765 -0.15166031 -0.089332215 -0.16614094
0000b0 ac dd dd bd 31 cf e5 bd 3b c0 58 be e5 46 39 be
       -0.10833296 -0.11221159 -0.2116708 -0.1809345
0000c0 b3 7c b8 bd da 0b 49 be b0 0c d5 bd 9a 1f e4 bd
       -0.090081595 -0.19633427 -0.104028106 -0.1113884
0000d0 73 4e 04 be bf 58 aa bc 1e 51 77 be 46 2d 01 be
       -0.12920551 -0.02079427 -0.24152038 -0.12614927
0000e0 86 6a 8a be 37 0d 90 bd 51 c4 2d be c8 3f 68 be
       -0.27034396 -0.070337705 -0.1696942 -0.2268058
0000f0 80 22 05 be ba ea e9 bd 5a fc 27 be fe 88 14 be
       -0.13001442 -0.11421724 -0.16404858 -0.14505383
000100 bf c5 12 be 0d 1d 0a be 46 db 70 be e3 57 1a bd
       -0.14333247 -0.13487644 -0.23521146 -0.03768147
000110 19 eb f5 bd 10 52 6e bd c4 91 bf bd c8 18 42 be
       -0.12007732 -0.05818373 -0.093539745 -0.18954766
000120 f3 8a c0 bd 8b b0 80 bd 5b f8 39 bd 21 92 18 be
       -0.094015025 -0.06283673 -0.045402866 -0.14899494
000130 d8 db 3d be cc 91 a4 bd e3 57 15 be 8e 10 94 bd
       -0.18540895 -0.08035621 -0.14584307 -0.0722972
000140 32 e3 4e be 58 80 e3 bd 3d 67 92 bd 04 56 e5 bd
       -0.20203856 -0.11108464 -0.071485974 -0.11198047
000150 da 09 27 be 26 f3 a1 bd df fc d5 bc 16 db 7e bd
       -0.16312352 -0.07907705 -0.026121555 -0.062220655
000160 79 29 d3 bd e3 7a 1b be 2a d7 1d be b0 28 3b be
       -0.10310645 -0.15183596 -0.1541411 -0.1827724
000170 63 28 18 be d7 b3 d8 bd be c4 ec bd aa f3 01 be
       -0.14859156 -0.10581177 -0.11560963 -0.12690607
000180 66 37 04 be 46 4e bb bd 48 4c 0a be 2e 25 c7 bd
       -0.12911758 -0.09145789 -0.13505661 -0.09723888
000190 d5 a7 43 be 3d 8d 4b bd 71 2b 25 be 35 35 e2 bc
       -0.19106992 -0.049695242 -0.16129853 -0.027613262
0001a0 9e 6b 48 be 14 88 3d be 6a fd 10 be 24 90 d2 bd
       -0.19572303 -0.18508941 -0.1415917 -0.10281399
0001b0 5a 01 93 bd 3d d5 7d be 01 06 f0 bd b8 40 e6 bd
       -0.07177992 -0.24788375 -0.11719895 -0.11242813
0001c0 4b f5 78 bd d9 64 90 be 3f de a7 bd 07 81 72 be
       -0.060780805 -0.2820194 -0.08196687 -0.23682033
0001d0 72 3d a6 bd ef 7f 85 bd ff 38 7e be 6f 7c e8 bd
       -0.081171885 -0.06518542 -0.2482643 -0.11351859
0001e0 24 39 29 be 98 2a 0c be bf ea 19 be 45 df 06 be
       -0.16525704 -0.13688123 -0.15030955 -0.13171108
0001f0 3a a5 4f be 45 cc 85 bd 97 b2 53 be ff 1e 05 be
       -0.20277873 -0.06533102 -0.20673595 -0.13000105

shared.3.weight f4 [128, 128]
000000 15 01 ec 3d a1 b5 8e 3e 7c 83 b2 3d 5c e5 a4 3d
       0.11523644 0.27872947 0.08716485 0.08051559
000010 61 68 11 3e 21 97 3e 3e 20 51 b6 3d 24 1c b2 3d
       0.14199974 0.18612339 0.08902192 0.08696774
000020 a0 28 b7 3d 74 90 2d 3d d8 3e 1b 3e 34 ba 4c 3e
       0.089432955 0.04237409 0.15160692 0.19992906
000030 4d 87 70 bd 76 5d 45 3d 90 69 49 3e 49 37 0a 3e
       -0.058722783 0.048184834 0.19669175 0.13497652
000040 d3 ff fc 3d 21 7c ce 3b da 3c 82 bd 6d 69 84 3d
       0.12353482 0.0063014184 -0.06359263 0.06465421
000050 4d 90 90 3d e2 89 e8 ba ba 45 f3 bc 19 e7 d7 3d
       0.07058773 -0.0017741288 -0.029696334 0.10542125
000060 29 80 2f bd 75 c7 b8 be 67 e6 e8 3b 19 b8 58 3d
       -0.042846832 -0.36089674 0.007107544 0.052909944
000070 b8 b3 6c 3c 93 4d c0 3d 32 94 43 3e 50 af a3 bd
       0.014447145 0.09389796 0.19099501 -0.079924226
000080 3d c1 60 3e f2 e6 85 3a 6b 3e f7 3d 94 b6 88 bd
       0.21948715 0.0010215922 0.12072452 -0.06675449
000090 35 e1 86 3e 2c 2b 3f 3e 57 58 04 3e a9 27 0f be
       0.26343694 0.18668813 0.12924324 -0.13979973
0000a0 83 67 ec bc 3c f0 88 3c ef 6b 91 3d 39 80 bc 3d
       -0.028857952 0.016716115 0.07100665 0.09204144
0000b0 b2 b6 47 bd e4 47 09 3d 92 b7 01 3e 32 b2 ef 3d
       -0.048758216 0.033515826 0.12667683 0.1170391
0000c0 e7 59 02 be dd 72 17 bd 3f 1f 00 3e 9b 8d be 3d
       -0.12729608 -0.036974777 0.1251192 0.09304353
0000d0 e0 d5 a3 3c 83 6b f4 3d 8b b3 52 3e 42 94 b6 3c
       0.019999444 0.11934569 0.20576303 0.022287492
0000e0 ec f7 b6 bd 10 06 42 3e cd de a6 ba 22 e8 11 be
       -0.08934006 0.18947625 -0.0012731195 -0.14248708
0000f0 ac a3 17 3c 69 5a 91 3b 1b 82 ab bd d5 0a 11 bd
       0.009255331 0.0044358266 -0.08374425 -0.03541072
000100 27 18 0a bd 2b 59 80 3e 95 1f 9f bd 63 fb ea 3d
       -0.03371444 0.2506803 -0.07769696 0.114737295
000110 ec 35 36 be 42 09 ab bd d3 92 28 be 22 e0 12 bd
       -0.17794007 -0.08351375 -0.16462259 -0.03585828
000120 6d fe 91 bc fa 39 3e 3d 32 26 93 3d 36 cc 29 3d
       -0.017821515 0.04644201 0.071850196 0.041454516
000130 9b 1c d1 3d 46 58 c9 3c 35 d9 88 3d c1 5d e1 3d
       0.10210534 0.024578225 0.06682054 0.1100421
000140 29 96 9b 3d 31 16 25 be 93 a9 f1 3d 22 80 d2 3d
       0.07597 -0.16121747 0.11799922 0.10278346
000150 2a 1b 4b 3e 8a 1f e9 ba cb 4a 2b be 4d fc 6a bd
       0.19834581 -0.0017785889 -0.1672775 -0.05736952
000160 f1 45 bd bb e7 66 f7 3d 49 9c 76 3c 5d 76 2d 3e
       -0.00577616 0.12080174 0.01505191 0.16939683
000170 ad e8 db 3d cf 47 7b 3b 1c 92 07 3d a6 7f aa bc
       0.10737739 0.0038342362 0.033098325 -0.02081282
000180 f3 fb 42 bd 7f 85 39 bd ed f1 19 be 9d 2a 4c 3e
       -0.04760356 -0.045293327 -0.15033694 0.1993813
000190 7d 90 3f 3d f1 c4 3d bd 16 f4 4b 3e f0 19 3e be
       0.046768654 -0.046330396 0.1991733 -0.18564582
0001a0 c5 61 03 bd dd 4e bf bd 1e 0c 07 3e bd df 03 3e
       -0.032075662 -0.09341214 0.13188216 0.12878318
0001b0 85 e6 3d 3d fd f3 8e bd 9c 16 2f 3e 22 86 13 bb
       0.04636242 -0.06980131 0.17098469 -0.002251037
0001c0 18 78 c0 3d 27 14 10 be 11 25 bc 3d 55 e3 6f 3e
       0.09397906 -0.14070188 0.09186757 0.23426564
0001d0 4c 40 a3 3d 8f ed 9a 3c 4d f5 74 3e 72 3b 09 be
       0.07971248 0.018912105 0.239217 -0.13401583
0001e0 7c b7 bd bd f4 11 d5 3d 74 93 09 be 67 95 32 3e
       -0.092635125 0.10403815 -0.13435155 0.17439805
0001f0 ea e6 cc bd dc 03 aa 3d c2 dd 39 3e 2b 43 2e be
       -0.10004981 0.08301517 0.18151 -0.1701781
000200 a5 a0 a8 3c 37 20 f1 3c e8 5c 8f 3d 49 f9 85 3e
       0.020584414 0.029434307 0.07000142 0.26166752
000210 ee c2 37 3e 50 99 27 bd df ce 45 bd 1e 06 67 3d
       0.17945454 -0.040917695 -0.04829299 0.05640232
000220 fc 69 99 bd 88 8f 87 3d c5 16 b5 3d 9c bf 79 bd
       -0.07490918 0.06619173 0.088422336 -0.06097375
000230 6a ad cf 3d b8 83 27 3e 6a 30 a2 bd 54 56 61 be
       0.10140498 0.1635884 -0.079193905 -0.22005588
000240 9c 51 97 bd 20 87 eb 3d 63 e3 bc 3d fe 98 c0 bd
       -0.07388613 0.115003824 0.09223058 -0.09404181
000250 d8 16 58 3d a5 2e 50 be 13 a3 10 be 46 17 12 3d
       0.05275616 -0.20330293 -0.14124708 0.035666727
000260 95 17 3e 3e 43 9f c6 3d 6a 34 2c bb a5 10 3d 3d
       0.18563683 0.096983455 -0.0026276358 0.04615845
000270 06 1c 20 bd ba 16 83 3d af 50 1f bd 14 15 15 3d
       -0.039089225 0.06400819 -0.038895305 0.036397055
000280 0b e5 80 3d 9b 38 ce bc bf 9f 19 3d db dc 98 3e
       0.062936865 -0.025173476 0.03750586 0.29856
000290 63 a2 24 3e cc ee 57 3d 11 1c a9 bc 51 25 a4 3b
       0.1607757 0.05271797 -0.020643266 0.0050093313
0002a0 c9 cc e3 bd b2 49 dc 3d 38 f1 32 bd 27 35 11 3e
       -0.11123044 0.10756244 -0.043687075 0.14180432
0002b0 ba 7b b0 3d 2f 58 b9 bd 34 19 d0 b9 70 fb 98 3c
       0.08617349 -0.09050023 -0.0003969163 0.018674582
0002c0 85 f0 0e bc 1c 8c 8d 3d 2a d0 04 3e 0e 89 8e 3d
       -0.0087243365 0.06911489 0.12970033 0.06959735
0002d0 8d 88 65 bd da 58 56 be 6c 69 55 bd 7d de 00 bc
       -0.056038428 -0.20932332 -0.05210249 -0.007865545
0002e0 af df 09 3e fd 35 89 bc 1d 64 a4 3d 57 85 40 bd
       0.13464235 -0.016749376 0.080269076 -0.047002163
0002f0 9d 34 80 3b 01 6c 67 3d a0 e5 12 3e 2c cc 03 3e
       0.003912522 0.056499485 0.14345407 0.12870854
000300 5d e4 7a 3c b8 c1 ed 3d 7d a0 b3 3d 7d cb 61 3e
       0.015313235 0.116092145 0.08770845 0.22050281
000310 5e 91 be 3d 15 5d bd bd d1 bd 19 bc d0 d6 f3 bd
       0.0930507 -0.092462696 -0.009383635 -0.119062066
000320 75 59 40 3c 2c 11 c9 3d be ae 87 3d 01 6f e5 3d
       0.011740078 0.098177284 0.06625126 0.11202813
000330 3c 51 96 bd 77 ef cf bc 9d 21 87 3d 47 20 91 3d
       -0.07339713 -0.02538274 0.06598208 0.070862345
000340 f9 00 2b 3c ad 13 74 3e 1c fc 5e bc 08 8e 8e be
       0.010437244 0.2383563 -0.013609912 -0.27842736
000350 14 0c 6c be 27 99 b3 be 29 7e 21 be 49 60 55 3e
       -0.23051482 -0.35077783 -0.15770783 0.20837511
000360 45 2b 86 3d 52 d2 3a 3e 0d f3 29 3e 80 d9 74 be
       0.06551222 0.18244293 0.16596623 -0.23911095
000370 f9 e7 9e bc 4a 05 e2 3d d3 c6 0f be 8d 77 01 3d
       -0.019397723 0.11036165 -0.14040689 0.031608153
000380 77 c8 f7 bd 49 a8 fa 3d d4 0b 82 3d 28 e0 36 bd
       -0.120987825 0.12239129 0.06349912 -0.044647366
000390 df 9c 27 3d 3a 4b 9a be ac 23 9b 3e 9e 93 a6 3d
       0.04092109 -0.30135518 0.30300653 0.081336245
0003a0 fb 33 bd bd f0 2d fa 3a 52 38 82 bd 76 79 13 bd
       -0.0923843 0.0019087177 -0.063583985 -0.036004506
0003b0 a7 e5 ba bd 05 23 2c 3e af 66 c6 3d 92 89 df bb
       -0.09125834 0.16810234 0.09687554 -0.0068218196
0003c0 1e 5c 4d 3e 37 d7 0b 3e 39 ac 0c 3e 55 84 95 bd
       0.20054671 0.13656317 0.13737573 -0.07300631
0003d0 f3 de 54 be 69 44 a8 3d 24 bd 14 bc 7c b8 cc 3d
       -0.20788173 0.08216173 -0.009078298 0.09996125
0003e0 3a db 3e 3e 1b b1 3f bd 1b f1 df bd f6 a4 ba 3d
       0.18638316 -0.04679976 -0.10934659 0.09113495
0003f0 b3 fe a1 bd 6b 77 98 3b c1 1f 89 3d 96 cd bc bc
       -0.07909908 0.0046529076 0.0669551 -0.02304725

shared.3.bias f4 [128]
000000 29 48 87 3c 4c a2 8c 3d 13 bf 4d bc ac 86 5d bd
       0.0165139 0.06866893 -0.012557763 -0.05408351
000010 f8 ae 65 3d 67 64 cf 3d be 92 f6 3c 36 17 9f 3c
       0.056075066 0.10126572 0.030099269 0.019420248
000020 e5 1a 8a 3d 4f 65 35 3d 69 46 60 3d 9c c2 4b bd
       0.06743411 0.04428607 0.05475465 -0.04974614
000030 45 cf 00 3d 38 3b bb 3d 08 37 88 bd 45 2f d2 3d
       0.031447668 0.091421545 -0.066511214 0.10262922
000040 9f f5 c2 3d 0b 9b 98 3d f9 76 b5 3d 73 d5 b9 bc
       0.09519505 0.07451447 0.08860583 -0.022684788
000050 4f cc 73 3c a7 48 b1 3d 1d af 21 3d 76 26 61 3c
       0.014880254 0.086564355 0.03947364 0.01374208
000060 85 07 42 bd 65 e4 f9 bc 52 b7 1b bd 66 32 f3 3d
       -0.047370452 -0.030504415 -0.038016625 0.11874847
000070 8b 36 28 bc da 5b 33 3d 7e f5 eb 3d 4a c2 c2 3d
       -0.01026691 0.04378877 0.11521433 0.09509714
000080 08 93 6c 3d 8e 1b ca 3c be a8 83 bd 78 73 b4 3d
       0.057757407 0.024671342 -0.064286694 0.088110864
000090 2f 3d 91 3d 38 d6 32 3d db b6 cb bc 05 5f 4a 3d
       0.07091748 0.043661326 -0.024867466 0.049407024
0000a0 03 15 0a bd 58 b4 33 3d c3 f5 05 bd 7e d9 bd bb
       -0.033711445 0.04387316 -0.03270508 -0.0057937494
0000b0 89 e4 2b 3d 3b 25 b3 3d ba 39 bf 3d eb 9a 96 bc
       0.041965995 0.087473355 0.09337182 -0.018384418
0000c0 e3 88 b8 3d 4d 84 d0 3d 51 96 e4 3d 2f 1e 1a 3d
       0.09010484 0.10181484 0.11161483 0.03762644
0000d0 c1 9a 2c 3d 85 d8 c6 3d 7b ee b2 bd dd 69 b0 3d
       0.042139772 0.097092666 -0.08736893 0.08613942
0000e0 38 9b 29 3d 90 a2 64 bd 98 2d 41 3d 32 e8 ae 3d
       0.041407794 -0.055819094 0.047162622 0.085403815
0000f0 b5 32 ab 3d 06 95 88 bb 3f 3d 63 3d 08 39 59 bc
       0.08359281 -0.0041681556 0.05547833 -0.013258226
000100 a8 86 58 bd b6 a3 9a 3d 85 86 8d 3c 7c 58 7f 3d
       -0.052862793 0.07550757 0.017276058 0.062340245
000110 84 c3 e1 3d b3 d3 20 bd 76 75 12 bc 5f 13 10 bb
       0.1102362 -0.039264392 -0.008939138 -0.0021984202
000120 6d ea 20 3d 98 35 82 3c 8b 4d 70 bd 21 c0 a2 3d
       0.039286066 0.015894696 -0.0586677 0.07946802
000130 8e 16 93 bd d5 d7 c4 3d cf 1a df 3d 26 4f a8 3c
       -0.07182036 0.09611479 0.10893785 0.020545553
000140 c9 63 28 bb 49 aa 88 3b 5e ab 58 bd 62 68 e7 bc
       -0.0025694242 0.00417069 -0.052897803 -0.028248016
000150 aa 0e 9e 3c 0c 48 b0 3d 11 2c 9a 3c f1 e1 a4 3d
       0.019294102 0.08607492 0.01881984 0.080509074
000160 46 c1 e1 3d 70 1e 13 3a 82 3a 96 3d 39 ef 5e 3b
       0.11023192 0.00056121405 0.07335378 0.00340171
000170 24 a1 35 bd 4b 86 e4 3d da c9 48 bc 70 7f b6 3d
       -0.04434313 0.11158427 -0.012255156 0.089110255
000180 24 d5 51 3b aa 13 a1 3d 6d 6f ad 3d 91 1d c9 3d
       0.003201791 0.07865079 0.084685184 0.098200925
000190 1e 0a 10 bb 8c 93 81 3d 4a f6 0c bd 88 db ca 3c
       -0.0021978687 0.063269705 -0.034414567 0.024762884
0001a0 8e 54 c2 bb cb 90 58 3d 65 61 09 3d 4f 2d 16 3d
       -0.00593049 0.05287246 0.03354015 0.036664303
0001b0 4b d8 28 ba 15 00 d7 3d d8 2a 12 3d 0d 87 93 bd
       -0.00064409216 0.104980625 0.03568539 -0.07203493
0001c0 34 38 1b bc 14 cd c3 bb 87 76 06 bc be a1 0b 3d
       -0.009473849 -0.005975375 -0.00820697 0.034089796
0001d0 96 70 d7 bc 22 fc c6 3d 24 67 93 3d 2b c9 c7 3d
       -0.026298802 0.09716059 0.07197407 0.097551666
0001e0 49 a1 d2 bc be e6 75 3d 65 2a 3b 3d 43 c3 24 3c
       -0.025711672 0.060034506 0.045694727 0.01005632
0001f0 76 91 b4 3d 88 1b 53 3d 91 7b 96 3c 68 71 25 3d
       0.08816807 0.051539928 0.018369468 0.040391356

shared.4.weight f4 [128]
000000 64 82 a2 3f 22 83 e9 3f 86 d2 82 3f 81 65 97 3f
       1.2696042 1.8243144 1.0220497 1.1827852
000010 2d b8 80 3f 2f 14 11 40 b1 47 a9 3f 5b 91 18 40
       1.0056206 2.266857 1.3225003 2.3838718
000020 d9 74 21 40 09 ad ba 3f 44 a9 bf 3f 2e cd f5 3f
       2.5227568 1.4584056 1.4973531 1.9203241
000030 ff f8 8b 3f 71 83 f3 3f 84 de 02 40 35 bf 85 3f
       1.0935363 1.9024488 2.0448313 1.0448977
000040 79 18 89 3f 02 44 9b 3f b2 21 9f 3f 5d 09 ac 3f
       1.0710593 1.2130129 1.2432158 1.3440357
000050 28 36 ab 3f 93 31 07 40 02 a0 bc 3f 45 2f 91 3f
       1.3375902 2.1124008 1.473633 1.134255
000060 6d 08 a3 3f 55 cd 99 3f 2b 03 8f 3f c4 fb 02 40
       1.2736946 1.2015787 1.1172842 2.0466166
000070 40 ff a4 3f a2 bc 8f 3f 1a ae 98 3f 47 12 82 3f
       1.2890396 1.1229441 1.1928132 1.0161828
000080 f9 8d 6d 3f 0a 2b 85 3f e1 6e b4 3f 9c a5 9f 3f
       0.9279476 1.040376 1.4096338 1.2472415
000090 ef 0e 18 40 00 d7 14 40 31 d4 85 3f e0 44 d9 3f
       2.3759115 2.3256226 1.0455381 1.6974144
0000a0 df 6d a7 3f 43 af 9f 3f 14 75 86 3f eb 9b 9f 3f
       1.3080405 1.2475361 1.050448 1.2469457
0000b0 d2 d4 12 40 27 45 bb 3f 4f 14 73 3f 23 51 a3 3f
       2.2942395 1.4630479 0.94952863 1.2759136
0000c0 6e 3b cc 3f 42 f4 85 3f 74 ee d1 3f 86 05 8f 3f
       1.5955637 1.0465167 1.6400895 1.1173561
0000d0 05 0a 9d 3f a2 62 af 3f 77 97 00 40 82 0c a7 3f
       1.2268683 1.3701975 2.0092447 1.3050692
0000e0 0e fe c9 3f 8c 57 98 3f 0a ea 84 3f e5 d4 01 40
       1.5780656 1.1901717 1.0383923 2.028619
0000f0 e8 8d 94 3f 0d eb ab 3f ea d2 a6 3f 82 3e bb 3f
       1.1605806 1.3431107 1.3033116 1.4628451
000100 c9 3a d7 3f 65 28 07 40 c1 b2 01 40 0e 7b 8f 3f
       1.6814815 2.1118405 2.0265353 1.1209428
000110 1e 8d be 3f a4 7b 02 40 74 84 89 3f 7a ca 93 3f
       1.4886816 2.0387964 1.0743546 1.1546166
000120 cb 23 a0 3f 6c 0f da 3f 5e e1 9b 3f 01 52 a2 3f
       1.2510923 1.7035956 1.2178152 1.2681276
000130 ad 9a d0 3f 7e f1 8b 3f 5f ab 64 3f 27 6d 0b 40
       1.6297203 1.0933073 0.8932399 2.1785371
000140 94 04 8c 3f d5 5e ed 3f a5 b1 93 3f 1c d3 89 3f
       1.0938897 1.8544565 1.1538588 1.076755
000150 b8 01 c0 3f 98 e8 0d 40 8b 1b 76 3f 09 18 86 3f
       1.5000525 2.2173214 0.9613578 1.0476085
000160 d7 a5 e9 3f 61 c9 25 40 f4 36 70 3f 43 47 e9 3f
       1.8253735 2.5904162 0.9383385 1.8224872
000170 6b e5 04 40 0b 91 83 3f bb b7 8a 3f 00 8a 0d 40
       2.0765026 1.0278639 1.083732 2.2115479
000180 6f 92 a4 3f c6 bd 87 3f e1 4f bc 3f f5 79 c3 3f
       1.2857188 1.0604789 1.4711877 1.5271593
000190 6a 68 db 3f 9d 0f ae 3f 6a 44 b3 3f 91 48 a5 3f
       1.714124 1.3598515 1.4005253 1.291277
0001a0 d2 af 8a 3f b5 fd d6 3f 78 84 a3 3f e7 b7 60 3f
       1.0834906 1.6796175 1.2774801 0.8778061
0001b0 b0 c1 7c 3f 08 7a 82 3f e7 cc 21 40 e9 e8 fd 3f
       0.98733044 1.0193491 2.5281312 1.9836704
0001c0 6f ef d5 3f 11 c2 88 3f 17 9e bf 3f 77 bc a9 3f
       1.6713694 1.0684224 1.497012 1.326064
0001d0 81 79 8d 3f a5 e4 9c 3f ff dd e5 3f 8e ca 08 40
       1.1052705 1.2257277 1.7958373 2.137363
0001e0 08 87 2d 40 46 3c d3 3f 06 b8 03 40 af 87 a4 3f
       2.7113667 1.6502769 2.058107 1.2853907
0001f0 df f9 a6 3f 4b d7 a0 3f c9 b7 8d 3f b1 b6 fb 3f
       1.3045005 1.2565702 1.1071712 1.9665128

shared.4.bias f4 [128]
000000 3a 7f 5a bd 3b d4 e7 3e ac 96 64 be ba 7c 25 bd
       -0.05334399 0.45279106 -0.22323102 -0.04040215
000010 a8 9e bf bd ca 08 03 3f b8 4c d7 bd 80 01 02 3f
       -0.09356433 0.51185286 -0.1051268 0.5078354
000020 ce 63 0c 3f 71 64 98 bd 28 fd 8f bd 44 43 24 3f
       0.5483979 -0.07441033 -0.070307076 0.6416514
000030 01 dc 31 be 97 b7 c7 3e b7 2c dd 3e 03 37 33 bd
       -0.17369081 0.39007255 0.43198177 -0.043753635
000040 ec f0 dd 3d e9 a7 ec bd 9e c0 a7 bd 36 8c c4 bd
       0.10836968 -0.11555464 -0.08191036 -0.095970556
000050 d5 a9 82 bd f2 63 10 3f 08 43 a9 bd c0 b2 92 bd
       -0.06380049 0.56402504 -0.08264738 -0.07163
000060 d9 d9 09 be 43 dc 88 3e 8a fc d1 bd c8 85 0d 3f
       -0.13462009 0.26730546 -0.10253246 0.5528226
000070 d5 7c 00 be 99 51 0f be 25 28 9e 3e dc 11 07 be
       -0.1254762 -0.13995971 0.30890003 -0.13190407
000080 f3 d2 58 bd db 55 8d bd 37 ab 97 bd 9c 32 d0 bd
       -0.05293555 -0.06901141 -0.074057035 -0.10165903
000090 17 7c f1 3e 04 73 19 3f 28 2a ad bd d1 22 10 3f
       0.47164986 0.59941125 -0.08455306 0.56303126
0000a0 0d df 18 bd 43 e1 10 be a1 bf 1a bd 76 b3 2e bd
       -0.037322093 -0.1414843 -0.037780408 -0.042651616
0000b0 65 cf e7 3e 96 34 80 be 63 89 e0 bd b6 af 43 3e
       0.45275417 -0.2504012 -0.109637044 0.19109997
0000c0 63 a1 e9 3e 4f 56 70 be 2f 31 f6 bd 2a 23 d7 bc
       0.4563094 -0.23470424 -0.120211 -0.026261885
0000d0 45 51 29 3e fd bf 06 be bd 52 11 3f 9a 5b 2d bd
       0.16534908 -0.13159175 0.56766874 -0.042323686
0000e0 8d 48 b6 3e 09 20 22 bd 3b 1b 06 bd 0c 67 ed 3e
       0.35602227 -0.039581332 -0.032740813 0.4636768
0000f0 36 cc 6e 3d 66 a0 85 be fb 9e 62 bd 77 26 6d bd
       0.05830022 -0.26098937 -0.055327397 -0.05789801
000100 87 2d d7 bd 4d 44 ea 3e af a1 11 3f c1 74 54 bd
       -0.105067305 0.45755234 0.56887335 -0.051869158
000110 0b 05 4a bd 9f b1 f6 3e 39 89 c0 bd ba bd 05 3e
       -0.049321216 0.4818239 -0.09401173 0.13060656
000120 28 05 bb bd 7f 76 17 3f 7c bc 5b bd 51 99 ed bd
       -0.09131843 0.59165186 -0.05364655 -0.116015084
000130 11 ee e5 3e 02 d0 3a 3e 38 75 14 be 14 26 00 3f
       0.44908193 0.18243411 -0.1449784 0.500581
000140 c3 17 93 3c 99 25 0a 3f cd f0 56 bd e9 2f a4 3c
       0.017955666 0.5396362 -0.05247574 0.020042377
000150 5f 1c a7 3e f0 b9 d1 3e 19 29 d1 bd 4b 8e 7e 3d
       0.32638833 0.40962172 -0.10212917 0.06214742
000160 b2 5e 24 3f 7d 49 f4 3e c9 d9 57 3c d0 34 04 3f
       0.64206994 0.47712317 0.013174483 0.51643085
000170 37 dc 00 3f 65 23 f2 bd 43 56 59 3c a1 f8 14 3f
       0.5033602 -0.11823157 0.013265195 0.5819188
000180 71 10 ad bd e8 76 66 3d f8 d5 c8 bd 02 50 e6 bd
       -0.084504016 0.05626574 -0.09806436 -0.11245729
000190 50 06 39 be e6 a4 b0 be b7 d1 0f be 8d 6e 48 3e
       -0.18068814 -0.34500808 -0.14044844 0.19573422
0001a0 64 e4 4d bd 43 e8 db 3e e4 0e 26 be a4 f2 19 bd
       -0.05026664 0.4295064 -0.16216618 -0.037584916
0001b0 2d 06 d4 bd ad 02 af 3b ad 38 2f 3f 3e e1 13 3f
       -0.103527404 0.005340895 0.68445855 0.5776557
0001c0 8a ff 0f 3f 86 0b 6b 3d 1d 12 88 be 7c a3 66 be
       0.56249297 0.057384036 -0.2657632 -0.22523302
0001d0 84 bf f1 bc 39 f3 c1 3c 9e 97 02 3e 94 98 15 3f
       -0.029510267 0.023675548 0.1275315 0.5843594
0001e0 a8 49 10 3f 6a 09 d0 bd 04 21 2f 3f 3d 22 9d bd
       0.5636239 -0.101580456 0.6840975 -0.07672546
0001f0 72 1e 2d be 1d 02 5c be 15 5e e5 bd bc 67 b9 3e
       -0.16906145 -0.21485181 -0.11199585 0.36211956

actor_mean.weight f4 [2, 128]
000000 15 a8 42 3e 3a 92 e3 bb 05 ac 52 3c eb db 72 3b
       0.1900943 -0.006944922 0.012858395 0.003705735
000010 a8 b6 5d 3d bf 8f 9f ba 5f b7 3a 3d 9d ca 4c 3d
       0.054129273 -0.0012173577 0.045585033 0.049997915
000020 66 15 85 3d 63 58 5f 3d d1 6a 6d bd 89 0b 96 3d
       0.06498222 0.05452765 -0.057963196 0.07326419
000030 74 90 18 3d ac c7 30 bd e7 56 3a ba f9 78 97 3d
       0.037247136 -0.043159172 -0.00071082864 0.073961206
000040 6b 17 0e 3d d4 b8 71 3d 2b 18 89 bb 5d ff 7d bb
       0.034690302 0.059014156 -0.0041837892 -0.0038756945
000050 80 3d b3 3d ad 5f 93 ba ff 50 1d 3d 6e 7f b5 3b
       0.087519646 -0.0011243724 0.038407322 0.0055388724
000060 25 71 81 3d 85 9a b3 bc a2 4b 97 3d 51 af 8b 3b
       0.06320409 -0.021924267 0.07387473 0.0042628427
000070 fd c8 dc 3d a1 d8 be 3d be 55 a4 bb 96 b0 db bc
       0.10780523 0.093186624 -0.005015104 -0.026817601
000080 ed bb 2a 3c d2 06 87 3d a9 b4 92 bc e4 a3 fb 39
       0.010420782 0.06593098 -0.017908411 0.0004799656
000090 3f 1b 47 bd dc 25 b8 3c 26 53 f6 3d 24 f4 02 3d
       -0.04860997 0.02247899 0.12027578 0.031971112
0000a0 a5 69 cf 3c be 96 22 3d 8e bd 50 3d a4 29 97 3d
       0.02531893 0.03969454 0.050962023 0.07380989
0000b0 0c 06 85 3d 27 42 6c 3d a8 03 7a 3d 2b 3f 07 3c
       0.06495294 0.057680275 0.061038643 0.0082548065
0000c0 2e 25 5a 3c b5 79 ed bc ef 01 2b 3d bc 50 51 3c
       0.013314528 -0.028988698 0.04174989 0.012775596
0000d0 8c 18 db 3c 0b bd d0 bd 2c 60 02 3d 40 2c 41 bc
       0.026745103 -0.10192307 0.031829998 -0.011790335
0000e0 4e f6 bc 3c 38 c2 ec 3c 05 e5 e5 3d 66 46 a0 3c
       0.023066666 0.028901204 0.11225323 0.019564819
0000f0 e7 4b d4 3c b1 cf 97 3c 48 7a 0f 3d de 01 e9 3d
       0.0259151 0.018531652 0.035028726 0.11377309
000100 7d 7e 86 3d 71 3d ae 3c ee 52 ad 3b b5 4b 83 bd
       0.065670945 0.021269532 0.005289427 -0.06410924
000110 13 6d 29 3c b4 41 09 3c 55 c6 06 3b c2 3b 2e 3d
       0.010340947 0.008377481 0.0020564992 0.04253746
000120 1b ad ac 3d 75 4f e8 3c 5c 37 4c 3d b0 2c 0e bd
       0.08431455 0.0283582 0.049857482 -0.034710586
000130 83 8f 06 3c 3f a7 95 bd 4a 5f 12 3d bf 3d 71 bc
       0.008212927 -0.0730729 0.035735406 -0.014724194
000140 a3 ed c3 3c 45 a2 2d 3d b7 f9 04 3e 17 6f f1 3d
       0.023917025 0.04239108 0.12985884 0.11788767
000150 df f5 2b 3d 80 ed 31 3d e9 8d a6 bc 36 95 f2 3d
       0.041982528 0.04343939 -0.02033134 0.11844866
000160 7b 02 8e 3d af 30 eb 3c e6 04 3b 3d fa e6 56 bc
       0.06934067 0.028709738 0.04565897 -0.013116593
000170 7c 52 57 3d 61 c8 08 bc 32 37 42 3b b1 60 dd 3c
       0.052568898 -0.008348555 0.002963495 0.027023645
000180 71 31 20 3d 2b a2 e8 3c c5 a7 78 3d fb 91 b2 3d
       0.03910965 0.02839764 0.060706872 0.0871925
000190 b1 a2 19 3d 3f cf be bc 6e 0b 9d 3c f7 89 c4 3d
       0.03750867 -0.023292182 0.01917049 0.09596627
0001a0 85 2d b9 bd 5b f8 9e 3b e2 69 2d 3c c7 b5 e4 3c
       -0.09041885 0.0048513836 0.010584326 0.02791871
0001b0 ad ad ae 3d ef 0d 1f 3d 68 65 9a bc 80 ee 7d 3c
       0.0852922 0.038831647 -0.018847182 0.015498757
0001c0 45 00 8f bd fc 7f bf 3d 40 fe 1f bd 55 af ba bd
       -0.06982473 0.09350583 -0.03906083 -0.09115473
0001d0 c5 1b 4c 3d 93 a6 72 3d 50 19 46 3c be 33 9c 3d
       0.04983117 0.05924089 0.012090996 0.076270565
0001e0 fa b8 24 bd d3 43 e4 3c 44 35 8f 3c 8b 58 8b 3d
       -0.04021547 0.027864372 0.017481454 0.068039976
0001f0 24 17 a9 3c 44 54 df 3d a2 bb 9f 3b f0 61 03 bd
       0.020640917 0.10904744 0.0048746625 -0.032075822
000200 1a 9a 3f bd c5 98 95 3d c3 4f 74 3d 42 ed 36 3e
       -0.046777822 0.07304529 0.05964638 0.17863944
000210 e2 9b b9 ba 9e df 5f 3d c5 e5 31 3d cc 4b 81 bc
       -0.0014160837 0.054656617 0.043432016 -0.015783213
000220 46 26 f1 3b 46 1c 68 39 30 95 d9 ba 4a c5 16 b9
       0.007359299 0.00022135777 -0.0016600247 -0.0001437861
000230 e0 c2 0b 3e 58 9a 48 bd a5 e9 31 bd 4e 3b 6c bd
       0.13648558 -0.04897532 -0.04343571 -0.057673745
000240 ba 6b fc bd f0 89 23 be fb 96 dd bc 4a 89 a2 bd
       -0.12325235 -0.15970588 -0.027049532 -0.07936342
000250 93 9d 54 bd 5d f0 66 bc df bf c2 3d 73 5c e7 3d
       -0.051908087 -0.014095393 0.09509253 0.1129693
000260 d4 e2 6d 3d fb 15 c6 bd 94 e0 56 3d 9b f2 c4 bc
       0.05807765 -0.09672161 0.05246027 -0.024041465
000270 82 56 b6 3d d0 e2 d9 3d 65 50 b6 3c aa e8 68 3d
       0.08903219 0.10638964 0.022255132 0.05686251
000280 d5 6e bc bd de 72 b1 3c 09 32 3d 3d 97 bf aa 3c
       -0.09200827 0.021661218 0.046190295 0.02084331
000290 4a 63 43 3d 44 ca f4 3b d3 10 2c 3d 2b 0a 89 3d
       0.04770211 0.007470401 0.042008232 0.066913925
0002a0 2e bd 74 bd 52 28 46 bd 0d 54 56 bd 63 f3 85 bd
       -0.05975073 -0.048378296 -0.05232625 -0.06540563
0002b0 f2 24 92 3d 79 41 9c bd cb a8 42 bd 4c 70 0d bd
       0.07135953 -0.076296754 -0.047524255 -0.034530923
0002c0 57 57 cd bd e8 2e 6e be d1 56 39 3c b1 88 97 bd
       -0.100264244 -0.23260081 0.011312203 -0.07399119
0002d0 d0 d7 e3 3d 18 a4 67 be d8 d1 0a be eb 86 53 3c
       0.11125147 -0.2262119 -0.13556612 0.012910585
0002e0 c0 bb 80 3c a7 e5 f4 bd 2a 4b a9 bd 16 dd b2 bd
       0.015714526 -0.11957865 -0.082662895 -0.08733575
0002f0 aa 76 98 3e 2c 7a 8b 3a c0 26 0b bc 7c 24 ee bd
       0.29778033 0.0010641268 -0.008493125 -0.116280526
000300 4c f6 fa 3d 22 52 5c 3d 3e 07 32 be c1 1f dd bc
       0.12254009 0.053789265 -0.17385575 -0.02699268
000310 e3 50 6d bd 99 75 84 3c 71 e3 b1 bd ab 3a 11 be
       -0.057938468 0.016169356 -0.08685959 -0.14182536
000320 35 7c ea 3d 15 8e cc bc 1d 40 6a 3d 64 cf 13 3c
       0.11449472 -0.024970094 0.05719005 0.009021614
000330 07 7f 23 3e b0 39 43 3e a6 83 c5 3d dd 73 f2 3d
       0.15966426 0.19064975 0.096442506 0.118385054
000340 56 3e f8 bd cc 29 ae 3d 49 e3 c2 3d ae 9e a3 bd
       -0.12121265 0.08504066 0.095160075 -0.0798925
000350 b4 d8 04 3e 1a 0f 8a bc 83 fa 61 bb 33 c1 a4 bd
       0.1297329 -0.016852904 -0.0034481592 -0.08044662
000360 46 46 47 bd 69 cf 55 3d 59 cf 87 bc d4 7d 96 3d
       -0.048651002 0.052199755 -0.016578363 0.073482186
000370 ac 7d 30 3d 54 ba ec bb 6e 82 2a 3e 47 23 ae bd
       0.0430886 -0.0072243605 0.16651317 -0.08502822
000380 71 2e 58 bb cf de fd 3d 01 86 0f be 4e 5c bc bc
       -0.0032986666 0.12396013 -0.14015962 -0.022993233
000390 8d 57 61 be e6 c3 ba bc 84 ee 96 3d 24 64 33 3c
       -0.22006054 -0.02279849 0.07369712 0.010949168
0003a0 9e 8f f8 bc 80 de 8f 3a bb 76 9e bc b2 a0 c0 3c
       -0.03034192 0.0010976344 -0.019343724 0.023514125
0003b0 4e c5 a9 bd 61 46 f9 3d fc e2 13 3c 56 2e 95 3c
       -0.08289586 0.12171627 0.009026285 0.018210571
0003c0 32 a8 4a 3e c6 37 ea 3d 06 1d bf 3c 3d 14 74 bd
       0.19790724 0.11436419 0.02332927 -0.059589613
0003d0 a1 db 14 3e ff 92 19 3d 11 83 92 bd a8 43 34 3b
       0.14536907 0.037493702 -0.07153905 0.0027506147
0003e0 bf ee f7 bc c1 3d b7 bc 80 b4 d4 bb 2c 08 cf bd
       -0.03026521 -0.022368314 -0.006491244 -0.101089805
0003f0 00 43 03 be d2 16 b4 3d 81 ac 0d 3d 25 0a e5 bd
       -0.12818527 0.08793415 0.03458834 -0.111835755

actor_mean.bias f4 [2]
000000 b2 e7 9e 3d d5 ba d5 3d
       0.07759036 0.10436026

critic.weight f4 [1, 128]
000000 75 5b 95 be b5 ed 54 3f e0 11 1e 3e 94 4f 80 be
       -0.2917134 0.8317521 0.15436506 -0.25060713
000010 3c 01 ee bd 65 23 9c 3f b8 c4 eb be f0 d7 b2 3f
       -0.11621329 1.2198302 -0.46048522 1.3972149
000020 24 e6 ba 3f 1d 61 06 bf 1a 16 1b bf 39 22 58 3f
       1.4601483 -0.52491933 -0.605806 0.8442722
000030 23 cd 83 be 81 51 5f 3f 10 9d 89 3f 27 f3 cb 3d
       -0.25742444 0.8723374 1.0751057 0.09958487
000040 66 86 24 3e ed 34 6d be 16 10 c5 be 7d d6 db be
       0.16066894 -0.23164721 -0.38488835 -0.4293708
000050 b6 03 e7 be 6a 22 87 3f dd 13 09 bf 34 d0 8e be
       -0.4512002 1.0557377 -0.53545934 -0.2789322
000060 55 02 dd be a3 49 a5 3e 81 97 47 be 8d 21 87 3f
       -0.43165842 0.32282743 -0.19491388 1.0557114
000070 2b a1 cb be 13 dd 3b be 4f ac a2 3e 2e f7 f9 bd
       -0.397714 -0.18346052 0.31772086 -0.12205349
000080 5d 66 1b bd d5 e2 04 be 76 bf 0a bf fe fc c0 be
       -0.037939418 -0.12977155 -0.54198396 -0.37693018
000090 56 ff b3 3f 9d 75 a6 3f 27 63 05 be f4 3f 2f 3f
       1.4062297 1.3004643 -0.13026105 0.6845696
0000a0 2c 04 e5 be 2c b6 e1 be b9 a0 0a 3e 28 dd c0 3e
       -0.44729745 -0.440843 0.13537873 0.3766873
0000b0 44 6c 96 3f 96 0e 27 bf c5 0a 07 3e 89 c2 a7 3e
       1.175179 -0.6525663 0.13187702 0.32765606
0000c0 43 df 1d 3f 6d a3 3c be f7 14 4d bf bf 17 41 be
       0.61668795 -0.18421717 -0.80110115 -0.18856715
0000d0 fc 49 9d 3e 72 b9 e1 be 11 41 81 3f 97 a0 d1 be
       0.30720508 -0.44086796 1.0097982 -0.40942833
0000e0 d0 ac 2c 3f 1b 93 9e be ae fc ee 3d 96 b8 85 3f
       0.6745119 -0.30971608 0.116692886 1.0446956
0000f0 01 f5 1c bd ee 75 0e bf 27 6a 00 bf c4 32 15 bf
       -0.03831959 -0.55648696 -0.50161976 -0.5828059
000100 c0 f4 52 bf a8 40 9d 3f 6a 10 89 3f 47 dd 66 be
       -0.8240471 1.2285357 1.0708134 -0.22545348
000110 74 b7 1c bf 11 a5 89 3f a7 44 4f be 8f 02 28 3e
       -0.6121743 1.0753499 -0.20241033 0.16407226
000120 54 23 cb be be 90 48 3f a0 bb 85 be 9e fb c9 be
       -0.3967539 0.7834586 -0.2611971 -0.3944978
000130 6c f1 3b 3f 3b 18 28 3e e9 91 c4 3c 2a fc 93 3f
       0.73415256 0.16415493 0.023995357 1.1561329
000140 06 44 16 3e de 71 6f 3f 0d 54 6c be 97 df 06 3e
       0.14674386 0.9353312 -0.23078938 0.1317123
000150 f0 54 16 3f 50 e6 a5 3f 5b b5 86 bd 65 5b 79 3d
       0.58723354 1.2960911 -0.065775596 0.060878176
000160 bc 15 4f 3f 0a 34 cd 3f 93 b0 4d 3d ea dc 4d 3f
       0.8089254 1.6031506 0.050217222 0.80415213
000170 15 cc 87 3f f6 f6 e9 bd 96 8d 0e be 61 37 9c 3f
       1.0609156 -0.11424057 -0.13921198 1.22044
000180 91 47 cb be d1 db 32 3e 20 12 1b bf 1e d4 33 bf
       -0.39703038 0.17466666 -0.6057453 -0.7024554
000190 3a 23 5e bf 55 87 18 bf 59 10 fb be 83 5a d0 3e
       -0.867725 -0.595815 -0.4903591 0.40694055
0001a0 15 4f 65 be 45 c8 35 3f bf d9 e2 be c6 26 10 bc
       -0.22393449 0.7100871 -0.44306752 -0.008798307
0001b0 b9 46 78 3d 1a 46 cf bd f0 80 be 3f 4a ec 82 3f
       0.06061432 -0.10120793 1.4883099 1.022836
0001c0 a7 45 3c 3f 5e c1 ed bd 9b d3 32 bf f7 78 07 bf
       0.7354378 -0.116091475 -0.69854134 -0.5291895
0001d0 35 7d 2a be 15 e8 8c be f6 d9 4d 3f 4f 39 9a 3f
       -0.16649325 -0.27520815 0.80410707 1.2048739
0001e0 ca 6e d4 3f 32 ef 41 bf ad dd 86 3f 4c 71 c2 be
       1.659631 -0.7575561 1.05364 -0.37977064
0001f0 f7 8f ef be ad 66 c7 be 53 be 4e be 50 98 8c 3f
       -0.46789524 -0.38945523 -0.2018979 1.0983982

exp_avg f4 [2]
000000 f8 c7 0f ba 00 1e c6 b6
       -0.0005484815 -5.9043523e-06

exp_avg_sq f4 [2]
000000 9b 58 0a 35 ca 03 0d 35
       5.1537944e-07 5.2532107e-07
