models/PPO_race_brain_damaged.pt (torch, 295394 bytes, 36 tensors)

actor_logstd f4 [2]
0	0x3f636e6b	0.8884036
1	0x3f198f53	0.5998432

shared.0.weight f4 [128, 18]
0	0xbef3b5ee	-0.4759974
1	0xbd837927	-0.06419592
2	0xbd16a5fd	-0.036779393
3	0xbdb3e0a0	-0.08783078
4	0x3b71a873	0.0036874085
5	0x3ebef563	0.3729659
6	0xbcff7461	-0.031183423
7	0x3e5591f0	0.20856452
8	0x3d148a31	0.036264602
9	0xbe88b203	-0.26698312
10	0x3d6d6e30	0.05796641
11	0xbc5c71e1	-0.013454885
12	0xbd315034	-0.04328938
13	0x3e7731d0	0.24140096
14	0xbe0f0a76	-0.13968834
15	0xbca62564	-0.020281501
16	0x3e9a7322	0.30165964
17	0xbd862bfe	-0.065513596
18	0xbe33e249	-0.1756679
19	0xbe93193b	-0.28730187
20	0x3d922b82	0.07137205
21	0x3e718a0b	0.23587815
22	0x3e7ea47c	0.24867433
23	0x3d4eea09	0.050516162
24	0x3aa4591a	0.0012538761
25	0xbd837dd1	-0.06420482
26	0xbe2171cb	-0.15766065
27	0x3e3ae7d3	0.18252496
28	0xbe29adb8	-0.16570175
29	0x3e2e855c	0.1704306
30	0x3d2d566a	0.04231874
31	0xbd583d41	-0.05279279
32	0xbcb58388	-0.022157446
33	0xbdc1ab5a	-0.09456511
34	0x3dad6465	0.08466414
35	0x3e12d001	0.1433716
36	0x3e151e2d	0.14562292
37	0xbe2609d8	-0.16214693
38	0xbdef0ef3	-0.11672773
39	0xbc610623	-0.013734373
40	0x3c0ebb2a	0.008711616
41	0x3d9fb85b	0.07798835
42	0xbdb947f3	-0.09046926
43	0x3e628dfe	0.22124478
44	0x3ec5a2b9	0.3860071
45	0x3e360ef6	0.17779145
46	0xbd61cfa1	-0.05512965
47	0x3ea6a1c7	0.325453
48	0xbc2d0298	-0.0105597
49	0x3d7b13eb	0.061298292
50	0x3d252625	0.04031958
51	0x3e1f1786	0.15536317
52	0x3eb9db24	0.36300004
53	0x3cb6baa9	0.022305803
54	0xbd2b14cd	-0.041767884
55	0xbeb2c34b	-0.34914622
56	0xbe576ae9	-0.21036877
57	0x3e5e56cc	0.21712798
58	0x3e744b58	0.23856866
59	0x3ec26682	0.37968832
60	0x3db101e8	0.08642942
61	0x3eb35c20	0.35031223
62	0xbe28348c	-0.16426295
63	0xbce9b94e	-0.028530743
64	0xbd66210e	-0.056183867
65	0x3d9b484d	0.0758215
66	0x3ea5bb30	0.32369375
67	0xbdb0b301	-0.08627892
68	0xbdc04157	-0.093874626
69	0x3ebf9f8b	0.3742641
70	0x3dbfe7e8	0.093704045
71	0xbdaf1381	-0.08548642
72	0xbf018c66	-0.50604856
73	0xbd407804	-0.046989456
74	0x3d72988c	0.05922751
75	0xbcee1747	-0.029063834
76	0x3e96ff8a	0.29491836
77	0xbdfbf306	-0.123022124
78	0x3e768b1d	0.24076505
79	0x3eafde05	0.34349075
80	0x3ca32f7c	0.019920103
81	0x3daa185a	0.08305426
82	0xbe1a228a	-0.15052238
83	0x3de0aa24	0.10969952
84	0x3dd2afd8	0.10287446
85	0x3e835641	0.25651744
86	0xbe22a097	-0.15881573
87	0x3e170b62	0.14750436
88	0x3eacbf67	0.33739778
89	0x3e585371	0.2112558
90	0xbdfc2ac6	-0.12312846
91	0xbe074eec	-0.132137
92	0x3e862511	0.26200154
93	0x3eb18239	0.34669665
94	0xbca7b330	-0.020471185
95	0x3e342223	0.17591147
96	0xbdb600bf	-0.08886861
97	0x3d78c126	0.060731076
98	0x3cb38654	0.021914639
99	0x3e9af666	0.30266112
100	0x3da6976e	0.08134352
101	0x3dbef225	0.09323529
102	0x3e238fad	0.15972777
103	0xbe14e918	-0.14542043
104	0xbd2bda95	-0.041956503
105	0x3e5e6873	0.21719532
106	0x3e6c3233	0.23066024
107	0xbd266d04	-0.04063131
108	0xbc122934	-0.008920956
109	0xbe4d468f	-0.20046447
110	0xbd3c9ca7	-0.046047833
111	0x3dc0a159	0.094057746
112	0x3e5f66f4	0.21816617
113	0x3d3a568b	0.04549269
114	0x3e334102	0.17505267
115	0xbdadabef	-0.08480059
116	0x3e22a04b	0.1588146
117	0xbe9c6eea	-0.3055337
118	0xbe692950	-0.22769666
119	0x3c84f28e	0.01622894
120	0x3e22ae72	0.15886858
121	0xbda61974	-0.081103235
122	0x3e826c25	0.25473133
123	0x3e3c7b04	0.18406302
124	0x3dbba604	0.09162524
125	0xbe234122	-0.15942815
126	0x3d81a2f8	0.06329912
127	0xbde26d5b	-0.11056014
128	0x3da02467	0.07819443
129	0x3cf93495	0.03042058
130	0x3d79fbed	0.06103127
131	0x3e7741d6	0.24146208
132	0x3e97f144	0.2967626
133	0x3ecce920	0.4002161
134	0x3df455f9	0.119304605
135	0x3eca26b1	0.39482644
136	0x3ed36151	0.41285184
137	0x3dd713a8	0.10501796
138	0x3e5bacde	0.21452662
139	0xbd00a315	-0.031405527
140	0x3dd0aed4	0.10189596
141	0x3e886f17	0.26647255
142	0x3e9c1367	0.30483553
143	0x3e531caa	0.20616403
144	0x3ef0db46	0.47042292
145	0xbe814ad1	-0.25252393
146	0xbd0fea5e	-0.03513562
147	0x3e4120eb	0.18860213
148	0xbd216726	-0.03940501
149	0x3c94ea49	0.018178122
150	0x3e820c2f	0.2539992
151	0x3e75a462	0.23988488
152	0x3e8cfc0d	0.2753605
153	0x3df7c66e	0.12098394
154	0x3e8c07fc	0.27349842
155	0xbd73f7c6	-0.059562467
156	0x3c4def01	0.01256919
157	0xbdb88354	-0.09009424
158	0xbd39627c	-0.045259938
159	0x3e9f6d4a	0.31138068
160	0x3e8190e2	0.2530585
161	0x3dd89714	0.10575691
162	0x3da5e9a7	0.08101206
163	0xbe5f6078	-0.21814144
164	0xbe34a735	-0.1764191
165	0xbd40f2bf	-0.0471065
166	0x3e159ccc	0.14610595
167	0x3ed23043	0.41052446
168	0x3de4a5ef	0.11164462
169	0x3ebd1c76	0.36935776
170	0x3daf761d	0.0856745
171	0x3e82e2af	0.2556357
172	0x3e7a5b55	0.24448903
173	0x3d57f17e	0.05272054
174	0xbc78aaee	-0.015177472
175	0x3d930fa7	0.0718072
176	0xbda8afc0	-0.08236647
177	0x3e8dcb65	0.2769424
178	0x3e292f3b	0.16521923
179	0x3da036e9	0.07822973
180	0x3ea21800	0.31658936
181	0xbcdea2d5	-0.027177254
182	0xbea47651	-0.32121518
183	0xbd932d99	-0.071864314
184	0x3d4a150e	0.049336486
185	0xbdfd6758	-0.12373227
186	0x3dd40119	0.10351772
187	0x3ece2e2f	0.4026961
188	0xbdd85d7b	-0.10564705
189	0x3d0bd200	0.03413582
190	0x3e888a86	0.26668185
191	0xbd5409c7	-0.051767137
192	0x3e4c8ada	0.19974843
193	0x3e91450d	0.28372994
194	0xbe3be416	-0.18348727
195	0xbd9a7541	-0.07541896
196	0x3ea8680e	0.32891887
197	0x3e19bd92	0.15013722
198	0x3ec3be2f	0.38231036
199	0x3e091abb	0.13389103
200	0x3d596cf4	0.05308242
201	0xbdbcda59	-0.09221334
202	0x3ce52f8f	0.02797678
203	0x3e938ee4	0.28819954
204	0x3d94a746	0.072584674
205	0xbe5b783e	-0.21432588
206	0x3e8ec760	0.27886486
207	0x3ea61607	0.3243868
208	0x3e5036fd	0.20333476
209	0x3ea47a23	0.32124433
210	0xbd8954d2	-0.06705631
211	0x3e8a45a9	0.2700627
212	0x3e273ea2	0.16332486
213	0x3e26e319	0.16297568
214	0x3e2aab38	0.16666877
215	0xbdef5251	-0.116856225
216	0xbe24d4cf	-0.16096805
217	0x3d55d9b6	0.05220958
218	0xbe7c52d0	-0.24640965
219	0x3e600a86	0.21879014
220	0x3e4ebf31	0.20190121
221	0xbe2dd2df	-0.16974972
222	0x3ddaf321	0.106909044
223	0x3e9f7194	0.3114134
224	0x3eabc00e	0.33544964
225	0x3ea7addf	0.3274984
226	0x3ea85afe	0.32881922
227	0x3de12d01	0.10994912
228	0x3eb1d513	0.34732875
229	0x3dcecbbe	0.100974545
230	0xbdf234c6	-0.11826472
231	0xbdb74f89	-0.08950717
232	0xbd91a1d0	-0.071109414
233	0x3e2b6983	0.16739468
234	0xbd3b66e3	-0.045752417
235	0x3dd23b32	0.10265197
236	0xbe77dd2a	-0.24205461
237	0xbde20f53	-0.11038079
238	0xbe4283db	-0.18995611
239	0xbe80f8f5	-0.2518994
240	0x3e3be7d7	0.18350159
241	0xbdeeef90	-0.11666787
242	0xbe0f968d	-0.14022274
243	0x3e8f1b78	0.27950644
244	0x3e43dc7b	0.19127075
245	0x3e261078	0.1621722
246	0x3d793bf8	0.060848206
247	0x3e354ea1	0.17705776
248	0x3e08bf9d	0.13354345
249	0x3d995cb2	0.07488383
250	0x3b06e046	0.0020580455
251	0x3e8bfc9c	0.27341163
252	0xbf01df1d	-0.5073107
253	0x3ec9e400	0.39431763
254	0x3e511bf6	0.20420823
255	0x3db8b45b	0.09018775

shared.0.bias f4 [128]
0	0x3cc3a624	0.023882933
1	0x3e288c8a	0.16459861
2	0x3e3d68e4	0.18497044
3	0x3e2c57ab	0.16830318
4	0x3cbb104a	0.022834916
5	0x3d90f9b8	0.0707888
6	0x3e91d7c5	0.28484932
7	0xbc20d755	-0.009816964
8	0x3e8b7d06	0.27243823
9	0x3cb1211d	0.021622235
10	0x3e1ef286	0.15522203
11	0x3db5cce0	0.088769674
12	0x3e228faa	0.15875116
13	0x3d601488	0.05470708
14	0x3dfe90f8	0.12429994
15	0x3ea60c8e	0.32431453
16	0x3cc71231	0.024300667
17	0x3e8ec25d	0.27882662
18	0x3eb372dc	0.35048568
19	0x3debd362	0.115149274
20	0xbcd914e2	-0.026499216
21	0x3e1e657a	0.15468398
22	0x3e9b9177	0.30384418
23	0xbd83543c	-0.06412551
24	0xbdef15bb	-0.11674067
25	0x3e968ef4	0.2940594
26	0x3e979fb1	0.29614022
27	0x3de8c247	0.113651805
28	0xbd7b8751	-0.061408345
29	0x3d609a53	0.054834675
30	0xbdc45877	-0.09587186
31	0x3e1b51c1	0.15167905
32	0xbbf9ca68	-0.0076230057
33	0x3ea2c766	0.31792754
34	0xbd20657c	-0.039159283
35	0x3e688c68	0.2270981
36	0xbdcc1cdb	-0.09966441
37	0x3e761264	0.24030453
38	0x3e9657a7	0.29363748
39	0x3b23e2bd	0.0025006973
40	0x3e87a383	0.26491937
41	0x3e50c4ed	0.20387621
42	0x3e8fe8a9	0.28107193
43	0x3e690032	0.22753981
44	0x3dbacd04	0.09121135
45	0xbd46845a	-0.048466064
46	0x3e60b914	0.21945602
47	0xbd46f42b	-0.0485727
48	0x3e1d3dd8	0.15355623
49	0x3d0862de	0.033297412
50	0x3e217369	0.15766682
51	0x3da28e42	0.0793729
52	0x3d9ed350	0.077551484
53	0xbcef25df	-0.029192863
54	0x3e8624a7	0.2619984
55	0xbe0b3df5	-0.13597853
56	0xbe388aeb	-0.18021743
57	0x3d951958	0.072802246
58	0x3e30ec29	0.17277588
59	0x3e44bca3	0.19212584
60	0x3e51d9e6	0.20493278
61	0xbc4d9b6d	-0.012549263
62	0xbbe79a40	-0.0070679486
63	0x3ea26f24	0.3172542
64	0xbd68bca7	-0.056820538
65	0x3c7b76b4	0.015348125
66	0x3e069bc9	0.13145365
67	0x3bc9be0e	0.0061566895
68	0xbd4b668a	-0.049658336
69	0x3d0a00fa	0.033692338
70	0x3ea3d103	0.319954
71	0x3e60f2f8	0.21967685
72	0x3b002b56	0.001955708
73	0x3e004e32	0.12529829
74	0x3e04a359	0.12952937
75	0x3e512c83	0.20427136
76	0x3d831f33	0.06402435
77	0xbdac7c16	-0.08422105
78	0x3e76e9b6	0.24112591
79	0x3e26f1b2	0.16303137
80	0x3e972acd	0.29524842
81	0x3e34312e	0.17596886
82	0x3d67c84e	0.05658751
83	0x3e6f36ee	0.23360798
84	0x3da64a50	0.08119643
85	0xbd830a24	-0.063984185
86	0x3e3d2091	0.18469454
87	0x3e5937c6	0.21212682
88	0x3e078912	0.13235882
89	0x3e7a2bdb	0.24430792
90	0x3d4c6368	0.04989949
91	0xbe1af842	-0.15133765
92	0x3e6bbd74	0.2302149
93	0x3eb7f209	0.35926846
94	0xb9ae90dd	-0.00033295798
95	0x3d0f628d	0.035006095
96	0x3e751a39	0.23935784
97	0x3dff59f7	0.12468331
98	0x3ed06105	0.4069902
99	0x3e92460c	0.28569067
100	0x3e3100f1	0.17285515
101	0x3e74176a	0.23837057
102	0x3dc0561d	0.09391425
103	0x3df46c32	0.11934699
104	0xbd9c5a4b	-0.076344095
105	0xbe16335e	-0.14668033
106	0xbdea7643	-0.11448338
107	0x3d9d3980	0.07676983
108	0x3ed23948	0.41059327
109	0x3e5ad052	0.2136853
110	0x3e553196	0.20819697
111	0x3df6d44b	0.120522104
112	0xbd4dca61	-0.05024183
113	0x3d246d5a	0.04014335
114	0x3e0379ba	0.12839404
115	0x3e7a649f	0.24452446
116	0x3dd860e3	0.10565355
117	0x3e223683	0.15841107
118	0x3dc7f32a	0.09763177
119	0xbc6e4e15	-0.014544983
120	0x3eaebd29	0.34128693
121	0x3ea0c867	0.31402895
122	0xbc134165	-0.008987759
123	0x3e6eacb4	0.23308069
124	0x3dbab2f3	0.09116163
125	0x3e5f9e0d	0.21837635
126	0x3cd4151f	0.025888978
127	0xbd82fbf5	-0.06395713

shared.1.weight f4 [128]
0	0x3f87e6ac	1.061727
1	0x3f8a8bc3	1.0823902
2	0x3f74be4d	0.95602876
3	0x3fb8076e	1.4377267
4	0x3f6e7793	0.93151206
5	0x3f9294f5	1.1451708
6	0x3fa34f45	1.2758566
7	0x3f918f6a	1.1371891
8	0x3f94494d	1.158487
9	0x3f9abbb5	1.2088534
10	0x3f9597ee	1.168699
11	0x3f8cc9c0	1.0999069
12	0x3f95c57f	1.1700896
13	0x3f9fe1c9	1.2490779
14	0x3fa22db7	1.2670201
15	0x3fc8fea3	1.5702709
16	0x3fa863da	1.3155472
17	0x3f3fcce1	0.74921995
18	0x3fcc0e2c	1.5941825
19	0x3fc645a3	1.5490001
20	0x3fb2a777	1.3957356
21	0x3f9cf3e8	1.2261934
22	0x3f912565	1.1339537
23	0x3fa717e6	1.3054168
24	0x3f6c0abd	0.92203885
25	0x3f916412	1.1358664
26	0x3fd33f21	1.650364
27	0x3f6617aa	0.8987986
28	0x3fa5032c	1.2891593
29	0x3f8ee3db	1.1163286
30	0x3fde5d5d	1.7372242
31	0x3f971e81	1.1806184
32	0x3f76f3e5	0.96465904
33	0x3faf0bfd	1.3675534
34	0x3fa02eaf	1.2514247
35	0x3f6172f4	0.8806603
36	0x3fc3f487	1.5308999
37	0x3fa5ac1e	1.2943151
38	0x3f7a7bd8	0.9784522
39	0x3fc54f3b	1.5414804
40	0x3fb3a948	1.4036036
41	0x3fb840ae	1.4394739
42	0x3f93af17	1.1537808
43	0x3fb982e5	1.4493071
44	0x3f9b9bae	1.2156885
45	0x3f873a91	1.0564748
46	0x3fc09a59	1.5047103
47	0x3fb45013	1.4086937
48	0x3f953309	1.16562
49	0x3f493c30	0.78607464
50	0x3fa0729c	1.2534976
51	0x3fab648b	1.3390058
52	0x3fbe90ca	1.4887936
53	0x3f8dea9a	1.108722
54	0x3f1ddd65	0.61665946
55	0x3faa53ca	1.330682
56	0x3f984365	1.1895567
57	0x3f9771ad	1.1831566
58	0x3f2c8bea	0.6740099
59	0x3f97d569	1.1862003
60	0x3f5deebe	0.86692417
61	0x3f979127	1.1841172
62	0x3f9a47d1	1.2053167
63	0x3f2d56db	0.67710656
64	0x3f894943	1.0725483
65	0x3f95a1f1	1.1690046
66	0x3f3a67af	0.7281446
67	0x3fa0f0d1	1.2573491
68	0x3fbd464c	1.4787078
69	0x3f9b9186	1.2153785
70	0x3f958009	1.1679698
71	0x3fabb53b	1.3414682
72	0x3f82a924	1.0207868
73	0x3f99202d	1.1962944
74	0x3f65cf93	0.8976986
75	0x3fa04411	1.2520772
76	0x3f84d800	1.0378418
77	0x3f98346c	1.1890998
78	0x3f9ed9f9	1.241027
79	0x3f2c5958	0.6732383
80	0x3f64757a	0.89241755
81	0x3f81b140	1.0132217
82	0x3fa52adc	1.2903705
83	0x3f9b4467	1.213025
84	0x3fbfc40f	1.4981707
85	0x3f9a0465	1.2032591
86	0x3fa9f25a	1.3277085
87	0x3f918477	1.136855
88	0x3fa01ab5	1.250815
89	0x3fb8c75a	1.4435837
90	0x3f94a65e	1.1613271
91	0x3fda1fe9	1.7040988
92	0x3fb53791	1.4157583
93	0x3fdd8262	1.7305415
94	0x3f8f81d6	1.1211498
95	0x3f9d3fd1	1.22851
96	0x3f8c021a	1.0938141
97	0x3f993728	1.1969957
98	0x3f83fb00	1.0310974
99	0x3f8f1813	1.1179222
100	0x3f971d82	1.180588
101	0x3f6e3a3a	0.93057597
102	0x3f9c3cf3	1.22061
103	0x3fb25dca	1.3934872
104	0x3fa0103e	1.2504957
105	0x3f8c0ca6	1.094136
106	0x3fb758d8	1.4323988
107	0x3f9ad2f8	1.2095633
108	0x3f9aed97	1.2103757
109	0x3fb1d59a	1.3893311
110	0x3fa9f12d	1.3276726
111	0x3fa0d45a	1.2564805
112	0x3fa0f479	1.2574607
113	0x3f9c9791	1.2233754
114	0x3f870044	1.0546956
115	0x3fad79c9	1.3552791
116	0x3f9190e9	1.1372348
117	0x3f87e9b3	1.0618194
118	0x3fb86061	1.4404413
119	0x3f4df32f	0.80449194
120	0x3fb66ad0	1.4251347
121	0x3f7f9113	0.9983074
122	0x3fbebeff	1.4902037
123	0x3f8ba126	1.0908554
124	0x3f790336	0.97270525
125	0x3f44ca5f	0.76871294
126	0x3f972a00	1.1809692
127	0x3fcf4892	1.6194022

shared.1.bias f4 [128]
0	0xbe62889e	-0.22122428
1	0xbe836f48	-0.25670838
2	0xbdbe27f2	-0.09284963
3	0x3c16ba77	0.00919973
4	0xbdf92da0	-0.121669054
5	0xbe41cb6e	-0.18925259
6	0xbe291dd1	-0.1651528
7	0x3d3beb38	0.04587862
8	0xbddcc78a	-0.107802466
9	0x3b44ffd0	0.0030059703
10	0xbd214109	-0.039368663
11	0xbe0540a6	-0.13012943
12	0xbd890239	-0.06689877
13	0xbe315162	-0.17316201
14	0xbe562a25	-0.20914514
15	0xbd8f616c	-0.070010036
16	0xbcb9dd89	-0.022688644
17	0xbe83d501	-0.25748447
18	0xbd58b33c	-0.052905306
19	0xbdc438d7	-0.09581154
20	0xbe05de7c	-0.13073152
21	0x3c3b25a3	0.0114225475
22	0xbe6645f6	-0.22487625
23	0xbd0d1ba6	-0.034450196
24	0xbdecbbd2	-0.115592614
25	0xbcd4f19f	-0.02599412
26	0xbc695e73	-0.01424371
27	0xbe73ecb2	-0.23820761
28	0xbdd09aed	-0.101858
29	0xbdea782b	-0.114487015
30	0x3a59e437	0.00083119
31	0xbe083686	-0.13302049
32	0xbe37626d	-0.1790864
33	0x3987663a	0.0002582537
34	0xbd111d91	-0.035428587
35	0xbe8b1cb9	-0.2717035
36	0xbcf7d175	-0.030251244
37	0xbdb17003	-0.08663943
38	0xbe7cd5f9	-0.24690999
39	0xbcb18cae	-0.021673527
40	0xbcf4f44f	-0.029901652
41	0xbc8f3ce7	-0.017485095
42	0xbd4a5d15	-0.049405176
43	0xbe1f61bd	-0.15564628
44	0xbe296775	-0.16543372
45	0xbd44884a	-0.047981538
46	0xbe42d729	-0.1902739
47	0xbde7cf6c	-0.113188595
48	0xbe94e1da	-0.2907856
49	0xbe8f9d1e	-0.28049558
50	0xbe661867	-0.22470246
51	0xbdc2ef29	-0.095182724
52	0x3bbcd0b3	0.0057621836
53	0x3d64ed32	0.05589027
54	0xbeb19fbb	-0.34692177
55	0xbdad38e8	-0.0845812
56	0xbe4c281f	-0.1993718
57	0xbddd95b9	-0.10819573
58	0xbea5a2f3	-0.32350883
59	0xbdf2b753	-0.118513726
60	0xbe377f7b	-0.17919724
61	0xbafc4a27	-0.0019248173
62	0xbd1afaa3	-0.037836682
63	0xbe9f7fab	-0.3115209
64	0xbdda7857	-0.10667484
65	0x3a6efc86	0.00091166084
66	0xbe8bcf8e	-0.2730679
67	0xbbfd7919	-0.007735383
68	0xbc3110bf	-0.010807215
69	0x3ada53e0	0.0016657077
70	0xbd0030f5	-0.03129669
71	0x3c354317	0.011063359
72	0xbdd4a218	-0.103824794
73	0xbde5de9f	-0.11224102
74	0xbe20062a	-0.15627351
75	0xbcfd672a	-0.030932982
76	0xbdd8ec80	-0.10591984
77	0xbe175d94	-0.14781791
78	0xbe2eb45f	-0.17060994
79	0xbeb8cce8	-0.3609383
80	0xbe4c842e	-0.19972298
81	0xbe3a1e0a	-0.18175521
82	0xbdd1e87f	-0.10249423
83	0xbe14a7a8	-0.14517081
84	0xbd316a0d	-0.04331403
85	0xbe179327	-0.14802228
86	0x3dd08944	0.10182431
87	0xbe5104fb	-0.20412056
88	0xbdaf460f	-0.085582845
89	0xbde9113c	-0.1138024
90	0xbe0404a7	-0.128924
91	0xbddc96e1	-0.10770965
92	0xbdb254e0	-0.08707595
93	0x3cfc86be	0.030825969
94	0xbdd0b8f5	-0.10191528
95	0xbdd40c5f	-0.10353922
96	0xbe38ef1b	-0.18059961
97	0xbdbc9cc8	-0.09209591
98	0xbe26fba1	-0.16306926
99	0xbddf3da5	-0.1090043
100	0xbe276357	-0.16346489
101	0xbd4038e7	-0.046929266
102	0xbe35949b	-0.1773247
103	0x3bf3f2a9	0.007444699
104	0xbd91ef8e	-0.071257696
105	0xbdf1de00	-0.11809921
106	0xbd8a172e	-0.067427024
107	0xbd89f46b	-0.06736072
108	0xbdc3b7b6	-0.095565245
109	0xbdbd2c4b	-0.09236964
110	0xbd5bf984	-0.053704754
111	0xbdcf5126	-0.101229
112	0xbd92c13a	-0.07165761
113	0xbe58be6f	-0.21166395
114	0xbe5ee37e	-0.21766469
115	0xbdfbaf77	-0.12289327
116	0xbdc6ab36	-0.09700625
117	0xbe7e23d0	-0.24818349
118	0xbda58dc2	-0.08083679
119	0xbe907f55	-0.28222147
120	0xbd780b75	-0.0605578
121	0xbe15925a	-0.1460661
122	0x3c479cc3	0.012183371
123	0xbd94158f	-0.072306745
124	0xbdc474f2	-0.09592618
125	0xbe79152d	-0.24324484
126	0xbd1a9fc3	-0.037750017
127	0xbd5b9412	-0.053608008

shared.3.weight f4 [128, 128]
0	0x3e504dc1	0.20342161
1	0xbddf61fc	-0.10907361
2	0x3e3316e9	0.17489208
3	0x3e58f18a	0.2118589
4	0x3dcf949f	0.10135769
5	0xbe0e8e5e	-0.13921496
6	0xbeabbb8f	-0.33541533
7	0x3d90e393	0.07074656
8	0x3db86add	0.090047576
9	0x3de8c34a	0.113653734
10	0x3d54833c	0.051882967
11	0xbe65ff29	-0.22460617
12	0x3c7b162f	0.015325113
13	0xbe8f68be	-0.280096
14	0x3d27edbc	0.040998206
15	0x3eb11b63	0.34591207
16	0x3d86802f	0.06567418
17	0x3dfb6327	0.12274771
18	0xbdef3f55	-0.116820015
19	0x3d870eed	0.06594644
20	0x3e9909e8	0.2989037
21	0x3b7cf6fe	0.0038599367
22	0xbe94c844	-0.2905904
23	0xbe8888a4	-0.2666675
24	0x3e3a94a3	0.18220763
25	0xbe81f5d0	-0.25382853
26	0x3ed7ff72	0.42187077
27	0x3d03edb3	0.03220911
28	0xbe4aaefd	-0.19793315
29	0xbdde7d91	-0.10863794
30	0x3e80254c	0.25028455
31	0x3e98afc9	0.29821613
32	0x3d793550	0.06084186
33	0x3eae575e	0.3405103
34	0xbdcd1048	-0.10012871
35	0xbd2e9f42	-0.04263235
36	0x3e7d6b2f	0.24747919
37	0x3dae5763	0.085127614
38	0x3e86f6d5	0.26360193
39	0x3dbced64	0.09224966
40	0x3f008439	0.50201756
41	0x3d8f3743	0.06992962
42	0x3e28f0b6	0.16498074
43	0xbe9b0bac	-0.30282342
44	0x3ebf56ad	0.37370816
45	0xbd7abb92	-0.061214037
46	0x3e073f17	0.1320766
47	0xbe9f8e0e	-0.31163067
48	0x3da909dc	0.08253834
49	0x3ccd88ff	0.025089739
50	0x3df93977	0.12169164
51	0xbeb30b1f	-0.34969422
52	0x3d751dd6	0.059842907
53	0x3e1fa0fd	0.15588756
54	0xbd2873df	-0.04112613
55	0x3e46a058	0.19397104
56	0x3da080a7	0.078370385
57	0xbe8e9546	-0.27848262
58	0xbca0442e	-0.01956376
59	0xbe54f6b8	-0.2079724
60	0x3e042a7f	0.12906836
61	0x3e4e78ff	0.20163344
62	0xbdedddf6	-0.11614601
63	0xbdabf048	-0.083954394
64	0x3dcb391f	0.09923004
65	0xbed92c5c	-0.42416656
66	0x3c60c4ff	0.0137188425
67	0x3df8637a	0.12128349
68	0x3caccd02	0.02109385
69	0xbe2f4e02	-0.17119601
70	0x3d14f85b	0.036369663
71	0x3db11289	0.086461134
72	0x3ddbd575	0.10734073
73	0x3dd3fdc2	0.10351135
74	0xbb9b78b2	-0.0047446126
75	0x3ee6d95f	0.45087716
76	0x3e8467d9	0.2586048
77	0x3e3b46fb	0.18288796
78	0xbeb60b40	-0.35555458
79	0xbd4c6dc5	-0.049909372
80	0x3da38d00	0.07985878
81	0x3da78529	0.08179695
82	0x3d911c79	0.07085509
83	0x3dbf7dc9	0.093501635
84	0xbe8882cf	-0.266623
85	0x3eb60eeb	0.35558257
86	0xbe423a7d	-0.18967624
87	0x3eea0ec7	0.457144
88	0x3e8caf1d	0.2747735
89	0xbea51443	-0.3224202
90	0xbe12ecf0	-0.14348197
91	0x3e928058	0.28613544
92	0x3ecdbec6	0.4018461
93	0x3f12fc63	0.5741636
94	0x3db73a00	0.089466095
95	0xbe89fc63	-0.26950368
96	0x3e7e0a94	0.24808723
97	0x3e1637a9	0.1466967
98	0x3d99cdc2	0.07509948
99	0x3d1bd8ad	0.038048435
100	0xbe814aa5	-0.25252262
101	0xbbf67312	-0.0075210417
102	0xbdfa8ff5	-0.12234489
103	0xbe7e9c55	-0.24864323
104	0x3b8585c4	0.004074784
105	0x3e6eea1e	0.23331496
106	0xbecd159e	-0.40055555
107	0xbe8f8919	-0.28034285
108	0x3def895b	0.1169612
109	0x3f16b841	0.588749
110	0x3cf48812	0.02985004
111	0xbe710c93	-0.23539953
112	0xbe876d4b	-0.2645057
113	0xbe2044ba	-0.15651217
114	0xbdf0bf2d	-0.11755214
115	0xbf0221eb	-0.50833005
116	0x3a05563d	0.0005086398
117	0xbc803817	-0.015651746
118	0x3f01f25a	0.50760424
119	0xbc486706	-0.012231594
120	0x3e02b118	0.12762868
121	0x3e3f8df0	0.18706489
122	0x3d9bcb7c	0.07607171
123	0x3e31b4a0	0.17354059
124	0x3dcd6a21	0.10030008
125	0x3d352f5e	0.044234626
126	0xbe74a408	-0.23890698
127	0xbeb40dc3	-0.3516675
128	0x3e3f37b7	0.18673597
129	0xbe10cbdc	-0.14140266
130	0x3c1439e8	0.009047009
131	0xbd5ef6ad	-0.054434467
132	0x3e04a388	0.12953007
133	0xbcf927b9	-0.030414449
134	0x3d26d700	0.040732384
135	0xbca58f9a	-0.020210076
136	0xbd93d762	-0.072188154
137	0x3e64b5d4	0.22334987
138	0xbe099ac5	-0.13437946
139	0x3af7fac5	0.001891934
140	0x3d0187ac	0.031623527
141	0x3da66484	0.081246406
142	0xbca29945	-0.019848475
143	0x3d84977e	0.06474207
144	0xbe0c3143	-0.13690667
145	0x3d3119b7	0.043237414
146	0xbeca3b1d	-0.39498225
147	0xbe9a8509	-0.30179623
148	0x3e8eb761	0.27874282
149	0x3db34ccd	0.08754883
150	0xbe4832d8	-0.19550645
151	0xbe7f19ac	-0.24912137
152	0xbde26157	-0.11053722
153	0xbe69a274	-0.22815877
154	0x3d8e54eb	0.069497906
155	0x3ce009c3	0.027348405
156	0xbd429588	-0.047505885
157	0x3dc152a3	0.0943959
158	0x3ec9d06b	0.39416823
159	0x3dd45232	0.1036724
160	0x3e2ed37a	0.1707286
161	0x3e382dd5	0.17986234
162	0xbdbd2cfb	-0.09237095
163	0x3dfcdc21	0.12346674
164	0xbe74f536	-0.23921666
165	0x3d9f2add	0.077718474
166	0x3c6cef63	0.014461371
167	0x3d0fdc8a	0.03512243
168	0xbcfccc2d	-0.030859077
169	0x3e0295a4	0.12752396
170	0x3d0c56c8	0.03426245
171	0x3dbbe502	0.09174539
172	0x3e8facd1	0.28061536
173	0xbd494346	-0.049136423
174	0x3e5d1d67	0.21593247
175	0xbd8364ff	-0.06415748
176	0x3ec5ec40	0.38656807
177	0x3d2cb8b3	0.04216833
178	0xbe98c79a	-0.29839784
179	0x3d7e9319	0.062152002
180	0x3c0a188f	0.008428707
181	0x3d96f49d	0.07370875
182	0x3e52ba0a	0.20578781
183	0x3e78dc6c	0.24302834
184	0x3e6add8c	0.22936076
185	0x3d7b78a1	0.061394338
186	0x3deeda17	0.11662691
187	0x3c3c0df2	0.011477934
188	0x3e2fa5c6	0.17153081
189	0x3db4677c	0.088088006
190	0xbdf88e86	-0.12136559
191	0xbd74b0af	-0.05973881
192	0x3d0a13ba	0.03371022
193	0x3e38be17	0.18041264
194	0x3e6af192	0.22943714
195	0x3e84c26e	0.25929588
196	0x3d996e0d	0.07491694
197	0xbda31511	-0.079630025
198	0x3cb29a4b	0.021802088
199	0x3de590a6	0.1120923
200	0x3cd04461	0.02542323
201	0x3e2bc42c	0.16774052
202	0x3c758613	0.014985579
203	0x3dbb3220	0.0914042
204	0x3e143980	0.1447506
205	0x3e93d6f5	0.28874937
206	0xbe5a2ed2	-0.21306923
207	0x3d95548b	0.07291516
208	0x3d49d388	0.049273998
209	0xbdddf924	-0.108385354
210	0x3d3c36ab	0.045950573
211	0x3cc36445	0.023851523
212	0x3e2fef98	0.17181242
213	0x3e9cfa84	0.30659878
214	0xbe15a4a2	-0.14613584
215	0x3e87fcaa	0.26559955
216	0x3d9dfbf7	0.07714074
217	0x3e8015da	0.2501667
218	0x3d2c4e6d	0.04206698
219	0x3e35498b	0.17703836
220	0x3ca951b6	0.020668846
221	0x3cdc2973	0.026875233
222	0x3d5750d4	0.052567318
223	0xbd6437e7	-0.055717375
224	0x3e7696ce	0.24080965
225	0xbd48eca1	-0.049053792
226	0x3db467e5	0.08808879
227	0x3e1e82f5	0.15479644
228	0xbd7f301a	-0.062301733
229	0x3e7f2edf	0.24920224
230	0xbe3c53a5	-0.18391283
231	0xbe3dcae5	-0.1853443
232	0x3e090771	0.13381745
233	0x3e816c76	0.25278062
234	0xbd797e66	-0.06091156
235	0x3e3c04fd	0.18361278
236	0xbb8a2ab5	-0.004216517
237	0x3ed5a02d	0.41723767
238	0xbe086541	-0.13319875
239	0x3da76204	0.08172992
240	0x3d8226ec	0.0635508
241	0xbe10099c	-0.14066166
242	0xbdf655ca	-0.12028082
243	0xbda2d2ae	-0.0795034
244	0x3e10608b	0.14099328
245	0x3e18a571	0.14906861
246	0x3e4d7ea7	0.20067845
247	0x3dc9e48d	0.09858046
248	0x3dca16e7	0.098676495
249	0x3c9a5ac3	0.018842107
250	0x3e0521f6	0.13001236
251	0xbe180180	-0.14844322
252	0x3e338d5c	0.17534393
253	0x3d1ed771	0.03877968
254	0xbdf484ac	-0.11939368
255	0x3e0cd210	0.13752007

shared.3.bias f4 [128]
0	0x3d88945f	0.066689245
1	0x3e1ef4cb	0.15523069
2	0x3de49fc2	0.11163284
3	0x3df8d409	0.121498175
4	0x3cb7954b	0.022410056
5	0x3e18f15e	0.14935824
6	0x3c532493	0.012887138
7	0x3d0e28c1	0.034706835
8	0xbd3011b7	-0.042985644
9	0x3dc3f0ea	0.09567435
10	0x3d252ba8	0.040324837
11	0x3a62dd6c	0.000865421
12	0x3d9e39c0	0.07725859
13	0x3b019cf4	0.001977739
14	0x3d5ca1af	0.05386513
15	0x3d3b3299	0.04570255
16	0xbc05f67f	-0.008176445
17	0xbd3bba98	-0.045832247
18	0x3d07aad1	0.033121888
19	0x3dedf337	0.11618655
20	0x3db39b66	0.08769874
21	0xbd882293	-0.066472195
22	0x3dce5c8f	0.10076248
23	0x3cc42ad1	0.023946198
24	0x3e256d9e	0.16155097
25	0x3dec524e	0.11539136
26	0x3e08715d	0.13324495
27	0xbcce7509	-0.025202291
28	0x3e09cf63	0.13458018
29	0xbc458190	-0.012054816
30	0x3d9c2f7a	0.07626243
31	0x3d20d849	0.039268766
32	0x3e14a0bb	0.14514439
33	0xbd976c65	-0.073937215
34	0x3dd37d87	0.10326677
35	0x3de57152	0.11203255
36	0x3cefab22	0.029256407
37	0x3e3d0d46	0.18462095
38	0x3c6404cb	0.013917158
39	0xba0e83bf	-0.0005436502
40	0x3cb4d291	0.022073062
41	0xbcf8557e	-0.030314203
42	0x3db15c74	0.08660212
43	0xbd02c84e	-0.031929307
44	0x3d4ce02d	0.05001848
45	0x3d3f1c64	0.046657935
46	0x3e0ffb67	0.14060746
47	0x3df87f29	0.12133629
48	0x3e0fa886	0.1402913
49	0x3d2322e8	0.03982821
50	0x3de4f12a	0.11178811
51	0x3d868e84	0.065701514
52	0x3e2e86a1	0.17043544
53	0x3e03e6cd	0.12881012
54	0x3bbce521	0.005764619
55	0x3d05f1a2	0.032701142
56	0x3d0b57e6	0.034019373
57	0x3da12f39	0.07870335
58	0x3daa3bc4	0.08312181
59	0xbcd70a26	-0.026249956
60	0x3d57e04b	0.052704137
61	0x3b952903	0.004552008
62	0x3e045eff	0.12926863
63	0x3e20328a	0.15644279
64	0x3dbac39d	0.091193415
65	0x3e240a66	0.16019592
66	0x3c892da3	0.016745394
67	0x3d432641	0.047643904
68	0x3d308dea	0.04310409
69	0x3d39e0fc	0.045380577
70	0x3deacd0b	0.1146489
71	0x3e0660be	0.13122842
72	0x3d2b5ef8	0.041838616
73	0x3d83aafb	0.06429096
74	0x3d311fd8	0.04324326
75	0xbdceee34	-0.101040274
76	0x3d2481c2	0.04016281
77	0x3d7debac	0.061992332
78	0xb9f59de5	-0.00046847682
79	0x3cb98281	0.022645237
80	0x3d7a2a28	0.06107536
81	0x3e0d097e	0.13773152
82	0x3e0a6f32	0.1351898
83	0x3e099036	0.13433918
84	0x3c734600	0.014848232
85	0x3ccc0915	0.024906674
86	0x3d7447e6	0.05963888
87	0x3e17f3e9	0.14839138
88	0x3da5c0bd	0.080934025
89	0x3e08f9c1	0.13376524
90	0xbd01c4d6	-0.031681858
91	0x3e06356a	0.13106313
92	0x3ca17a92	0.019711766
93	0x3b9b14c7	0.0047327015
94	0x3d6e9fbe	0.05825781
95	0x3df33a87	0.118763976
96	0x3ba44d69	0.005014111
97	0xbddb9e27	-0.107235245
98	0x3c162fb6	0.009166649
99	0x3e0a3ef8	0.13500583
100	0x3e44742b	0.1918494
101	0x3da89b3f	0.08232736
102	0xbb874814	-0.0041284654
103	0x3d4bbc95	0.049740393
104	0x3c420ad8	0.011843406
105	0x3dce347f	0.100686066
106	0x3d988a75	0.074482836
107	0x3c03e506	0.008050209
108	0x3e1cb6b8	0.15304077
109	0x3d143542	0.036183603
110	0xbca29c8f	-0.019850044
111	0x3daffb47	0.08592849
112	0x3b9504e0	0.0045477003
113	0x3e59b5fd	0.2126083
114	0x3d1a8c64	0.037731543
115	0x3d96c5e2	0.07361962
116	0x3d772a0a	0.060342826
117	0x3dd72f0c	0.1050702
118	0x3db3a584	0.08771804
119	0x3dd2e601	0.10297776
120	0x3d6a9720	0.05727303
121	0x3e371fbd	0.17883201
122	0x3e538a32	0.20658186
123	0xbb48881b	-0.0030598703
124	0xbc5b13b0	-0.013371393
125	0xbcc2120c	-0.023690246
126	0x3dd75828	0.10514861
127	0x3e2a6434	0.16639787

shared.4.weight f4 [128]
0	0x3fb3c35d	1.4043995
1	0x3fca463e	1.5802686
2	0x3fe7d045	1.8110434
3	0x3ff768de	1.9328878
4	0x400e66e9	2.2250311
5	0x3fd4087b	1.6565088
6	0x3fe3b114	1.7788415
7	0x40414616	3.0199027
8	0x40517a6d	3.2730973
9	0x3fd2aa74	1.6458268
10	0x40093f22	2.1444783
11	0x4045d9c9	3.0914176
12	0x3feff3fd	1.8746334
13	0x3fd85253	1.6900123
14	0x4002f267	2.046045
15	0x400b0f20	2.1727982
16	0x3fb67dab	1.4257101
17	0x40422c12	3.0339398
18	0x3fc5a2aa	1.5440266
19	0x40398d54	2.899251
20	0x4003bdd8	2.0584621
21	0x3fce7cea	1.6131871
22	0x404148ed	3.020076
23	0x3fe2cd8f	1.7718982
24	0x40078688	2.1175861
25	0x3fb3719c	1.4019046
26	0x3face46f	1.3507212
27	0x3fe56939	1.7922736
28	0x3fd105bf	1.6329879
29	0x3fc00429	1.500127
30	0x403e893a	2.9771256
31	0x40038c35	2.0554326
32	0x4029bc1b	2.652106
33	0x3fcb3c06	1.5877693
34	0x3ffdb933	1.9822143
35	0x3fa0902f	1.2544001
36	0x402eb432	2.7297482
37	0x3f8b9a3f	1.0906447
38	0x3ffcf66e	1.9762704
39	0x3fdf1d5a	1.7430832
40	0x3fc046f1	1.502165
41	0x3fc60209	1.5469371
42	0x4051708b	3.272494
43	0x3fa80155	1.3125407
44	0x3ff1690e	1.8860185
45	0x404d7557	3.2102869
46	0x3feabd9b	1.8339113
47	0x40321cd4	2.7830095
48	0x3fc50925	1.5393416
49	0x400f6475	2.2405064
50	0x4033e49d	2.8108284
51	0x3fb986da	1.4494278
52	0x400f44e5	2.23858
53	0x3fb1329f	1.3843573
54	0x40389e4d	2.884662
55	0x3fb8f1ed	1.444883
56	0x3fbea81b	1.4895052
57	0x4003e722	2.0609822
58	0x3fab494a	1.3381741
59	0x3fe85cc2	1.8153307
60	0x3fcea790	1.6144886
61	0x3fd5d031	1.670416
62	0x4030e2d9	2.7638457
63	0x3ff4627b	1.9092554
64	0x3fe5d49d	1.795551
65	0x40367c84	2.8513498
66	0x3fd97476	1.6988666
67	0x404a27c9	3.1586783
68	0x40322760	2.7836533
69	0x40476f53	3.1161697
70	0x40333264	2.7999506
71	0x3fa7c8bd	1.3108135
72	0x4000a3d1	2.0099986
73	0x4012066f	2.2816427
74	0x3fb88e32	1.4418395
75	0x3fd08e7a	1.629348
76	0x3ff2cc3e	1.896858
77	0x401ec073	2.4804962
78	0x4035836a	2.8361459
79	0x402ed027	2.7314546
80	0x40019f25	2.0253384
81	0x3fd50615	1.6642481
82	0x404a4bf2	3.1608853
83	0x3fb0582e	1.377691
84	0x3fd993c4	1.699822
85	0x3ff3ee9f	1.9057196
86	0x403da01c	2.9628973
87	0x403605af	2.844097
88	0x3ffd7d18	1.98038
89	0x40427b90	3.0387917
90	0x3fdd641c	1.7296176
91	0x3fe08b8d	1.7542588
92	0x3fbaabc2	1.4583666
93	0x3fb370fd	1.4018856
94	0x3fec22cc	1.8448119
95	0x3faed85e	1.365978
96	0x3fc47151	1.5347081
97	0x3ff7c7a4	1.93578
98	0x3fb297d7	1.3952588
99	0x3faca9ef	1.348936
100	0x4005bb1c	2.0895452
101	0x3fcab07e	1.5835111
102	0x3fbd64aa	1.4796345
103	0x40365ace	2.8492923
104	0x3fbe1221	1.4849283
105	0x40001b7c	2.0016775
106	0x3fca49cb	1.580377
107	0x4036feb7	2.8592966
108	0x40384441	2.879166
109	0x3fbfb138	1.4975958
110	0x3fe99ffa	1.8251946
111	0x3fb384ed	1.4024941
112	0x4000cff9	2.0126936
113	0x3fad8f6e	1.3559396
114	0x3fb54245	1.4160849
115	0x3fd2f980	1.6482391
116	0x4051a3f6	3.2756324
117	0x3fc82a80	1.563797
118	0x3f9f5403	1.2447513
119	0x3fc46dda	1.5346024
120	0x3fbc56e6	1.4714019
121	0x4016f90a	2.3589501
122	0x3ff983c7	1.949334
123	0x3fb26e69	1.3939945
124	0x3ff78f42	1.9340594
125	0x3fecc07c	1.8496242
126	0x4013ed0d	2.3113434
127	0x3fb33ba8	1.4002581

shared.4.bias f4 [128]
0	0x3e9bc559	0.30424002
1	0xbd1ffd38	-0.039059848
2	0x3ea6741a	0.32510453
3	0x3d96ad37	0.07357257
4	0xbe49b00f	-0.19696067
5	0x3e9c9c4b	0.30587992
6	0x3ec1de2d	0.3786482
7	0x3ecb74f5	0.3973767
8	0x3ecf5a2b	0.4049848
9	0xbd1be8a5	-0.038063664
10	0x3d48a573	0.04898591
11	0x3ec4682b	0.38360724
12	0x3ecaa8aa	0.39581805
13	0x3e9947bb	0.29937539
14	0xbd1deb0b	-0.038554233
15	0x3f13433c	0.57524467
16	0x3ec08d5a	0.37607843
17	0x3eb8b177	0.36072895
18	0x3e813db7	0.25242397
19	0x3f14e228	0.5815759
20	0xbb17a175	-0.0023137007
21	0x3ec1b94d	0.37836686
22	0x3eb367dc	0.35040176
23	0x3ea2eb97	0.31820366
24	0x3dfa240a	0.12213905
25	0x3ebe36c6	0.37151164
26	0x3d92b0b4	0.0716261
27	0x3d800082	0.06250097
28	0xbd190f8b	-0.03736834
29	0x3ed0b4a7	0.40762827
30	0x3eaede7e	0.34154123
31	0xbc8b8f69	-0.017036157
32	0x3ed72c61	0.42026046
33	0x3ee88d54	0.45420325
34	0xbd8f5c2a	-0.07000001
35	0x3ed167ef	0.40899608
36	0x3ed141b5	0.40870443
37	0x3d12c3bd	0.0358312
38	0xbde9837f	-0.11402034
39	0x3eb633aa	0.35586292
40	0x3e13e7fd	0.14443965
41	0x3edc0b96	0.4297759
42	0x3ea20a20	0.3164835
43	0x3ed5a248	0.41725373
44	0xbda28113	-0.07934775
45	0x3ee8c95e	0.4546613
46	0xbcbdffed	-0.023193324
47	0x3e88948b	0.2667583
48	0x3e90c784	0.28277218
49	0xbde3015a	-0.11084242
50	0x3ed44b52	0.41463715
51	0x3ec78fd5	0.38976923
52	0x3f379f9a	0.7172791
53	0x3ede8f9e	0.43468946
54	0x3f067478	0.5252147
55	0x3ec5c7c0	0.3862896
56	0x3ec8d709	0.3922656
57	0xbd4c9e36	-0.04995557
58	0xbd828de4	-0.0637472
59	0x3ed9022e	0.42384475
60	0xbc0d1c8a	-0.008612761
61	0x3eda54ca	0.42642814
62	0x3ee5206a	0.44751292
63	0x3dddd29b	0.108311854
64	0xbdc4f938	-0.09617847
65	0x3ec6e899	0.38849333
66	0x3ebf37de	0.3734731
67	0x3ee14ad9	0.44002417
68	0x3edf0a49	0.43562534
69	0x3eba8bff	0.36434934
70	0x3e8084d6	0.25101346
71	0x3ed48ed9	0.41515234
72	0x3ecb6cf8	0.39731574
73	0x3db2cb62	0.087301984
74	0x3ee031cd	0.43787995
75	0x3eb78b9c	0.358487
76	0x3ec1cb33	0.3785034
77	0x3ee23ebe	0.44188493
78	0x3ec7fc93	0.39059886
79	0x3e3f1c19	0.18663062
80	0xbe536f9c	-0.20648044
81	0xbdc3cff9	-0.09561152
82	0x3eafc8b8	0.34332824
83	0xbd1c9e17	-0.038236704
84	0x3e8262a8	0.25465894
85	0xbb853b29	-0.0040658903
86	0x3f13af0c	0.57688975
87	0x3eadfd88	0.33982491
88	0xbd199c69	-0.03750268
89	0x3eed7976	0.4638173
90	0x3ead9214	0.3390051
91	0x3eb2e613	0.34941158
92	0x3ebb0019	0.36523512
93	0x3e073ead	0.13207503
94	0x3ed468ff	0.41486356
95	0x3ed334c5	0.41251197
96	0x3eac1e1f	0.3361673
97	0x3ebcde1f	0.36888215
98	0x3eb4cb8d	0.35311547
99	0xbb69a63f	-0.003565207
100	0xbe8c1d50	-0.27366114
101	0x3d128797	0.03577384
102	0x3eccccdf	0.40000054
103	0x3ec91529	0.39273956
104	0x3eacd122	0.33753306
105	0x3dcdbd45	0.10045866
106	0x3edaaeb0	0.427114
107	0x3ec8d077	0.39221546
108	0x3e9287d3	0.2861925
109	0x3e719f9d	0.23596044
110	0x3ecad37f	0.39614484
111	0x3ebe046b	0.37112746
112	0x3e91dea2	0.28490168
113	0x3d00232c	0.031283543
114	0x3ebe8fec	0.3721918
115	0x3eb91659	0.36149862
116	0x3ea6102d	0.32434216
117	0x3ea8bb06	0.32955188
118	0x3eb80e02	0.35948187
119	0xbe3ca392	-0.18421772
120	0x3ea5b72b	0.3236631
121	0xbd8f1251	-0.069859155
122	0x3d19a196	0.037507616
123	0x3e9a0234	0.30079806
124	0x3ebb9e92	0.36644417
125	0x3ea4d8fb	0.32196793
126	0x3d079f3f	0.033110853
127	0xbdc9f8ee	-0.09861933

actor_mean.weight f4 [2, 128]
0	0xbcbc2651	-0.02296749
1	0xbdb3f225	-0.0878642
2	0xbe09a7bb	-0.1344289
3	0x3ceff13a	0.02928983
4	0x3cccac82	0.024984602
5	0x3e895a92	0.26826912
6	0xbdf5ef97	-0.12008589
7	0xbb7539d1	-0.0037418494
8	0xbd13581c	-0.0359727
9	0x3c3864dd	0.011254516
10	0xbe26db87	-0.1629468
11	0x3b922607	0.0044600996
12	0x39d6def9	0.00040983388
13	0x3e0707cc	0.13186568
14	0xbd58587a	-0.052818753
15	0xbb87634d	-0.0041317106
16	0xbe31af7d	-0.173521
17	0xbc25c263	-0.010117146
18	0x3e72d3dd	0.23713632
19	0xbcb0dcd5	-0.021589676
20	0xbcde6e50	-0.02715221
21	0xbc85829f	-0.016297637
22	0xbdecdeeb	-0.11565956
23	0xbe525b0b	-0.20542543
24	0x3df1f1f4	0.11813727
25	0xbe1565c5	-0.14589603
26	0xbd0145e5	-0.031560797
27	0x3ca5331c	0.020165972
28	0x3d337803	0.043815624
29	0xbe406629	-0.18788971
30	0xbdba74f6	-0.0910434
31	0xbd91361c	-0.07090399
32	0xbde8ccde	-0.113672
33	0x3c3691d7	0.011143169
34	0xbd81af7a	-0.063322976
35	0xbd9a2a03	-0.07527544
36	0xbe5c40df	-0.21509121
37	0xbdfa6db4	-0.122279555
38	0x3df792e5	0.12088565
39	0x3c58994d	0.0132201435
40	0x3e703386	0.23457155
41	0xbe5383cb	-0.20655744
42	0xbd426c5d	-0.047466625
43	0xbdef8b02	-0.116964355
44	0xbe0cb216	-0.1373981
45	0xbdd656ce	-0.104657754
46	0x3cef14da	0.029184747
47	0xbdaffc4b	-0.08593043
48	0x3e06f817	0.13180576
49	0x3e9b441f	0.3032541
50	0xbe0eae89	-0.13933767
51	0xbdf1c4f7	-0.11805146
52	0xbe445b86	-0.19175538
53	0xbe845b65	-0.25850978
54	0xbd5d5945	-0.054040212
55	0xbd821073	-0.06350794
56	0xbe3b9e42	-0.1832209
57	0xbec1a3b9	-0.37820223
58	0xbdad806c	-0.0847176
59	0xbe8305a7	-0.2559025
60	0xbe48ccdd	-0.19609399
61	0xbe4644e5	-0.19362219
62	0xbdb32bf9	-0.087486215
63	0xbdb12ad6	-0.086507484
64	0xbe2b7d17	-0.16746937
65	0xbdcdfb57	-0.10057705
66	0xbd05c6d6	-0.032660328
67	0xbd8b82ca	-0.068120554
68	0xbcca3854	-0.024685062
69	0xbce54824	-0.0279885
70	0xbdbff1bd	-0.0937228
71	0x3cca2e1e	0.024680194
72	0xbe7c5a4d	-0.24643822
73	0xbd7cf454	-0.061756447
74	0x3d44ba47	0.04802921
75	0xbe2af365	-0.1669441
76	0xbe20f950	-0.15720105
77	0xbdf781d2	-0.12085308
78	0xbd8e3bfd	-0.069450356
79	0xbe05f81f	-0.13082932
80	0x3d267ccc	0.04064636
81	0xbe668811	-0.22512843
82	0xbe88865b	-0.26665005
83	0xbe2464e2	-0.16054109
84	0x3e096abc	0.13419622
85	0xbd4c9f71	-0.049956743
86	0xbd3bdccd	-0.04586487
87	0xbdb744f3	-0.08948698
88	0xbd7db0ba	-0.061936118
89	0xbd277033	-0.040878486
90	0xbe8621d2	-0.26197678
91	0x3d5a4aba	0.05329392
92	0xbd8d93f1	-0.06912983
93	0x3e0e3d38	0.1389054
94	0x3d011367	0.031512644
95	0xbc0a1892	-0.00842871
96	0x3d31cfaf	0.043410953
97	0xbe02217c	-0.12708086
98	0xbddd8a0b	-0.10817345
99	0xbdb622ab	-0.08893331
100	0xbd8b3fce	-0.06799279
101	0xbc78e421	-0.015191109
102	0x3e3f1b56	0.18662772
103	0xbc8e1270	-0.017342776
104	0xbdb4ad0a	-0.08822067
105	0xbd2abf55	-0.041686375
106	0xbe2e4a71	-0.17020585
107	0xbd923a29	-0.071399994
108	0x3d374958	0.04474768
109	0xbdb9c24a	-0.09070261
110	0xbd92b9bb	-0.071643315
111	0x3bef130d	0.007295972
112	0xbe07a9bc	-0.13248342
113	0x3e3486b8	0.17629516
114	0xbd4766f2	-0.04868216
115	0x3e5f36b6	0.21798214
116	0xbd245eee	-0.040129595
117	0x3d3abe66	0.045591734
118	0x3d8afebe	0.067868695
119	0x3d100ff8	0.03517148
120	0xbd401f86	-0.046905063
121	0x3d5ecb6a	0.05439321
122	0xbde6d04b	-0.112701975
123	0x3e1222de	0.14271113
124	0x3d1c9385	0.038226623
125	0x3c95cacf	0.018285183
126	0xbce66600	-0.02812481
127	0xbe06ccf2	-0.13164118
128	0xbd7516c6	-0.05983617
129	0x3defc9f8	0.11708444
130	0x3d54ebd9	0.051982734
131	0x3d60cf72	0.054885335
132	0x3d26c7e9	0.040717993
133	0xbe595b00	-0.2122612
134	0xbca80b17	-0.0205131
135	0x3d4b47e2	0.0496291
136	0x3b58e766	0.0033096909
137	0xbe30b803	-0.17257695
138	0xbcb1749c	-0.021662049
139	0x3d0c110a	0.034195937
140	0xbd223c19	-0.039608095
141	0xbdc28658	-0.0949828
142	0x3cc0658c	0.023485921
143	0x3b0d1710	0.002152864
144	0x3d271f97	0.04080161
145	0x3da8a6c0	0.0823493
146	0xbce3f76a	-0.027827937
147	0x3cff9ab1	0.031201692
148	0x3dabc53d	0.083872296
149	0xbd87c0ea	-0.06628592
150	0x3d9d2f3a	0.076750234
151	0x3e3290bf	0.17438029
152	0x3d9156e4	0.07096651
153	0x3d1b54b7	0.037922587
154	0xbd28c038	-0.04119894
155	0xbe995cdd	-0.29953662
156	0xbdc6782b	-0.09690889
157	0x3cff57e5	0.031169841
158	0x3d64ee35	0.055891234
159	0xbe0e7f2c	-0.139157
160	0xbdbad782	-0.09123136
161	0xbd125703	-0.035727512
162	0x3cec5ee6	0.028853845
163	0xbd7683d6	-0.060184322
164	0x3bf1174e	0.0073575145
165	0xbc37a9ba	-0.0112099
166	0xbd106732	-0.035254665
167	0x3e1dd0e4	0.15411717
168	0xbc6ac280	-0.014328599
169	0xbd6b9ad9	-0.05752072
170	0x3d97cfb9	0.07412667
171	0x3ddab998	0.106799304
172	0xbe062565	-0.13100202
173	0x3d93c629	0.072155304
174	0x3e137b66	0.14402542
175	0x3e116260	0.14197683
176	0xbd640a6f	-0.055674013
177	0x3da5c0d4	0.0809342
178	0x3cafb558	0.021448776
179	0xbd627dc2	-0.055295713
180	0xbd061d16	-0.032742582
181	0x3b9dfb4c	0.0048212167
182	0x3d5f3084	0.054489627
183	0x3c1b6dc9	0.009486624
184	0x3df46ff4	0.11935416
185	0x3e07fac2	0.1327925
186	0x3c87ffee	0.016601529
187	0xbdcb7844	-0.09935048
188	0x3d1e8e45	0.038709898
189	0xbd45ce0e	-0.048292212
190	0x3e2453df	0.1604762
191	0x3cd31aad	0.025769556
192	0xbb3121d0	-0.002702821
193	0xbcdf0689	-0.027224796
194	0x3e814ce0	0.25253963
195	0x3d0997c3	0.033591997
196	0xbd31e08e	-0.043427043
197	0xbd425f37	-0.047454085
198	0x3e56385c	0.20919937
199	0xbd2e9a54	-0.042627648
200	0xbd46f829	-0.048576508
201	0xbc876ff1	-0.01653287
202	0xbd80d948	-0.06291443
203	0xbd50829f	-0.05090582
204	0x3de412ec	0.111364216
205	0x3e548e58	0.20757425
206	0xbde8cc93	-0.113671444
207	0x3d41affe	0.04728698
208	0x3cb8f72b	0.022578796
209	0xbd4b93b0	-0.049701393
210	0x3c57982b	0.013158838
211	0x3e26cb3c	0.16288465
212	0x3e0def69	0.13860859
213	0x3e02df6e	0.12780544
214	0xbd602c2a	-0.054729618
215	0x3cff76f5	0.031184653
216	0x3c22aa07	0.009928233
217	0x3cf2037d	0.029542679
218	0x3e0fbcca	0.14036861
219	0xbb8276dd	-0.0039814548
220	0x3cd9ff69	0.026611047
221	0x3d125115	0.035721857
222	0xbdc28780	-0.09498501
223	0x3c9e2154	0.019303001
224	0x3dc1e5d2	0.09467663
225	0x3c462769	0.012094357
226	0x3dac4ed9	0.084134765
227	0x3d8c2639	0.06843228
228	0x3df6d30e	0.12051974
229	0xbd3d93cf	-0.04628354
230	0xbda1ebbf	-0.07906293
231	0x3d9b3494	0.07578388
232	0x3d5c0224	0.05371298
233	0xbe67c9c9	-0.22635569
234	0x3cc1e4cd	0.023668671
235	0x3dd02132	0.101625815
236	0x3c81eae5	0.015859077
237	0x3cb0ab39	0.02156602
238	0x3ddc838d	0.10767279
239	0x3d66e31f	0.056368943
240	0x3e47cb4b	0.19511144
241	0x3d918abf	0.07106542
242	0x3d666a44	0.056253687
243	0xbd0f79ac	-0.035028145
244	0x3d13cf2c	0.036086246
245	0xbda6be49	-0.08141763
246	0x3dcdf10d	0.100557424
247	0x3e13f56d	0.14449091
248	0x3d73b6d0	0.059500515
249	0xbcf0e5eb	-0.029406508
250	0xbdeee9ad	-0.11665664
251	0xbc97c02b	-0.01852425
252	0xbd90042e	-0.07032047
253	0xbd3a4158	-0.045472473
254	0x3c1d8483	0.009614113
255	0x3d10df57	0.035369243

actor_mean.bias f4 [2]
0	0xbdb13b18	-0.08653849
1	0x3d314647	0.043279912

critic.weight f4 [1, 128]
0	0x3ededc7e	0.43527597
1	0x3f0d9295	0.5530179
2	0x3f3874d9	0.72053295
3	0xbf5e656c	-0.8687351
4	0x3f919589	1.137376
5	0x3f0ddbff	0.5541381
6	0x3f3eb80a	0.7449957
7	0xbfb4fab7	-1.4139012
8	0xbfce1c97	-1.6102475
9	0x3f2fb6ce	0.6863831
10	0xbf87c8ef	-1.0608195
11	0xbfbd1a38	-1.4773626
12	0x3f4e74f9	0.80647236
13	0x3f2bf6c1	0.6717339
14	0xbf84b79f	-1.0368537
15	0xbf7309de	-0.9493693
16	0x3ee50340	0.44729042
17	0xbfba69ac	-1.4563498
18	0x3f108a71	0.56461245
19	0xbfb0b049	-1.3803798
20	0xbf8c8b5b	-1.0980028
21	0x3f1e98e5	0.6195205
22	0xbfbcfcdc	-1.4764667
23	0x3f38b3e7	0.7214951
24	0xbf7a1858	-0.97693396
25	0x3ed70ae0	0.42000484
26	0x3eccafad	0.3997778
27	0x3f319c4f	0.69379133
28	0x3f1b7948	0.60731936
29	0x3f03124d	0.511998
30	0xbfb94989	-1.4475566
31	0xbf91d6f2	-1.1393721
32	0xbf9dc6c7	-1.2326287
33	0x3f1b83d6	0.6074804
34	0xbf8641e9	-1.0488864
35	0x3eab09ff	0.33406064
36	0xbfa2221b	-1.2666658
37	0x3d9b0424	0.07569149
38	0xbf7fdd56	-0.99947107
39	0x3f2fa2f9	0.6860805
40	0x3ef6b759	0.48186758
41	0x3f0306fe	0.51182544
42	0xbfd254dc	-1.6432147
43	0x3ec19646	0.37809962
44	0xbf720680	-0.9454117
45	0xbfcd7abb	-1.6053079
46	0x3f51a00a	0.81884825
47	0xbfa88a8f	-1.3167285
48	0x3f0c89a3	0.54897517
49	0x3f9fcb4d	1.2483917
50	0xbfa63c68	-1.2987185
51	0x3efcc87f	0.49371716
52	0xbf86d3fe	-1.0533445
53	0x3edb9cf6	0.4289319
54	0xbfa6eb8b	-1.3040632
55	0x3eee12d6	0.46498746
56	0x3f00480f	0.5010995
57	0x3f6e7074	0.9314034
58	0xbeb0ab32	-0.34505612
59	0x3f4ca86e	0.79944503
60	0xbf1f09d4	-0.6212437
61	0x3f20d77c	0.62828803
62	0xbfa817a0	-1.313221
63	0xbf410c21	-0.7540913
64	0xbf4306fa	-0.7618252
65	0xbfa96306	-1.3233345
66	0x3f16f447	0.5896649
67	0xbfc2ef44	-1.5229268
68	0xbfa6adf1	-1.3021833
69	0xbfc58f93	-1.543444
70	0xbfaad35b	-1.334575
71	0x3eb12156	0.34595746
72	0x3f56d417	0.83917373
73	0xbf91d0f5	-1.1391894
74	0x3ec457d2	0.38348252
75	0x3f253fe2	0.645506
76	0x3f4ca057	0.7993216
77	0xbf8b6ae6	-1.0891998
78	0xbfa6bf13	-1.3027061
79	0xbf9b4f98	-1.2133665
80	0x3f89c20a	1.0762341
81	0xbf29cb82	-0.66326153
82	0xbfc2f451	-1.523081
83	0xbec3c86f	-0.38238856
84	0x3f3737d2	0.7156955
85	0xbf6c740b	-0.9236457
86	0xbfb2d05e	-1.3969839
87	0xbfa9fc5b	-1.3280138
88	0xbf7b6c51	-0.9821215
89	0xbfb6c53e	-1.4278944
90	0x3f2fd676	0.68686616
91	0x3f41e92f	0.75746435
92	0x3ee18801	0.44049075
93	0x3eeab877	0.4584386
94	0x3f43d2c2	0.76493466
95	0x3ed4d4c7	0.41568586
96	0x3f12e4e8	0.57380533
97	0x3f5c25d4	0.8599522
98	0x3eed2657	0.46318313
99	0xbeeddd9e	-0.46458143
100	0x3f9bd615	1.2174708
101	0xbeec7290	-0.46181154
102	0x3f0037cb	0.50085133
103	0xbfb22287	-1.3916787
104	0x3f007c28	0.5018945
105	0x3f780c59	0.9689384
106	0x3f0ec030	0.55762005
107	0xbfafdb44	-1.373879
108	0xbfb28038	-1.3945379
109	0x3ed8d1a0	0.4234743
110	0x3f3dc875	0.74134
111	0x3edef1eb	0.43543944
112	0x3f61362c	0.87973285
113	0x3eb56989	0.3543208
114	0x3ed62d06	0.41831225
115	0x3f0faf6a	0.56127036
116	0xbfd0dd40	-1.631752
117	0x3ef69f17	0.4816825
118	0x3ea5dd15	0.32395235
119	0x3f1f873d	0.6231573
120	0x3f0077dc	0.5018289
121	0xbfb31802	-1.3991702
122	0xbf6ef788	-0.9334645
123	0x3ece3f4d	0.4028267
124	0x3f5ed55d	0.87044317
125	0x3f4221ef	0.7583303
126	0xbfa07476	-1.2535541
127	0x3edb0526	0.42777365

exp_avg f4 [2]
0	0xb9080e10	-0.0001297521
1	0x38b6886e	8.703848e-05

exp_avg_sq f4 [2]
0	0x352706ad	6.222206e-07
1	0x35059b4c	4.977235e-07

exp_avg f4 [128, 18]
0	0xb86e2a9f	-5.6783316e-05
1	0xb8d1c644	-0.000100028265
2	0xb98ca314	-0.00026824384
3	0x39331e02	0.00017081949
4	0x37fe68eb	3.0328016e-05
5	0xb7ff7316	-3.045196e-05
6	0x385eab61	5.3088534e-05
7	0xb81d59b3	-3.7515256e-05
8	0x38a3ac13	7.804497e-05
9	0xb7d9d8e7	-2.5969419e-05
10	0x38030b85	3.1243562e-05
11	0x38c78833	9.5144285e-05
12	0x38995e58	7.3131814e-05
13	0x39907810	0.00027555274
14	0x00000004	6e-45
15	0x38bec6e6	9.096954e-05
16	0x38c2c32e	9.286996e-05
17	0x38c6eb5f	9.485217e-05
18	0xb88d9656	-6.751406e-05
19	0xb92edc88	-0.00016676087
20	0xb997e6b8	-0.00028972863
21	0x391fd795	0.00015243732
22	0x377dcc8b	1.5127599e-05
23	0xb7e14a90	-2.6856811e-05
24	0x38494820	4.7989306e-05
25	0x38c9c5c0	9.621261e-05
26	0x35ba47e2	1.3879e-06
27	0x392f3434	0.00016708748
28	0x382505b5	3.934438e-05
29	0x390f5f0a	0.00013672948
30	0xb703fc1c	-7.866907e-06
31	0x399d8f47	0.00030052123
32	0x00000004	6e-45
33	0x390b69a0	0.00013295421
34	0x390d3287	0.00013465631
35	0x390f0cbe	0.0001364229
36	0xba802f0d	-0.0009779647
37	0xba3eb2ac	-0.0007274549
38	0xba34f462	-0.0006902871
39	0x3a9c0cb5	0.0011905642
40	0x3a56b74a	0.00081907643
41	0x3a0f7238	0.0005472037
42	0x3a95ca2c	0.001142805
43	0x3a46b939	0.0007580701
44	0x3a63725b	0.0008676403
45	0x3a5f19eb	0.0008510637
46	0x39ceec8e	0.0003946763
47	0x3b0296f8	0.001992641
48	0xb8f8cbfe	-0.00011863558
49	0x3a2cc63f	0.000659082
50	0x00000004	6e-45
51	0x3b014df5	0.0019730304
52	0x3b018f24	0.0019769156
53	0x3b0239d5	0.0019870896
54	0xb9e9d384	-0.00044598815
55	0xbab1a6bd	-0.001355372
56	0xbaabfc53	-0.0013121463
57	0x3a6df6eb	0.0009077626
58	0x39f833f7	0.00047340963
59	0xb991bcd4	-0.00027797243
60	0x3a628ab4	0.0008641884
61	0x3a5e5c83	0.0008482413
62	0xb8a41edc	-7.8258774e-05
63	0x3a98074c	0.0011598854
64	0x388bcbb7	6.665981e-05
65	0x3a99a6bf	0.0011722668
66	0xba08ba27	-0.0005215727
67	0x3aa4744f	0.001254687
68	0x00000004	6e-45
69	0x3a936318	0.0011244742
70	0x3a99e23a	0.0011740394
71	0x3a9a4502	0.0011769834
72	0xb985d204	-0.0002552421
73	0x38b4d70e	8.623126e-05
74	0xba1748b0	-0.0005771024
75	0x39fd7dc1	0.00048349614
76	0x399e2af8	0.00030168123
77	0x3803dfc7	3.1441243e-05
78	0x394bc302	0.00019432235
79	0x39dbbeaf	0.00041913005
80	0x37c3d9ea	2.3347286e-05
81	0x3810578e	3.4413817e-05
82	0x38e461df	0.00010890117
83	0x3a04673c	0.00050507835
84	0x39f6919f	0.00047029273
85	0x39f9d3b3	0.0004765071
86	0x00000004	6e-45
87	0x3a060e34	0.0005113811
88	0x3a04c1be	0.000506427
89	0x3a05391c	0.00050820573
90	0xba266c5d	-0.0006348545
91	0xba60fb0b	-0.000858233
92	0xb807e1f2	-3.2396936e-05
93	0x38de607b	0.00010603756
94	0x392298c4	0.00015506434
95	0x3925bff3	0.00015807133
96	0x3a503b1c	0.00079433783
97	0xbb00f234	-0.0019675614
98	0x3b09c83c	0.002102389
99	0xb8918b1a	-6.9400485e-05
100	0x3865a8d0	5.4755074e-05
101	0x3aa836d5	0.0012833724
102	0xba34ee91	-0.0006902004
103	0x391c4e16	0.00014906409
104	0x00000004	6e-45
105	0x3aa7ac03	0.0012792352
106	0x3aa7ea81	0.0012810976
107	0x3aa82c75	0.0012830632
108	0xb834ab89	-4.30751e-05
109	0xb89ac2cb	-7.379575e-05
110	0xb987e973	-0.0002592314
111	0x392101d0	0.00015354832
112	0x379b5aa4	1.8519648e-05
113	0xb81fdf5f	-3.8116585e-05
114	0x380164e1	3.0849948e-05
115	0xb837a368	-4.3782784e-05
116	0x389dcb34	7.524193e-05
117	0xb7fc7e3a	-3.009952e-05
118	0x37d92516	2.5885685e-05
119	0x38b40fb1	8.5859916e-05
120	0x38985564	7.26383e-05
121	0x3982deb0	0.00024961447
122	0x00000004	6e-45
123	0x38ac0b96	8.203757e-05
124	0x38afa183	8.374734e-05
125	0x38b36e8b	8.5559754e-05
126	0xb9eda648	-0.00045328052
127	0x3a82168d	0.0009924934
128	0xbaf58ec2	-0.0018734562
129	0x3a954e31	0.0011391101
130	0x3a432cd8	0.0007445342
131	0x3984a175	0.00025297297
132	0x3a05a16b	0.00050976005
133	0x3ae09367	0.0017133773
134	0xba5c69a5	-0.0008408076
135	0x39fb821e	0.00047971396
136	0x399ab9f8	0.00029511726
137	0x3a726510	0.0009246627
138	0x3ae2b65f	0.0017296782
139	0x3ab39b65	0.0013702927
140	0x00000004	6e-45
141	0x3a7292b0	0.00092534255
142	0x3a70d52a	0.00091870374
143	0x3a71ca80	0.0009223595
144	0x3a532f94	0.0008056101
145	0x38fe2b5b	0.000121197394
146	0x3b097692	0.0020975214
147	0xba95773f	-0.0011403336
148	0xba0bedb6	-0.0005337851
149	0xb8589438	-5.1636453e-05
150	0xba3b8dc9	-0.00071546115
151	0xb92057d3	-0.00015291506
152	0xba0df8db	-0.00054158055
153	0xb876bc04	-5.8826074e-05
154	0xb9493543	-0.00019188695
155	0xbaec13b1	-0.001801124
156	0xba8b0c93	-0.0010608606
157	0xbae5d39e	-0.001753438
158	0x00000004	6e-45
159	0xbaef7f33	-0.0018272161
160	0xbaed992c	-0.0018127314
161	0xbaed8e94	-0.0018124157
162	0xb94ddcec	-0.00019632623
163	0x3abb402e	0.0014286095
164	0xb91139eb	-0.00013849854
165	0x39cf20be	0.00039506512
166	0x39d57db7	0.0004072019
167	0x3a0fee05	0.0005490485
168	0xb8b8f58f	-8.8195426e-05
169	0x3b2a6e9f	0.0026005877
170	0xbab00a43	-0.0013430793
171	0x39e460de	0.0004355972
172	0x397fdb25	0.00024400333
173	0x398fbeab	0.00027417144
174	0x3abab1bc	0.0014243643
175	0xb986060d	-0.0002556298
176	0x00000004	6e-45
177	0x3992bad4	0.00027986488
178	0x398c6ac0	0.00026782416
179	0x398df7fe	0.00027078384
180	0xbae1d747	-0.0017230295
181	0xba1fde63	-0.0006098507
182	0xbb7dfab3	-0.0038754165
183	0x3b42793e	0.0029674317
184	0x3afb5c13	0.001917722
185	0x3a09c910	0.0005256096
186	0x3af480be	0.0018654091
187	0x3acb6496	0.0015517648
188	0x3a44c4fa	0.00075061584
189	0x39c737d6	0.0003799784
190	0x3a1d6d27	0.00060053397
191	0x3b687efc	0.003547608
192	0x3af3c5d4	0.0018598386
193	0x3b609c4d	0.003427285
194	0x00000004	6e-45
195	0x3b668b6d	0.003517832
196	0x3b6714f3	0.003526029
197	0x3b680bcd	0.0035407424
198	0xb8690c07	-5.556273e-05
199	0xb8cef8b4	-9.86917e-05
200	0xb98730b2	-0.00025785487
201	0x392ec2c4	0.00016666489
202	0x37f82805	2.958254e-05
203	0xb7f94018	-2.9712959e-05
204	0x385cc7d2	5.2638185e-05
205	0xb81559c7	-3.560798e-05
206	0x38a5b59b	7.90164e-05
207	0xb7c6d828	-2.3704095e-05
208	0x3801df51	3.0963976e-05
209	0x38c5098f	9.3954724e-05
210	0x388f3ac1	6.829715e-05
211	0x398acf23	0.0002647574
212	0x00000004	6e-45
213	0x38bc667a	8.983626e-05
214	0x38c04a48	9.1691094e-05
215	0x38c46537	9.364861e-05
216	0xb99dddea	-0.00030110712
217	0x3ab0cb7e	0.001348838
218	0x3a14712b	0.00056626153
219	0xb9a33890	-0.00031131925
220	0x39f14d0d	0.0004602451
221	0x39b9e3ca	0.00035455666
222	0x39eb5928	0.0004488912
223	0x3981f8e4	0.00024790235
224	0x38964f55	7.167334e-05
225	0x37094378	8.181545e-06
226	0x37ba6f9d	2.2224902e-05
227	0x3a1204a3	0.0005570149
228	0x3a695b67	0.00089018646
229	0xba7a6b87	-0.0009552766
230	0x00000004	6e-45
231	0x3a11ecd0	0.0005566599
232	0x3a11fdd0	0.0005569132
233	0x3a11f016	0.00055670866
234	0xb86dea44	-5.672338e-05
235	0xb8d0761b	-9.940212e-05
236	0xb98d76da	-0.00026982167
237	0x39341c04	0.00017176574
238	0x37f07f14	2.8669405e-05
239	0xb7f5e1e9	-2.9311474e-05
240	0x38621dcb	5.3910346e-05
241	0xb81b33ab	-3.7003e-05
242	0x38a7225c	7.9695805e-05
243	0xb7f8aa33	-2.9643159e-05
244	0x37f8ab86	2.9643776e-05
245	0x38c9c8c5	9.621823e-05
246	0x389c9c58	7.467781e-05
247	0x39907f88	0.00027560838
248	0x00000004	6e-45
249	0x38c1381d	9.213409e-05
250	0x38c52953	9.401389e-05
251	0x38c92bd0	9.5925876e-05
252	0xb853b32b	-5.0473183e-05
253	0xb8c69162	-9.4684554e-05
254	0xb9863bec	-0.00025603117
255	0x392777da	0.00015971009
