models/pretrained_A2C_target.pt (torch, 945378 bytes, 36 tensors)

actor_logstd f4 [2]
000000 82 23 9d 3c 46 cf 64 3c
       0.01918197 0.013965433

shared.0.weight f4 [256, 31]
000000 4c dc 85 3a 84 ca f0 bd df 3b 44 bd 8d 9d 38 be
       0.0010212748 -0.11757377 -0.04790866 -0.18028851
000010 ea ae 1f 3e 09 93 d6 bd 0d 58 79 bd 2d 31 24 bd
       0.15594068 -0.104772635 -0.060874987 -0.04008596
000020 82 83 14 be 61 02 45 3e 12 ff 0f 3e 9c 74 2a 3e
       -0.14503291 0.19239189 0.14062145 0.16646045
000030 3c 74 72 bd 4d 0e 27 be 09 35 16 3e 2f 5c 04 3d
       -0.05919288 -0.16314049 0.14668669 0.032314476
000040 c5 c1 af 3d 06 8d c6 3c 68 bb f7 3d 57 72 5e 3b
       0.085818805 0.024237167 0.12096292 0.0033942664
000050 33 6f 2e be 39 59 42 bd 57 90 d3 bd 89 c2 b1 bd
       -0.17034607 -0.04744837 -0.10330265 -0.08679683
000060 55 b4 35 bc 77 13 0a 3e b5 80 13 be cd a7 ea 3d
       -0.011090358 0.13483988 -0.14404567 0.11457787
000070 19 07 1e be 00 45 f3 3d 0c 6e fa 3d 37 da 8b bd
       -0.15432395 0.11878395 0.12228021 -0.068287306
000080 12 3d e2 bc 12 d9 85 3d b0 df 7b 3d 36 a7 6f bd
       -0.027617011 0.065355435 0.061492622 -0.058509074
000090 21 89 7d bd 4c f8 53 bc 6c c2 13 3d 54 83 9a 3d
       -0.061898354 -0.012937617 0.036074087 0.0754458
0000a0 c9 4e 05 3e 81 8f 92 3d 8b 0c d1 3d 83 60 bb 3d
       0.13018335 0.071562774 0.102074705 0.091492675
0000b0 89 80 d9 bd 2d 47 26 3e 91 23 2b be 8a e6 37 bc
       -0.10620219 0.16238089 -0.16712786 -0.011224398
0000c0 a7 4a 97 3d cf 24 0e be 54 c1 94 bd b6 56 0c be
       0.07387286 -0.13881229 -0.07263437 -0.13704953
0000d0 e4 3d 45 3c ec 53 16 3e 8b 36 07 3e 88 43 f4 bd
       0.012038682 0.14680451 0.132044 -0.11926943
0000e0 e3 45 23 bd 83 ca 59 3c aa ae 1a bd 9b e8 2e be
       -0.03986157 0.013292911 -0.03776423 -0.1708092
0000f0 76 40 16 3e 94 8b 28 3e 3b e3 3e be 15 d8 38 3e
       0.14673027 0.16459495 -0.18641369 0.18051179
000100 bc 41 4b bd c2 88 01 be 1f 14 93 3d c0 78 a9 3d
       -0.049623236 -0.12649825 0.07181572 0.08274984
000110 e8 83 52 be ae f9 a2 bd 11 79 05 be d0 eb e2 3d
       -0.2055813 -0.07957779 -0.13034464 0.11080134
000120 04 b5 82 bd d7 15 92 bd 6c 49 9b bc 07 f2 c0 3c
       -0.06382182 -0.07133072 -0.018955909 0.023552908
000130 98 b3 0c 3e 1d b7 17 be d1 36 07 be 55 0a 27 bc
       0.13740385 -0.14815946 -0.13204505 -0.010195334
000140 f2 8c 73 3d d8 98 43 3d 78 82 c6 3c f5 53 af 3c
       0.059460588 0.047753185 0.024232134 0.021402339
000150 ed ab f8 bd be 55 c5 3d ac 3f aa bc 64 04 c5 3d
       -0.12142167 0.09635495 -0.020782314 0.09619978
000160 0e 08 20 3c 6a 0e 9a bd e5 e0 35 3e 0d c3 00 3e
       0.009767545 -0.075222805 0.17761572 0.12574406
000170 05 0e 2b 3d 88 7f 9c bd e3 52 c8 bd 2d 3c 06 3e
       0.041761417 -0.07641512 -0.097814344 0.13108893
000180 08 20 04 3e 61 e5 9c bb f1 0d 21 3e b8 72 b4 bc
       0.12902844 -0.0047880863 0.15727974 -0.022027358
000190 ae fc ba 3a 36 69 22 be db 55 37 be b2 7c 0b be
       0.0014265978 -0.15860447 -0.17903845 -0.13621786
0001a0 86 75 c5 3d ef ed 2d 3d 0c 41 32 3e 3d db 05 be
       0.096415564 0.04246324 0.17407626 -0.13071914
0001b0 68 b2 0c 3d 99 94 04 3e be 67 4e 3d dd a9 d8 3d
       0.03434983 0.1294731 0.050391905 0.10579274
0001c0 17 ac a7 bd 5f 50 16 be c0 ed 84 3d f0 b4 7b bd
       -0.081871204 -0.14679097 0.0649066 -0.061451852
0001d0 78 9d b9 3c fc 3d ac 3d ca ec b5 bd 9c d1 29 3e
       0.022658095 0.0841026 -0.088830546 0.16583866
0001e0 c5 d9 4a 3c 74 90 ec 3c 95 f6 06 3e b6 7e 8c bd
       0.012381022 0.028877474 0.13180001 -0.06860106
0001f0 8c 19 17 3e 13 26 08 be 2f 79 b5 3d b8 b7 12 bd
       0.14755839 -0.13295774 0.088610046 -0.03581974
000200 d7 dc ed 3d 2c b5 a9 3c 75 da dc bd 8c d7 00 3e
       0.116143875 0.020716272 -0.10783855 0.12582225
000210 87 68 37 3e 3c fe d3 3d 7c da c2 3d ad 3a 15 bd
       0.17910968 0.10351226 0.09514329 -0.03643291
000220 13 7c 85 3c 0f bf 1c 3e 78 8e e1 bc 1f cc 16 be
       0.016294515 0.15307258 -0.027533755 -0.14726304
000230 d6 cf e6 bc 52 da 30 3a 52 f6 60 3c 9f 57 32 be
       -0.028175276 0.00067463994 0.013730602 -0.17416237
000240 9a 93 23 3e cd a5 c3 3d 0f c3 3f 3d 4b 19 3d be
       0.15974274 0.09553108 0.04681688 -0.1846668
000250 88 22 dd 3d 4e 56 c1 bd b4 75 89 3d 39 03 20 be
       0.10797602 -0.094402894 0.06711903 -0.1562623
000260 be e6 14 3e 5f 18 0e 3d 24 83 7e bd 3e 6a de 3d
       0.14541146 0.03469121 -0.062136784 0.10860108
000270 7a c9 ab 3c 7a c3 32 be ec c5 fc bd 26 c1 1f be
       0.020970095 -0.17457381 -0.12342438 -0.15601024
000280 a8 50 17 3e 06 e2 f7 bd 3e 1c 42 be e7 26 01 be
       0.14776862 -0.121036574 -0.18956086 -0.12612496
000290 e0 f4 83 3d 72 23 ed bc bb 65 08 be 0a 63 25 3e
       0.064431906 -0.028947566 -0.13320057 0.16151062
0002a0 78 ed 0f bd 69 09 8b bd 6e 13 39 3e 1b c1 e2 3c
       -0.035138577 -0.06788904 0.18073818 0.02767997
0002b0 56 91 a9 bd be a3 15 3e 73 86 42 bd 90 16 46 3e
       -0.08279674 0.14613244 -0.047491502 0.19344544
0002c0 56 f7 eb ba b9 5e 33 3c eb db 02 3e 8d 52 7c bd
       -0.0018002789 0.010947877 0.12779205 -0.061602164
0002d0 ce 1d 49 3e 34 78 12 3e e8 a7 a3 3d c0 5d a4 bd
       0.19640276 0.14303666 0.0799101 -0.08025694
0002e0 2b 39 06 bd 7f 6a 52 3d 76 e2 e3 bd 1c eb 39 3c
       -0.032769363 0.051371094 -0.11127178 0.011347558
0002f0 27 5f 59 bd 9c 03 e7 3b 61 de 24 be 53 8b 0b 3e
       -0.05306926 0.007049991 -0.16100456 0.13627367
000300 d5 0c 03 be 00 54 1a bc 1d a4 31 be e5 db 2b 3d
       -0.12797864 -0.009419441 -0.1734776 0.041957755
000310 0c bf c8 bd 5e b8 05 3e 23 b8 34 be 7f 06 27 3d
       -0.09802064 0.13058612 -0.17648368 0.04077768
000320 0c 4c 03 3e 2f 48 e5 3d 4d e4 a5 bd ff ef ef bd
       0.12821978 0.111954086 -0.081001855 -0.117156975
000330 50 19 14 bd bb cc a0 bd c0 18 1a be 1c e6 cf 3d
       -0.036156952 -0.07851549 -0.15048504 0.10151312
000340 84 aa 10 3e 43 7f ec bd f6 74 03 3c ec c9 d3 bd
       0.14127547 -0.11547711 0.008023491 -0.10341248
000350 31 13 e6 3d 9a ba 0b 3e 14 02 97 3d 91 da f7 3d
       0.11234129 0.13645402 0.07373443 0.12102235
000360 f0 3d 69 bb 19 c5 01 be ee c6 4f bd fb 90 43 be
       -0.0035589896 -0.12672843 -0.050726824 -0.19098274
000370 75 ac 15 3e 1c 7d cf 3d 4f 4b 80 3b d8 de 89 3c
       0.14616568 0.101312846 0.0039152275 0.016829893
000380 0c 18 02 be 61 47 10 3e 77 37 cd 3c 32 81 07 3b
       -0.12704486 0.14089729 0.025050862 0.0020676372
000390 2c e0 31 3e b9 92 1e be de e6 24 be 4c 81 40 3e
       0.17370671 -0.15485658 -0.16103694 0.18799323
0003a0 7f c2 c8 bc 65 02 0b 3e 4f fc 90 bd 61 5d 4f 3d
       -0.024506805 0.13575132 -0.07079374 0.050626162
0003b0 27 0b 28 be 45 e3 48 bd a9 a6 39 3b e6 cb b2 bd
       -0.16410504 -0.049044866 0.0028328097 -0.08730297
0003c0 3f b1 03 3e 45 c6 b9 3d 80 0a bd bd 8a d1 b1 bd
       0.12860583 0.0907102 -0.09230518 -0.086825445
0003d0 a7 a2 12 3e 16 8d c3 bd e7 53 01 be b7 7a 06 3d
       0.1431986 -0.095483944 -0.12629662 0.032831874
0003e0 d6 c4 be 3d f2 2e ec ba ee 49 29 3d 87 b8 2e be
       0.09314887 -0.0018019362 0.04133027 -0.17062579
0003f0 c9 80 6d bc 0b 1b 57 bc 2a af 1d 3e 1c 7f c5 bd
       -0.014496037 -0.013129006 0.15398851 -0.09643385

shared.0.bias f4 [256]
000000 ac 06 af bc 5e 62 c1 3d 52 18 bb bd 9a da 5f 3d
       -0.021365486 0.0944259 -0.09135498 0.054651834
000010 4a 1a 1b bd 29 ce f3 bd 53 37 02 be 07 bc 20 be
       -0.037866868 -0.11904556 -0.12716417 -0.15696727
000020 fd 32 e6 bd 25 bf a2 bd 8b 22 23 be 88 46 c3 3d
       -0.11240194 -0.07946614 -0.15931146 0.09534937
000030 bc 94 1e bd 14 a1 bc bd 5d db 3e 3e 42 e5 f2 3d
       -0.038716063 -0.09210411 0.18638368 0.11860134
000040 ea 85 9a bd b6 93 b3 3d f4 b8 63 3d a4 5b 30 bd
       -0.07545073 0.08768408 0.055596307 -0.043056145
000050 d0 63 bf 3d 22 b9 8c bd 1d a3 18 3e dc 62 43 3d
       0.093452096 -0.06871249 0.14905973 0.0477017
000060 ea 41 0f 3e 20 8a 0c be 2d 31 51 3d d2 5d 15 be
       0.13989988 -0.13724566 0.05107229 -0.14586571
000070 15 95 13 bd bf 1c 14 3e 34 68 8c bd 7b 80 18 3c
       -0.036030848 0.14464091 -0.06855813 0.009307976
000080 77 16 01 be 9e 67 5c bd f8 68 d7 bd 86 5c aa 3c
       -0.12606226 -0.053809755 -0.10518068 0.020796072
000090 ca 12 c3 3d 56 4b 03 3e 98 84 3c 3d a5 95 e8 bd
       0.09525068 0.12821707 0.04602489 -0.113566674
0000a0 a0 85 0f be c3 fb 2d bc 2c f0 46 bd 62 ce ab 3b
       -0.14015818 -0.010619107 -0.04856889 0.0052431086
0000b0 b1 a5 8e bd 8e 69 1f 3e 72 e3 af bd 33 f2 77 3d
       -0.06965197 0.1556761 -0.085883036 0.060533714
0000c0 1d ca f4 3d e4 e9 c0 bd 98 bd 1c 3e 1b d0 91 3d
       0.119526125 -0.09419611 0.153067 0.07119771
0000d0 a3 86 07 3e 13 9b ec bd 6b d6 36 be cc c5 26 3e
       0.13234954 -0.115530156 -0.17855231 0.16286391
0000e0 38 4d 04 be 44 5f 30 3e b0 fd 07 3e f5 74 10 3e
       -0.12920082 0.17223841 0.13280368 0.14107116
0000f0 7a 57 22 3e 70 59 f3 bd 65 34 a9 3d a4 e5 16 be
       0.15853682 -0.11882293 0.082619466 -0.14736038
000100 b0 d3 21 be 9a be c9 3d 14 8d b6 bd 63 38 13 3e
       -0.15803409 0.098508075 -0.08913627 0.14376979
000110 e9 d7 d7 b9 7e 87 f6 bd 74 ab 6e bc 90 7d c0 3c
       -0.0004116886 -0.12037562 -0.014567245 0.023497373
000120 69 74 0e 3e ba d0 cd 3d 71 b6 1b 3d 6e 47 f2 bd
       0.13911594 0.10049577 0.038015787 -0.118300304
000130 36 44 39 3e 7b 06 9f 3d 9d 7b f4 bc de a3 62 3d
       0.18092427 0.07764908 -0.0298441 0.055332057
000140 e2 ca 31 be 5c d0 0e be 11 ae 93 3d f2 fe 04 be
       -0.1736255 -0.1394667 0.07210935 -0.12987879
000150 f5 61 5a 3d f2 97 fc bd 3f 00 4c 3d a9 e8 99 bd
       0.053316075 -0.12333669 0.049804922 -0.075150795
000160 2a 1e 8d bc b5 82 75 3d a7 fd 77 ba 22 88 ce bc
       -0.017226297 0.059939105 -0.00094600994 -0.025211398
000170 32 1b 18 3b 19 4e 8f 3d b5 5c 06 be 5b b1 00 be
       0.002320957 0.06997318 -0.13121302 -0.12567656
000180 5e e8 2e 3d ce 25 83 bd f6 8c 0d be 29 0e 98 bd
       0.04270207 -0.06403695 -0.13823304 -0.07424576
000190 9a 45 95 3d 4f a6 fd 3d 3b da 2f bd 03 80 5c bc
       0.07288666 0.123852365 -0.04293273 -0.013458255
0001a0 fb 65 ca 3d a4 69 30 3e 8f 59 d2 bd 2f 07 58 bd
       0.098827325 0.17227799 -0.10270988 -0.052741226
0001b0 3a a1 41 be 66 fc a0 3c e5 c9 10 bd 0c 81 5d 3d
       -0.1890916 0.019651603 -0.03534879 0.054078147
0001c0 fa c9 f3 3c 2a b7 23 3e 51 3e 2a bd 06 73 1e 3e
       0.029759396 0.1598784 -0.041563336 0.15473565
0001d0 df 5c 75 bd 52 73 d3 3c 3e 20 9b bb 23 b3 0d 3d
       -0.059903022 0.025811825 -0.004734068 0.034594666
0001e0 5e c9 1d bd 6c 2e 99 bd 97 b5 0f 3d b5 63 56 bc
       -0.038522117 -0.074795574 0.035085287 -0.013085295
0001f0 a9 8a 53 bd e9 b3 7a bd f3 3d 24 3e 3e e9 8f 3d
       -0.05164591 -0.061206732 0.16039257 0.07026909
000200 c9 bd ac 3d e3 5c de bd 7c ce 12 be 95 58 00 be
       0.08434636 -0.108575605 -0.1433658 -0.12533791
000210 4e de 44 bd b1 54 1a 3e 05 fa 2e be c7 80 1f be
       -0.04806357 0.1507137 -0.17087562 -0.15576468
000220 ea c4 c4 3d 9f d6 b6 bd 9f b7 1f 3e c6 fb 13 bc
       0.09607871 -0.089276545 0.1559739 -0.009032195
000230 29 fe d0 3d 38 e0 f9 3d d2 d5 b9 bd 2c e0 ee 3d
       0.10204727 0.122009695 -0.09073986 0.11663851
000240 5c 57 88 bc 7d 14 ca 3c 8b f7 11 be 1a 3f 8d 3c
       -0.016643219 0.024667973 -0.14254586 0.017242003
000250 01 44 02 3e ca 5b 0c be 69 87 ef 3d fe 01 08 be
       0.12721254 -0.1370689 0.11695749 -0.1328201
000260 f8 63 94 bd 52 ed 1b be 92 79 12 be f2 f9 1f be
       -0.0724563 -0.1522725 -0.14304188 -0.1562269
000270 7e bd b4 bd 8d c1 e5 3d ba f8 dc bc 89 31 9f bd
       -0.08825205 0.112185575 -0.02697407 -0.0777312
000280 ec 83 1f be f4 b1 00 be 63 da f7 3d ef 7d 0b 3e
       -0.15577668 -0.12567884 0.12102201 0.13622259
000290 4b ad f2 3d e1 48 61 bd 2b 6e ef 3d 3d 1d 7c 3c
       0.11849459 -0.055001143 0.11690935 0.01538783
0002a0 1c 1d 6e bd ff 5e 96 bd b6 e7 08 be 17 d9 06 bd
       -0.05813323 -0.07342338 -0.1336964 -0.032921877
0002b0 ff e7 05 be 16 eb 8e bb c2 c2 17 3d 8a ef af 3d
       -0.1307678 -0.0043615205 0.03705097 0.0859061
0002c0 0b 01 82 bd ed 0b f1 3d 08 b1 d5 3d 3d ca c1 bd
       -0.06347855 0.11769853 0.10434157 -0.09462402
0002d0 8c d5 1c be 6a 0a e3 3d 1e 87 92 bd 21 3e 95 bd
       -0.15315837 0.11085971 -0.07154678 -0.07287241
0002e0 36 48 44 3e 94 e3 f1 bd 23 64 cf 3d 98 7e 63 bc
       0.19168171 -0.11810985 0.101265214 -0.013885163
0002f0 51 67 96 bd 26 0c 8b bd 40 cc 04 b7 da db ea bd
       -0.07343925 -0.067894265 -7.915369e-06 -0.114677146
000300 34 61 fc bd a7 e0 eb 3d fc ba d5 3c 59 74 1d 3e
       -0.123232275 0.115174584 0.026090138 0.15376414
000310 1d 78 39 3e 81 18 28 bd 6d ea 1a 3d 88 c3 08 3e
       0.18112226 -0.041038994 0.037821222 0.13355839
000320 9f 34 20 bd 9e d8 05 3e 5b 0e 35 be de 93 18 3e
       -0.039112683 0.13070914 -0.17681257 0.14900157
000330 3c ef 0a 3e b4 52 88 3b 16 ea b9 bd fa 97 25 bc
       0.13567823 0.0041602496 -0.090778515 -0.010107035
000340 85 ba 0f 3e 64 9b 19 be f6 fd dc 3b ca 89 f6 bb
       0.14035995 -0.15000683 0.0067441417 -0.00752375
000350 d6 f7 1c 3e 5c 42 6d bd c8 49 4d 3d 21 4d 4c 3d
       0.15328917 -0.057924613 0.05011919 0.049878243
000360 22 af d8 bc 05 83 02 3e c3 75 b0 3c bc 67 9c bd
       -0.026450697 0.12745292 0.021540528 -0.07636973
000370 10 a0 1e be f5 ae ca bd bc 2e 34 3e 15 62 2c 3e
       -0.15490746 -0.09896652 0.17595953 0.1683429
000380 03 f3 23 3d 8b da a8 3d 37 cb 39 3e 6b 12 cb 3d
       0.040026676 0.08244809 0.18143927 0.09915622
000390 2b bd 3b 3e 98 53 a3 bd 9c b9 1d 3d 8b 62 ce 3d
       0.1833388 -0.079749286 0.03850709 0.10077389
0003a0 64 cc a2 bc 2e 76 17 be d8 73 10 3e 3c 0b c6 3b
       -0.019872852 -0.14791176 0.14106691 0.0060438197
0003b0 6b 5f 0d bd a0 99 b6 3c e8 8d 83 3d 6f ff 4a bd
       -0.034514826 0.022290051 0.06423551 -0.049560007
0003c0 94 a9 12 3e 2d 62 ba bc 7a 37 e7 bd 86 0e dc 3d
       0.14322501 -0.022751892 -0.11289878 0.107449576
0003d0 62 de 91 bd ba bb 14 3b 2e 25 9b bd 7e 1e 36 3e
       -0.07122494 0.0022694902 -0.07575451 0.1778507
0003e0 e7 81 0d bd 4b 29 24 be 41 7c 27 be 47 4b d6 bd
       -0.034547713 -0.16031377 -0.16355993 -0.10463577
0003f0 b1 96 47 bd cf e3 92 bc f9 11 fb bd ea c5 f2 bd
       -0.048727695 -0.017930893 -0.122592874 -0.11854155

shared.1.weight f4 [256]
000000 64 99 81 3f ee 94 7d 3f 83 ac 84 3f e8 b2 7d 3f
       1.0124936 0.99055374 1.0365146 0.99101114
000010 4c 5a 7f 3f e1 84 83 3f 50 5b 7d 3f 72 be 83 3f
       0.9974716 1.0274926 0.98967457 1.0292494
000020 4f b1 81 3f c3 5c 7f 3f 00 00 80 3f cb 77 80 3f
       1.0132235 0.9975092 1.0 1.0036558
000030 d9 ae 80 3f 28 bd 7f 3f 10 e1 81 3f 8b 49 88 3f
       1.0053359 0.99898005 1.0146809 1.0647444
000040 19 0c 88 3f 79 99 80 3f d1 2b 82 3f 3f 39 81 3f
       1.0628692 1.0046836 1.0169622 1.0095595
000050 a1 9f 7f 3f fe 05 7d 3f 96 04 7e 3f 33 12 81 3f
       0.9985295 0.9883727 0.9922575 1.0083679
000060 1f 4b 7c 3f 49 59 80 3f 3c 1c 81 3f cf 71 80 3f
       0.98552126 1.0027248 1.0086741 1.0034732
000070 ee 04 83 3f 36 2c 80 3f db 6a 7e 3f 63 d9 81 3f
       1.023588 1.0013492 0.993818 1.0144466
000080 e7 82 83 3f 68 41 7d 3f 3e 78 80 3f 41 dc 7b 3f
       1.0274323 0.98927927 1.0036695 0.98382956
000090 b3 42 7d 3f 3f 17 7f 3f ab df 81 3f 60 3f 80 3f
       0.989299 0.99644846 1.0146383 1.001934
0000a0 94 03 7c 3f c5 ed 81 3f 53 d6 81 3f 48 ed 7e 3f
       0.9844296 1.0150687 1.0143532 0.9958081
0000b0 06 d0 7f 3f c8 90 83 3f 01 f1 7f 3f c0 96 7d 3f
       0.99926794 1.0278559 0.9997712 0.9905815
0000c0 79 35 81 3f 30 d0 80 3f 94 2d 83 3f b1 07 7f 3f
       1.0094444 1.0063534 1.0248284 0.9962111
0000d0 75 98 7b 3f a9 d5 80 3f f9 18 80 3f a4 19 7f 3f
       0.98279506 1.0065204 1.0007621 0.996485
0000e0 68 8e 81 3f ee e0 80 3f da a4 81 3f f5 6b 82 3f
       1.0121584 1.0068643 1.0128434 1.0189196
0000f0 3f 0a 83 3f da bc 82 3f 01 ef 80 3f 4e e5 7d 3f
       1.0237502 1.0213883 1.0072938 0.99178016
000100 73 38 7d 3f c7 2b 7b 3f 6d 1e 84 3f 61 1f 82 3f
       0.9891426 0.98113674 1.0321785 1.0165826
000110 76 9e 7f 3f 36 be 82 3f 96 4a 7d 3f 3d 3f 81 3f
       0.9985117 1.0214298 0.98941934 1.0097424
000120 a7 98 7e 3f 72 37 7e 3f ec 05 80 3f 30 bd 7f 3f
       0.9945168 0.9930335 1.0001807 0.9989805
000130 17 ee 84 3f 66 7d 80 3f 45 86 80 3f ac dd 7e 3f
       1.0385159 1.0038269 1.0040976 0.99556994
000140 03 65 7f 3f ba fb 86 3f c8 58 82 3f f4 17 7e 3f
       0.99763507 1.0545571 1.0183344 0.992553
000150 fa 1b 80 3f c3 50 84 3f 6d b2 80 3f a9 12 81 3f
       1.0008538 1.0337147 1.0054451 1.008382
000160 9f fb 7e 3f ae 0c 84 3f a2 89 84 3f b6 28 85 3f
       0.99602693 1.031637 1.0354502 1.0403049
000170 1d 4e 81 3f be eb 7d 3f cf 9e 7d 3f ab 5f 80 3f
       1.0101963 0.9918784 0.9907045 1.0029196
000180 b5 11 7c 3f de 2e 82 3f f1 b9 80 3f d3 49 80 3f
       0.9846452 1.0170553 1.0056745 1.0022529
000190 89 06 81 3f 84 17 85 3f 65 d0 7f 3f d6 53 83 3f
       1.0080119 1.0397801 0.9992736 1.025996
0001a0 6b 1e 7d 3f 38 ad 7e 3f 8b ea 7e 3f 6e 14 82 3f
       0.9887454 0.9948306 0.99576634 1.0162485
0001b0 1e 62 7b 3f 1c 77 7e 3f a8 d7 7c 3f e8 ea 7d 3f
       0.9819659 0.99400496 0.98766565 0.99186563
0001c0 fd 4d 81 3f 3b cb 80 3f e1 7c 82 3f 9c 3a 81 3f
       1.0101925 1.0062021 1.019436 1.0096011
0001d0 30 30 83 3f 7a a4 81 3f 94 69 7f 3f b1 6f 85 3f
       1.0249081 1.0128319 0.99770474 1.042471
0001e0 f5 30 81 3f 19 08 7d 3f 91 e3 7b 3f 36 f0 80 3f
       1.0093066 0.9884048 0.98394114 1.0073307
0001f0 aa 7e 81 3f af 06 82 3f ca 21 83 3f d0 5c 80 3f
       1.011678 1.015829 1.0244687 1.0028324
000200 bd 36 83 3f 00 00 80 3f e1 91 7c 3f 00 00 80 3f
       1.025108 1.0 0.98660094 1.0
000210 1a a9 7b 3f 55 8e 80 3f 60 69 7b 3f 04 74 82 3f
       0.98304904 1.0043436 0.98207664 1.0191655
000220 32 0e 80 3f ff e9 7f 3f 81 b5 7c 3f b0 35 84 3f
       1.0004332 0.99966425 0.98714453 1.0328884
000230 8b 22 7e 3f bf 8b 7d 3f 12 04 7f 3f 7c 28 7f 3f
       0.9927146 0.9904136 0.99615586 0.9967115
000240 00 00 80 3f 2d 20 80 3f 05 a7 7f 3f be 6b 7a 3f
       1.0 1.0009819 0.99864227 0.9782065
000250 eb e8 81 3f bc 5a 83 3f df 93 82 3f d8 65 7d 3f
       1.0149206 1.0262065 1.0201377 0.98983526
000260 4a 84 7d 3f f7 33 7e 3f d2 a7 7a 3f 8b 32 80 3f
       0.9902998 0.9929804 0.97912323 1.0015424
000270 fe ad 80 3f 8f ce 7f 3f ab 0b 7b 3f 67 6e 80 3f
       1.0053098 0.9992456 0.9806468 1.0033692
000280 03 6f 80 3f de 27 81 3f 0b 04 7f 3f c3 25 7e 3f
       1.0033878 1.0090292 0.99615544 0.9927637
000290 75 db 7f 3f 73 4d 7b 3f 5d 3b 81 3f 57 a4 7d 3f
       0.9994424 0.98165053 1.0096241 0.9907889
0002a0 de b3 85 3f 60 ca 80 3f 64 8a 85 3f ae d9 80 3f
       1.0445516 1.006176 1.0432858 1.006643
0002b0 32 69 7f 3f 77 17 83 3f 99 be 80 3f 93 e9 7f 3f
       0.9976989 1.0241536 1.0058166 0.9996578
0002c0 a4 55 80 3f 8f 7d 7f 3f d8 1e 82 3f 19 ce 86 3f
       1.0026135 0.9980096 1.0165663 1.0531646
0002d0 81 af 7c 3f e8 d0 83 3f 5f 22 80 3f 88 2c 80 3f
       0.987053 1.0298128 1.0010489 1.001359
0002e0 08 1c 82 3f 64 a2 7e 3f ed 04 7f 3f c3 ae 80 3f
       1.0164804 0.9946654 0.9961689 1.0053333
0002f0 63 df 7d 3f 5d 8f 83 3f 19 04 81 3f 11 47 83 3f
       0.99168986 1.0278126 1.0079376 1.0256063
000300 04 b3 80 3f 3f 87 82 3f 60 a9 7c 3f 10 d4 7e 3f
       1.0054631 1.0197524 0.98695946 0.9954233
000310 1b a0 82 3f 64 30 83 3f 3f 87 7e 3f e4 98 7c 3f
       1.020511 1.0249143 0.9942512 0.9867079
000320 a4 79 80 3f b4 5e 7b 3f 13 b5 7e 3f 17 5b 7f 3f
       1.0037122 0.9819138 0.9949505 0.9974837
000330 ac 8e 80 3f 8a ef 7d 3f 8c 45 81 3f f3 4a 81 3f
       1.004354 0.9919363 1.0099349 1.0100998
000340 33 b4 7e 3f d7 51 83 3f 7b 87 85 3f c4 0e 80 3f
       0.9949371 1.025935 1.043197 1.0004506
000350 6b 85 7d 3f 13 26 80 3f cd 75 81 3f 2c 51 7f 3f
       0.99031705 1.0011619 1.0114075 0.99733233
000360 55 4e 83 3f cf 2d 80 3f 2a 2e 80 3f 09 90 82 3f
       1.025828 1.001398 1.0014088 1.0200206
000370 1d a9 80 3f db 12 81 3f 7c 27 81 3f b4 ef 81 3f
       1.0051609 1.0083879 1.0090175 1.0151277
000380 05 1f 83 3f ca bb 83 3f 9a 30 80 3f 5e 6d 81 3f
       1.0243841 1.0291684 1.0014832 1.0111501
000390 95 51 85 3f ef 52 81 3f f2 22 83 3f b2 40 7f 3f
       1.0415522 1.0103434 1.024504 0.9970809
0003a0 cc 90 80 3f 0d b3 7f 3f dc 68 82 3f ac 0a 84 3f
       1.0044188 0.99882585 1.018825 1.0315757
0003b0 eb 0e 80 3f 16 e7 7e 3f 0b 07 7e 3f b6 7d 7c 3f
       1.0004553 0.9957136 0.99229497 0.9862932
0003c0 27 dc 80 3f 07 96 7d 3f 89 a7 7e 3f ba 76 7d 3f
       1.0067185 0.9905705 0.9947439 0.9900929
0003d0 88 cb 7e 3f 83 21 80 3f 34 20 7d 3f 38 08 81 3f
       0.99529314 1.0010227 0.98877263 1.0080633
0003e0 6d d1 82 3f ad f8 80 3f fc a1 82 3f 67 da 85 3f
       1.0220162 1.007589 1.0205684 1.0457276
0003f0 8c 2d 82 3f 00 00 80 3f 50 77 7d 3f ae 03 7f 3f
       1.017015 1.0 0.9901018 0.9961499

shared.1.bias f4 [256]
000000 34 66 54 3c 93 2b 20 bc aa 4f ac 3c 70 20 a0 bb
       0.01296382 -0.009776014 0.02103408 -0.0048866794
000010 4e f4 70 ba d7 7d 8d 3c f4 b0 35 bc 98 88 8c 3c
       -0.00091916777 0.01727192 -0.011089552 0.017154977
000020 a4 2a 07 3c bc 8b 1b bb 00 00 00 00 c1 ad ab 3b
       0.008249912 -0.0023734411 0.0 0.005239219
000030 cd 60 1b 3c b9 de 00 bb 5a a9 66 3c 47 8f 2d 3d
       0.009483528 -0.0019664003 0.0140784625 0.042372968
000040 ec 0d 1b 3d 02 8e 02 3c aa 31 bc 3b 15 1c 63 3b
       0.037855074 0.007968428 0.005743225 0.003465419
000050 3a 20 9b bb bc 2b 76 bc 5d bf 1b bc 1f 24 04 bb
       -0.0047340663 -0.0150250755 -0.009506074 -0.0020163131
000060 4f 17 5f bc 00 6e 1b bc fb 6c 25 bb 3c 9a 34 bb
       -0.013616397 -0.009486675 -0.002524196 -0.002755775
000070 66 44 74 3c 16 f6 68 3b 7f 0f 45 bc 48 ef 37 3c
       0.014908886 0.003554707 -0.01202762 0.011226483
000080 35 cd 97 3b 05 2f e0 bb 45 30 6d 3a cd 8a de b9
       0.004632617 -0.0068415427 0.0009048025 -0.00042446554
000090 29 a5 27 bc ea 86 6d 3a 76 62 88 3c 9a 93 d1 ba
       -0.010232248 0.0009060936 0.016648512 -0.0015989423
0000a0 c3 2d 8e bc 99 de d7 3b b0 9a e3 39 d9 b8 20 bc
       -0.017355805 0.006587815 0.00043412065 -0.009809696
0000b0 a0 b6 ef 3b bd e8 c1 3c 1f 48 01 3c 59 08 30 bc
       0.007315472 0.023670549 0.00789073 -0.010744178
0000c0 27 c4 e7 bb 49 a9 49 39 ac b5 6d 3b 66 60 4e bb
       -0.0070729437 0.00019231917 0.0036271615 -0.0031490563
0000d0 6e 8f 1b bc a3 36 35 3c c7 49 2f bc 72 da 86 ba
       -0.0094946455 0.01106039 -0.010698742 -0.001028849
0000e0 39 4c ea bb 5a 7d 8c 3b dc f4 24 bb ad 52 06 3b
       -0.0071501997 0.004287404 -0.0025170362 0.0020496056
0000f0 8a 7a 7b 3a 47 de c9 3b 98 0f 5a bb c8 be 31 bc
       0.000959315 0.0061605307 -0.0033273455 -0.010848708
000100 0b 7d 8f bb d5 97 94 bc 0f 63 a2 3b 67 a3 c0 3b
       -0.00437892 -0.018138805 0.0049556564 0.005878854
000110 ad c5 d0 ba 5e 19 71 3b 9e 7a 6b bc 52 bc c2 bb
       -0.0015928053 0.0036788802 -0.014372496 -0.0059428597
000120 3d 9f 16 bc 9e 8d ab bb ee b0 5c bb 7a a3 20 bc
       -0.009193239 -0.005235388 -0.0033674794 -0.009804601
000130 c1 0b 25 3c f7 88 37 3c 46 7c c2 b9 fa 60 f9 ba
       0.010073603 0.011202089 -0.00037095154 -0.0019026094
000140 00 1f 60 bc f4 34 8a 3b 61 0f 6d 3c fb a5 1c bc
       -0.013679266 0.0042177383 0.014468999 -0.009561057
000150 92 20 43 3c ae 9c 02 3d b8 ae 03 bc 28 b2 9c 3b
       0.011909621 0.031887703 -0.008037262 0.00478198
000160 6c 6d c3 ba 13 63 90 3c b2 73 99 3c 30 c3 f9 3b
       -0.001490993 0.017625367 0.018731926 0.007622145
000170 6d 1c 04 3c 5c e7 0c bc 2b 65 4b bc 92 6f 37 3c
       0.008063418 -0.008600082 -0.012414257 0.011196034
000180 56 0a 45 bc 3a 24 a0 3c 40 dd dd 3c bd fa 0c 3c
       -0.01202639 0.019548524 0.02708304 0.008604703
000190 e0 12 6c 3b 3c 15 1f 3c d7 cc 04 bc 68 6e 51 3c
       0.0036021993 0.0097096525 -0.008105478 0.012782671
0001a0 f3 20 2e bc 0e df 69 bb ef 9f b7 bb e8 bd ad 3b
       -0.010627973 -0.003568593 -0.0056037824 0.0053021796
0001b0 ba 34 3c bc a4 b0 29 bb f3 a4 7f bc 8e e1 5b bc
       -0.01148718 -0.002589264 -0.015603292 -0.013420476
0001c0 ac 6a 07 bb 86 18 21 3b e9 05 5e 3c e8 d6 b0 ba
       -0.0020662947 0.0024581267 0.013551214 -0.0013491781
0001d0 88 25 36 3c 17 95 8d 3c e0 4a ba bb 01 96 87 3c
       0.011117347 0.017283006 -0.0056851953 0.01655102
0001e0 e5 3a 7e 3c cf 2a 50 bc ed a0 a8 bc 63 fa 9a bb
       0.015516971 -0.012705519 -0.020584548 -0.0047295555
0001f0 54 a6 1a 3c 5c 34 2a bb 8e 7d c2 3b 88 12 d1 3a
       0.00943907 -0.002597115 0.0059353774 0.0015950957
000200 5e fa fd 3b 00 00 00 00 9e 4a 8c bc 00 00 00 00
       0.0077507934 0.0 -0.017125424 0.0
000210 c1 06 38 bc c1 ed 68 bb ce 8d 8d bc 3d 67 f5 3b
       -0.011232079 -0.0035542103 -0.017279532 0.0074891136
000220 37 95 34 bc c3 28 b5 3b a1 9f 81 bc 01 81 89 3c
       -0.011021904 0.005528541 -0.015823187 0.016785147
000230 b1 d5 85 bc 87 40 a9 bb 42 ca 9f b8 ea f2 eb bb
       -0.016337248 -0.005165163 -7.619384e-05 -0.0072005885
000240 00 00 00 00 34 e1 a7 bb c3 3d 8d bb 38 ba aa bc
       0.0 -0.005123282 -0.004310341 -0.02084075
000250 21 89 48 3a 5b da ad 3c 9a 48 e0 3b c7 3f 69 bc
       0.00076498283 0.021222284 0.0068445923 -0.014236397
000260 5f a1 ac bb ce c6 9a ba bc c2 8d bc cf 3e 77 3b
       -0.0052682604 -0.0011808516 -0.01730477 0.0037726646
000270 2c d2 fd 3b df 30 d1 bb 3f 89 8e bc 96 76 3d bc
       0.0077460017 -0.0063839997 -0.017399428 -0.011563918
000280 16 b7 fe 3b c3 68 8f 3b cb 16 be bb 60 72 19 bc
       0.0077732904 0.0043765022 -0.005801057 -0.009365648
000290 e6 a6 d4 bb dd e8 84 bc af 85 84 3a 93 ed 16 bc
       -0.0064896224 -0.01622432 0.0010110642 -0.009211916
0002a0 ad 1e ad 3c 77 f2 06 ba 34 46 c4 3c f3 c4 84 3b
       0.021132791 -0.00051478244 0.023959257 0.0040517985
0002b0 ee 9d 08 bc 3d 1a 4c bb 12 06 a6 bb b7 77 9b bb
       -0.008338435 -0.003114357 -0.0050666416 -0.0047444957
0002c0 1c 20 93 bb 27 fa f9 ba cd b0 32 3c d1 34 34 3d
       -0.0044899117 -0.0019071744 0.01090641 0.043995682
0002d0 5d d8 0c bc aa 0e 9a bb 0b d7 25 bc ba 54 d5 bb
       -0.008596507 -0.004701455 -0.010122071 -0.0065103443
0002e0 4a 38 36 3c 1e 78 3d bb f0 48 66 bc b2 16 81 3c
       0.011121819 -0.0028910707 -0.014055476 0.015757892
0002f0 1e 76 92 ba 6e a6 92 3b c4 45 4b 3b 4b 65 76 3c
       -0.0011174118 0.0044754064 0.0031016925 0.015038799
000300 5d 9e 86 bb 8d 60 ca 3b 74 a7 7a bc fa 87 ff ba
       -0.004108234 0.0061760605 -0.015298713 -0.001949548
000310 5a 91 78 3b a6 d7 d3 3c e2 52 fd bb 49 ce 50 bc
       0.0037928433 0.025859665 -0.0077308277 -0.012744495
000320 50 c8 d6 3b 9f 27 a8 bc 4e 14 2c bc f8 32 e1 39
       0.006554641 -0.020526705 -0.010502888 0.0004295332
000330 dd 8f 3d bb 26 19 49 bb c2 98 56 bb 35 9a 9a ba
       -0.002892486 -0.0030685156 -0.003274486 -0.0011795225
000340 15 c4 3d bc 64 11 08 3d e4 2c 9f 3c 68 5a 3b bc
       -0.011582394 0.03321971 0.019430585 -0.011435129
000350 03 78 1f bc 2d fa 82 b9 9d 91 d7 bb 8b 72 90 ba
       -0.009733203 -0.00024981928 -0.0065786378 -0.0011020465
000360 07 8d 4a 3c ee d4 12 3c 94 cf cd bb f2 55 06 3c
       0.012362725 0.008961899 -0.0062808488 0.008199202
000370 85 a9 84 3b a6 13 bd 3b dd 5e b8 3b 82 40 74 3b
       0.0040485286 0.0057701645 0.005626543 0.0037269895
000380 c2 90 15 3d 3c ef d1 3c ed b2 67 3b 57 37 e1 3a
       0.036515005 0.025626771 0.003535445 0.001718263
000390 f5 f1 f4 3c e0 2a 13 3c 49 5a fd 3b 9e a4 04 bc
       0.02990053 0.00898239 0.00773171 -0.008095888
0003a0 5b 93 ca ba c3 86 61 bb 07 9e 66 3c 84 68 6d 3c
       -0.0015455292 -0.00344126 0.014075763 0.0144902505
0003b0 81 89 eb 3a 8c e4 87 bb fb 34 02 bc b1 22 13 bc
       0.0017970057 -0.004147118 -0.007947202 -0.008980439
0003c0 f0 82 23 ba 3b 81 04 bc f2 d2 1e bb 8e e0 0e bc
       -0.0006237468 -0.008087452 -0.002423462 -0.00872053
0003d0 3f f5 30 3a 9d 9f ae 38 34 c1 2e bc db d4 21 bb
       0.00067504117 8.326697e-05 -0.01066618 -0.0024693522
0003e0 50 e1 39 3c 0c 8c 96 ba c9 76 57 bb 0e ff c9 3c
       0.011345223 -0.0011485829 -0.0032877198 0.024657752
0003f0 bb 6d 3e 3b 00 00 00 00 02 bf 00 bc a9 28 a0 bb
       0.0029057104 0.0 -0.00785804 -0.0048876596

shared.3.weight f4 [256, 256]
000000 19 f7 ea bc 71 0f 1b bd 7e 00 76 3d 9d 43 3a bd
       -0.028682278 -0.037856523 0.060059063 -0.045474637
000010 f6 ce 21 bd 88 4c 6a 3c 4a 84 2a 3d bc fc 50 3b
       -0.039504014 0.014300473 0.041630067 0.0031888923
000020 e2 db bb bb 3c b6 8e 3c 60 95 69 bc b2 b6 37 bd
       -0.005732999 0.01742088 -0.014256805 -0.044851966
000030 63 bb 0a bd 2c cf c8 3b 03 b2 7c bd b8 e0 9f 3c
       -0.033870112 0.0061282124 -0.061693203 0.019516334
000040 c2 f2 8f 3c 9e 27 e8 bc 85 64 53 3d e9 39 15 3d
       0.01757181 -0.028339203 0.051609535 0.03643218
000050 90 ec 24 3d c1 b7 20 bd 9d 7a 1a bd 5b 10 7a bd
       0.040264666 -0.03923774 -0.03771459 -0.061050754
000060 70 ac 39 bd 61 44 92 3c d8 3e b2 bb 3e 5c 53 bc
       -0.045330465 0.017854871 -0.0054396205 -0.01290041
000070 cb 25 24 bb 2c f0 20 bd d0 bf fa bb 07 b2 4c bc
       -0.002504694 -0.039291546 -0.0076522604 -0.012493617
000080 be 8c 9c bd 45 2c 83 3d ce 2a 88 bd d4 b1 7c bc
       -0.07644032 0.06404928 -0.06648789 -0.015423257
000090 7c a9 0b 3d ed fc 2e bd 4c f7 07 bd 35 79 c9 3c
       0.03409718 -0.042721678 -0.033194825 0.024593929
0000a0 ed e8 d6 bb 38 b8 95 bd 2c b0 28 bc 3f 0f 26 bd
       -0.0065585286 -0.073105276 -0.010295909 -0.040541884
0000b0 9d 1c 44 3c f1 6c 8b bc 19 29 8a bd b8 2b de 3a
       0.011969713 -0.01701972 -0.0674612 0.0016950285
0000c0 18 56 9c bb 4a 17 ce 3c 2e 15 92 3d ab d8 2e bd
       -0.0047710054 0.02515759 0.07132946 -0.0426871
0000d0 44 4c de 3c 4e 63 31 bc f3 04 57 bd 28 fa 75 bd
       0.027135976 -0.010826899 -0.052494954 -0.06005302
0000e0 67 d5 56 3c 7b b7 35 3c ed 75 6e bc 9a 0c c0 bc
       0.0131124025 0.011091108 -0.014554483 -0.023443509
0000f0 ce 0f 6a 3d a5 e3 3a bd c8 f4 8e 3c 78 90 1c bd
       0.05714398 -0.045627255 0.017450705 -0.038223714
000100 b5 d2 13 3d 74 f3 fc 3c 8e 9d 06 bd f6 40 88 bc
       0.036089618 0.030877806 -0.0328651 -0.016632538
000110 66 0b 57 bd 63 14 01 bd 42 ae 9f 3c 1b 16 c9 bc
       -0.052501105 -0.031513583 0.019492272 -0.024546674
000120 11 65 2a bc be 01 cc bb bb 9d 97 bc 0e a5 3e bc
       -0.010400073 -0.0062257936 -0.018507829 -0.011636032
000130 21 ce 99 bc ff 2b 0b bd bf 58 89 3d 7c 1c e8 3c
       -0.018775048 -0.033977505 0.0670638 0.028333895
000140 e5 da 3d bd a0 f1 8b bd 44 ff 89 bd 0f a1 60 bd
       -0.046351332 -0.06833196 -0.06738141 -0.054841097
000150 4d ac 27 3d e9 5e 6e bd fb 30 95 bd 4e 77 b1 3b
       0.040935803 -0.058195982 -0.07284733 0.0054158336
000160 c3 2e e0 bc 1f 55 9b bb df 67 55 3d b6 02 1a bc
       -0.027366048 -0.004740372 0.052101012 -0.00940006
000170 a3 d0 f5 bc ec 95 fe 3c 9c 26 87 3d 9e b9 9e bd
       -0.030006712 0.031077348 0.06599161 -0.077502474
000180 46 cc ce 3c bb 95 7f 3c 42 3b 66 bd ad f6 4a 3b
       0.02524389 0.015599663 -0.056208856 0.0030969784
000190 7e c4 5f 3d a7 8c c5 3b 44 a0 99 bd 75 51 5d bd
       0.05463075 0.00602873 -0.07501271 -0.05403276
0001a0 04 96 28 3c 37 90 b1 bb 45 3b 6e bd 59 c4 04 3d
       0.010289673 -0.005418803 -0.058161993 0.032413814
0001b0 43 5f 6d bd e1 29 7a bc 56 67 c1 3b d3 64 93 3a
       -0.057952177 -0.015268774 0.005902211 0.0011245258
0001c0 d6 6e 01 3d 89 28 b3 bb e5 80 28 3c 97 17 94 3c
       0.031599842 -0.0054674787 0.010284637 0.018077655
0001d0 d5 1b bd bd f7 f9 84 bb 43 de bf bc 21 82 1c 3d
       -0.09233824 -0.0040581184 -0.023421412 0.038210038
0001e0 4a 3b 5d bb ab ce 06 bd 50 44 78 bc cb 1d fb bc
       -0.0033757263 -0.032911938 -0.015153006 -0.030653855
0001f0 09 0a fd bc 92 a2 5a 3b 6f ad 7e 3d e2 c2 b9 3c
       -0.030888574 0.003336106 0.062177118 0.022675935
000200 43 61 1f bd 6e 25 1e bd 83 12 45 3b ec 23 19 3d
       -0.038911115 -0.038609914 0.0030070848 0.037387773
000210 6c 61 04 3c d6 ab a9 3c 43 66 1a 3d f5 49 c7 3c
       0.008079868 0.02071182 0.03769518 0.024327258
000220 a6 6b ed 3c 4d 43 05 bb 07 b9 f7 3b 8f d8 a1 bd
       0.028981995 -0.0020334304 0.007559899 -0.079026334
000230 cf 55 e4 bc ee 83 36 ba 80 a2 4d 3d d9 83 e0 3c
       -0.027872948 -0.0006962408 0.0502038 0.02740662
000240 fe 4f 15 3d 7a b0 b0 bb 3a a6 1b 3c d1 3a 86 3c
       0.03645324 -0.0053921314 0.009500081 0.016385468
000250 3c 73 9f 3c 54 5c 09 bd 66 85 b4 bd 75 8e 97 bd
       0.019464128 -0.033535317 -0.08814506 -0.074002184
000260 9f a7 5f 3d 92 01 36 3d e6 91 62 bc 52 8c 01 bd
       0.054603215 0.04443509 -0.01382873 -0.03162796
000270 dd df 4f 3d 67 a5 dc bc b0 f2 40 bd a3 d3 a0 3c
       0.050750602 -0.026934339 -0.047106445 0.019632166
000280 4f 5a 90 bb 76 b2 bd bc 98 82 87 bd 08 cd 47 bd
       -0.004405297 -0.023156386 -0.06616706 -0.048779517
000290 cf 5e 7a 3d c4 8d 68 bc ca d1 47 3d d4 98 04 bc
       0.061125573 -0.014193956 0.048784055 -0.008093078
0002a0 ae 19 d6 bc 3b 88 e1 bc e9 59 a7 bc 88 ad 6c ba
       -0.026135292 -0.02753078 -0.020428615 -0.0009028544
0002b0 e6 b4 ea 3c 5b cd 88 bb cc e0 96 bd 50 4a 36 bc
       0.028650712 -0.004174871 -0.07367095 -0.011126116
0002c0 24 d6 23 3d 90 2e 11 ba 2f fa 83 bd cc b6 83 bd
       0.039999142 -0.00055382494 -0.06444203 -0.0643135
0002d0 f1 05 23 3d 2e f0 25 bd bc b2 44 bd a4 31 6a 3d
       0.039800588 -0.040512256 -0.048022017 0.057176247
0002e0 44 fe b3 bc 0c 7f a2 3c 08 ae 61 bd 49 d7 6f 3c
       -0.02197183 0.019835971 -0.05509761 0.01463873
0002f0 ee c8 c2 3b 49 08 df bb 3b 23 49 bd ca e4 c0 bd
       0.005944363 -0.0068064076 -0.049105864 -0.09418638
000300 0f bf 48 3d bf 27 0d 3d 5e 91 3f 3d 82 5a 60 3c
       0.049010333 0.034461733 0.046769492 0.013693454
000310 0d 44 0c bd 6c f2 9d bd 92 da 8b bc 0c 68 21 3d
       -0.034244586 -0.07712254 -0.017071996 0.039405867
000320 e2 74 23 bd 03 f4 4f bb 1e 00 00 bd 9e 2c 55 bd
       -0.03990639 -0.0031731136 -0.03125011 -0.052044503
000330 d6 ae 7e bb 50 55 12 bd fc f8 64 3b a7 d1 6c bc
       -0.0038861535 -0.03572589 0.0034938445 -0.014454282
000340 bb d4 2a 3b 90 da 6b bd dd f0 8c 3d d1 88 05 3d
       0.0026066739 -0.057581484 0.068818785 0.03260118
000350 9e b0 95 bc b4 81 34 3d 04 00 79 3c c0 26 b2 3c
       -0.018272694 0.044069007 0.015197758 0.021746993
000360 77 3e 0a bd 55 97 f9 3c 41 60 44 3c da 00 67 3d
       -0.033750977 0.030467669 0.011985839 0.056397296
000370 21 c8 d6 3c 6d 9d 8b bd b7 8f 4b bb 58 b8 32 3d
       0.026218476 -0.06817136 -0.0031061003 0.043632835
000380 10 ec 1e bd 1b 7b ef bc 4e cb 3f 3d 70 26 3a 3c
       -0.038799345 -0.029233506 0.046824746 0.011361703
000390 79 ff 75 3d 9e d5 db bd e7 dc ab 3c 65 da b0 bc
       0.06005809 -0.107341036 0.020979358 -0.021588514
0003a0 62 89 88 3c 34 a1 3f 3d 91 11 0e 3d a6 72 76 3d
       0.016667072 0.046784595 0.03468472 0.06016793
0003b0 43 89 81 3d 8d 9b b3 bb bf 2a ab bc 1c 06 95 bc
       0.06325009 -0.0054811896 -0.020894406 -0.01819139
0003c0 72 3b b2 bc 30 97 32 bd 47 1f 87 3c 4f 90 08 bd
       -0.021756861 -0.043601215 0.016494406 -0.03334075
0003d0 0b 9e 09 3c d9 be 73 bd cd 7e 72 bd 80 d5 1d 3d
       0.008399497 -0.05950818 -0.059202958 0.038533688
0003e0 c1 53 48 bc 2a 19 ad ba 80 d2 6c 3d 63 01 93 bd
       -0.012227 -0.0013206352 0.057817936 -0.07177999
0003f0 07 df 0e 3c 70 d7 59 bd cf 0a bf 3c 45 56 61 bd
       0.008720166 -0.053183973 0.023320584 -0.055013914

shared.3.bias f4 [256]
000000 a0 2f e3 bc 16 80 83 bc 52 3f 22 bd 76 c5 84 3d
       -0.02773267 -0.016052287 -0.03961117 0.06482975
000010 b4 ce 69 3b bd 59 4c bc c7 ba 31 bd cc 0a 74 3d
       0.0035676183 -0.012472567 -0.043391015 0.05958061
000020 ef 7b 1b bc 73 cf 2a bd ff 4a 61 3d a8 49 20 bd
       -0.009489997 -0.041701745 0.055003162 -0.039132744
000030 b7 16 80 3d 02 fa d3 bc f8 5c 5f bd 5f 6b 0a bd
       0.062543325 -0.025876049 -0.05453202 -0.033793803
000040 db dc 27 bd 2c 12 38 3d 65 0f 52 bd 6d 4e 80 3d
       -0.04098211 0.044939205 -0.051284213 0.062649585
000050 68 fa ee 3c 13 25 1a bd 2f 7b 1d 3d 81 42 15 3b
       0.029172137 -0.037633013 0.038447555 0.0022775235
000060 a1 9a 46 bd 6d db 55 3d 06 ca 8f bc af 83 9d 3c
       -0.04848731 0.052211214 -0.017552387 0.01922783
000070 20 17 ce 3b c4 70 89 3d 2d c2 a0 bc 97 69 52 3d
       0.006289378 0.067109615 -0.01962384 0.05137023
000080 05 f0 25 3d 97 75 d1 3c 0e 86 f4 3c 3f 19 83 3d
       0.040512104 0.025568767 0.029849079 0.064013
000090 63 72 2d bd 84 a0 61 3c 83 f0 c5 bc 38 65 0d bd
       -0.042345416 0.01377118 -0.024162536 -0.034520358
0000a0 f2 0c 83 bc 40 d2 eb bc d1 1f 12 bc 5b db 7a 3d
       -0.015997384 -0.028786778 -0.008918718 0.06124435
0000b0 34 74 1e bd c2 35 88 bc ec de 14 bd 0d 94 70 bc
       -0.03868504 -0.016627196 -0.036345407 -0.014683736
0000c0 3a 89 38 3d 14 c0 4a bd 02 d7 5b bc 73 2a 31 bd
       0.045052744 -0.049499586 -0.013417961 -0.043253373
0000d0 29 2e 43 bd 2c a6 95 bc 73 59 05 3d ce 68 67 3d
       -0.047651444 -0.018267713 0.03255601 0.056496434
0000e0 f5 01 6c bd e3 0c 85 3d 7e 0c 7c bc 18 78 32 3d
       -0.057619054 0.064965986 -0.015383838 0.04357156
0000f0 76 5d 0b 3d 10 ae 76 3d 03 71 28 3d c2 f9 3f bd
       0.03402468 0.060224593 0.0411234 -0.046869047
000100 c2 5d 68 bc 17 ca c8 3c 90 d0 7a 3d 2f c1 48 bb
       -0.01418251 0.024510426 0.061234057 -0.0030632725
000110 18 93 1c 3c 05 73 37 3d 99 58 f6 bc 8c be 2c 3d
       0.009556554 0.044787426 -0.030071544 0.042173907
000120 d2 a7 20 bd f7 cd 49 bd 4b b9 25 3c 3f 8c a8 bc
       -0.039222546 -0.04926869 0.010114978 -0.020574687
000130 8e c5 34 bd a2 1f 5d bd e6 88 85 3d 39 1c ce 3c
       -0.044133715 -0.053985246 0.06520252 0.025159942
000140 85 21 2a bd 1b e1 ff bc 50 70 0c 3d 52 c5 2e 3d
       -0.041535873 -0.031235268 0.034286797 0.042668648
000150 5a 3f 77 bd 2e 18 8d bc 7c a4 95 bc 9c b8 32 3d
       -0.06036315 -0.017223444 -0.018266909 0.04363309
000160 f9 c1 34 bd 2c 78 6d 3d 7c 57 4b bd 54 3b eb 3c
       -0.0441303 0.057975933 -0.04964398 0.028714813
000170 15 20 54 3d d2 35 be 3c 34 dc 11 3c 15 65 61 3d
       0.05178841 0.023219023 0.008902598 0.05502804
000180 e0 63 91 bc 22 64 68 bd a8 2a f1 bc b3 e4 3b 3d
       -0.01774782 -0.05673612 -0.029439285 0.0458724
000190 26 29 42 bd 3b e7 c6 bc ec 60 b3 3c 3c 00 98 ba
       -0.047402523 -0.024280181 0.021896802 -0.001159675
0001a0 92 d1 4b bd 80 cd 03 3d 01 7e 50 3c c0 d0 15 bd
       -0.04976041 0.032178402 0.012725354 -0.036576033
0001b0 32 74 1e bc 1d 20 28 bd fb fb e8 3b f7 cc 76 bd
       -0.009671258 -0.04104625 0.0071101165 -0.060254063
0001c0 12 d6 21 bd b6 df 94 3c 46 a4 39 bd 61 3c e0 3c
       -0.039510794 0.01817308 -0.04532268 0.02737254
0001d0 a1 58 35 bd 78 25 bd 3c de 18 2b bd 1c 2c bb 3c
       -0.044273976 0.023089156 -0.041771762 0.022848181
0001e0 bd 4d 4e bc d6 cb 81 bc f9 c0 17 bd da df b7 3c
       -0.012591776 -0.015844267 -0.037049267 0.022445608
0001f0 13 fc 1c bd bd 66 b8 3c d5 cc 35 3d 5e 91 6a 3b
       -0.038326334 0.022509927 0.044384796 0.0035792212
000200 d0 1d 54 3b c6 22 43 bd bf 32 97 bc 4b 0e d6 bc
       0.0032366402 -0.047640584 -0.018456815 -0.026129862
000210 9c 4f d9 3c b3 88 c4 3c 17 d3 fa 3c e0 4a 8e 3d
       0.026527219 0.023990965 0.030618234 0.06947875
000220 d0 d0 a7 bb ae 53 e2 bc 38 2e 2a 3d 32 60 d8 bc
       -0.005121328 -0.027627792 0.041547984 -0.026413057
000230 cd 3f 02 3c a2 b1 5a bd 56 91 c4 bb b8 60 3f bc
       0.007949782 -0.05339206 -0.0059987707 -0.011680774
000240 de a4 0b 3a f6 3c 4f bd 82 13 28 bc 5c 94 0a bc
       0.00053269963 -0.050595246 -0.010258557 -0.008458223
000250 8c 36 43 bd ea 59 d8 3b 20 18 7f 3d 02 8b 73 3d
       -0.04765944 0.0066025155 0.062278867 0.05945874
000260 e1 3c b5 3a 74 5d 4a bd a1 d4 cb 3c 80 08 3d 3d
       0.0013827347 -0.04940553 0.024881663 0.046150684
000270 c2 92 1e bd 8a c5 2f 3d 0e a0 9e 3c 04 5b 79 bd
       -0.038714178 0.042912997 0.01936343 -0.060877815
000280 56 1d 62 3d 35 4d 5a 3d 5e fb 1f 3d 58 ae 57 3d
       0.05520376 0.053296287 0.03905808 0.0526565
000290 cb 68 bc ba 7a 20 65 3c 7a cf 55 bd 14 47 8b bc
       -0.0014374492 0.013984794 -0.05219982 -0.017001666
0002a0 67 ad cc 3b fb 3b 85 bc 63 2c 53 3d 0a f2 01 3c
       0.006246257 -0.016263952 0.051556002 0.007931242
0002b0 96 29 73 bd 43 e8 78 3d 1e ea 9b 3c 74 78 ea bc
       -0.05936583 0.060768377 0.019032534 -0.02862189
0002c0 af e3 77 bc e8 c4 bb 3c 34 2e ec bc 4f d6 61 3d
       -0.015129968 0.02292104 -0.028830625 0.05513602
0002d0 06 a7 10 3d a3 1a f4 bc 8b 7e 6f 3d 43 a8 1d bd
       0.035315536 -0.029797858 0.05847029 -0.038490545
0002e0 ca 92 bb 3b e8 c4 78 bc 01 b1 be 3c 29 f1 40 3d
       0.0057242857 -0.015183665 0.023277761 0.04710499
0002f0 79 60 2b 3d 9e f8 1d 3c 7f 65 7e 3c 74 22 5f 3d
       0.04184005 0.0096417945 0.015527128 0.054476216
000300 40 83 01 3c 8d 05 c0 bc 10 76 2a bc de 66 e0 bb
       0.007904828 -0.023440147 -0.010404125 -0.0068482
000310 28 40 6c 3d 3d 60 63 bb c4 1d 6e 3c 7e 45 3b 3b
       0.05767837 -0.0034694814 0.014533464 0.0028575356
000320 e5 5b 93 3c 8f 9c 53 3d eb d9 88 3d 70 78 1a bd
       0.017988155 0.051662978 0.066821896 -0.037712514
000330 41 ef 4b 3d 34 50 13 3d 4c 22 2e 3c 0a 39 14 3d
       0.049788717 0.03596516 0.010628294 0.03618721
000340 62 51 32 3c 6b 1d fa 3c 40 fc 60 bd 82 17 69 3d
       0.010883661 0.030531606 -0.054928064 0.056907184
000350 df 6f 60 3b 7c 96 25 3d be 4e 9f bc c8 da 44 3d
       0.0034246368 0.040426716 -0.019446727 0.04806021
000360 34 36 cd 3b 3d 30 41 3c 2c 2b a5 3c 66 e4 5a 3d
       0.006262565 0.011791286 0.020162188 0.053440474
000370 3a 36 28 bd c8 2e fb 3b 53 26 58 bd 60 75 13 3c
       -0.04106734 0.007665489 -0.052770924 0.009000152
000380 29 e5 de bc 27 00 94 bc 52 ba b9 bc b7 48 65 bd
       -0.027208881 -0.018066479 -0.022671852 -0.05597755
000390 0d 75 e5 bc af 15 52 bd 95 09 a2 bc 38 f4 bf 3c
       -0.028009916 -0.05129021 -0.01977996 0.023431882
0003a0 be 7e 79 bd a3 3f 8f 3c 6f 07 5f 3d 51 f9 24 3c
       -0.060911886 0.017486399 0.05445045 0.010069207
0003b0 47 3a 1a bc d1 9d 84 3c 47 30 11 3d 46 11 f4 3c
       -0.009413308 0.016188534 0.03544643 0.029793393
0003c0 96 cb d3 bb 3e 3a 9a 3c 41 66 a3 bc 27 30 7b 3d
       -0.0064634783 0.0188266 -0.01994622 0.06132522
0003d0 1b 73 47 3d d2 3b 24 3d 19 f9 13 3d 67 6e 31 bc
       0.048693758 0.04009611 0.03612623 -0.010829545
0003e0 98 a3 eb bb 77 2b 81 bb 2a b6 15 bd 8c 1a 11 bb
       -0.0071911328 -0.003941949 -0.03655068 -0.0022141067
0003f0 e3 a4 76 bc ef a3 16 bd a5 61 b3 3c b7 22 05 bd
       -0.0150539605 -0.036777433 0.021897146 -0.03250381

shared.4.weight f4 [256]
000000 7b a5 7e 3f 34 83 80 3f 48 34 7f 3f 1c b6 82 3f
       0.99471253 1.004004 0.9968915 1.0211825
000010 40 40 82 3f e6 60 82 3f db 9b 7f 3f d2 08 81 3f
       1.0175858 1.0185821 0.9984719 1.0080817
000020 7c 12 81 3f 40 b4 85 3f 2f cc 7c 3f ec 1e 80 3f
       1.0083766 1.0445633 0.9874906 1.0009437
000030 ee 98 7e 3f b5 a9 84 3f 3b 7b 81 3f f8 07 7d 3f
       0.994521 1.036429 1.0115732 0.98840284
000040 6a 89 81 3f 58 8a 83 3f 22 91 83 3f 7b 44 84 3f
       1.012006 1.0276594 1.0278666 1.0333399
000050 e9 1c 82 3f 26 91 7d 3f 0e 07 80 3f e8 c1 7e 3f
       1.0165073 0.99049604 1.0002153 0.9951463
000060 4a 5f 7e 3f cf 4e 7f 3f 5d 16 82 3f 7b 1c 7f 3f
       0.9936415 0.9972963 1.0163075 0.9965283
000070 30 31 82 3f 78 8f 7f 3f 50 94 7c 3f d6 3b 7f 3f
       1.0171261 0.9982829 0.98663807 0.9970068
000080 29 13 80 3f c8 50 82 3f 31 c8 7e 3f a6 ac 82 3f
       1.0005847 1.0180902 0.9952422 1.0208938
000090 87 93 83 3f 10 c9 7c 3f 1f 60 82 3f 79 f0 7e 3f
       1.0279397 0.987443 1.0185584 0.9958568
0000a0 8a 61 7f 3f 13 30 82 3f fa b8 7e 3f 8e 03 83 3f
       0.9975821 1.0170921 0.99501 1.023546
0000b0 81 c0 81 3f b1 48 7e 3f 43 99 81 3f 97 ae 82 3f
       1.0136873 0.9932967 1.0124897 1.020953
0000c0 4b cc 84 3f 0d 83 80 3f fd d0 7d 3f 5f 56 7f 3f
       1.0374845 1.0039994 0.99147016 0.99741167
0000d0 d1 23 80 3f bf da 82 3f b3 e8 80 3f f9 5f 7e 3f
       1.001093 1.0223006 1.0071014 0.9936519
0000e0 8c 83 7f 3f 97 ab 84 3f 70 7c 82 3f 08 50 7f 3f
       0.998101 1.0364865 1.0194225 0.99731493
0000f0 f8 a7 80 3f 13 50 83 3f 49 07 82 3f c3 12 7f 3f
       1.005126 1.0258812 1.0158473 0.99638003
000100 ca 2b 80 3f d8 7c 83 3f 95 2a 7e 3f 79 fe 80 3f
       1.0013363 1.0272474 0.99283725 1.0077659
000110 ee 07 81 3f 51 4c 80 3f e3 90 81 3f 14 9f 81 3f
       1.0080545 1.002329 1.0122341 1.0126672
000120 2c 8a 7e 3f d6 77 80 3f 6d 49 7d 3f 11 26 7f 3f
       0.99429584 1.0036571 0.98940164 0.9966746
000130 00 37 80 3f c6 0e 80 3f 5c 56 82 3f aa e8 7f 3f
       1.0016785 1.0004508 1.0182605 0.9996439
000140 00 2c 7f 3f 89 50 7f 3f d0 96 80 3f 52 de 7c 3f
       0.99676514 0.9973226 1.0046024 0.98776734
000150 68 2d 7f 3f 8d d6 80 3f 93 47 83 3f 87 17 81 3f
       0.9967866 1.0065476 1.0256218 1.0085305
000160 27 ae 80 3f 83 50 7f 3f b8 90 7e 3f 8f d0 80 3f
       1.0053147 0.99732226 0.99439573 1.0063647
000170 74 9b 7f 3f f9 62 84 3f aa 7e 80 3f 46 d5 81 3f
       0.9984658 1.0342704 1.0038655 1.0143211
000180 6d 4d 81 3f 27 51 7c 3f 12 2d 80 3f eb f0 81 3f
       1.0101753 0.9856133 1.0013754 1.0151647
000190 4f b4 7e 3f c3 f9 83 3f a3 b9 7e 3f 9a 37 7f 3f
       0.9949388 1.0310596 0.9950201 0.99694216
0001a0 6b d8 80 3f 29 f7 81 3f 2e ed 82 3f 9b f5 7e 3f
       1.0066046 1.0153552 1.0228631 0.99593514
0001b0 79 aa 7c 3f 0b a3 84 3f 84 86 7f 3f 16 a7 7e 3f
       0.9869762 1.0362257 0.9981463 0.994737
0001c0 17 e4 81 3f ed ba 81 3f fe 3a 80 3f 2e a9 7f 3f
       1.0147732 1.013517 1.0018003 0.9986752
0001d0 71 8c 82 3f 93 77 82 3f f7 d5 85 3f 04 14 80 3f
       1.0199109 1.0192741 1.0455922 1.0006108
0001e0 10 d4 80 3f 5d 42 7f 3f 27 b2 81 3f c1 d8 80 3f
       1.0064716 0.9971064 1.0132493 1.0066148
0001f0 40 a7 7d 3f 00 a5 83 3f 47 6d 7d 3f 80 66 7e 3f
       0.9908333 1.0284729 0.9899487 0.9937515
000200 9c 33 85 3f 92 a4 81 3f 0d a1 7d 3f 4f 4b 7f 3f
       1.0406375 1.0128348 0.9907387 0.99724287
000210 51 e2 7f 3f 83 94 80 3f a2 0a 80 3f f8 97 84 3f
       0.99954706 1.0045322 1.0003245 1.0358877
000220 d6 ff 83 3f 86 36 80 3f 85 24 7f 3f be cb 83 3f
       1.031245 1.0016639 0.996651 1.0296552
000230 54 d0 7e 3f 83 28 7f 3f e6 71 80 3f 2d 2b 81 3f
       0.99536633 0.9967119 1.0034759 1.0091301
000240 21 2a 7d 3f 4d 40 81 3f 30 bd 82 3f 9b d0 7f 3f
       0.9889241 1.0097748 1.0213985 0.9992768
000250 3b 1d 81 3f 81 1b 81 3f 5f 6a 83 3f c9 d2 81 3f
       1.0087045 1.0086519 1.0266837 1.0142452
000260 64 16 83 3f aa a4 84 3f f2 a0 7d 3f 41 48 84 3f
       1.0241208 1.0362751 0.9907371 1.033455
000270 9d 6a 7d 3f 4d 6a 80 3f 0d ea 82 3f 82 17 7e 3f
       0.98990804 1.003244 1.0227677 0.9925462
000280 6d e2 83 3f 04 07 7f 3f 48 bb 7e 3f 19 a5 7e 3f
       1.0303475 0.9962008 0.9950452 0.9947067
000290 6f a7 81 3f 25 93 88 3f 95 4f 82 3f e2 bf 82 3f
       1.0129222 1.0669905 1.0180537 1.0214808
0002a0 9b 0a 81 3f a2 1f 7e 3f 5d 89 81 3f e5 cc 82 3f
       1.0081362 0.9926702 1.0120045 1.0218779
0002b0 61 dd 82 3f 54 8d 81 3f dc 8a 82 3f 8a 6d 82 3f
       1.022381 1.0121255 1.0198627 1.0189679
0002c0 69 42 85 3f e9 e5 80 3f bc e2 82 3f 56 ad 82 3f
       1.0410892 1.0070163 1.0225444 1.0209148
0002d0 fe 55 7e 3f 8f 9f 7e 3f 1f 9b 7f 3f b9 4e 80 3f
       0.99349964 0.9946222 0.9984607 1.0024024
0002e0 c0 14 80 3f fd bd 80 3f 23 a6 7c 3f eb ea 80 3f
       1.0006332 1.005798 0.98691005 1.0071691
0002f0 7d 74 84 3f 1b 4e 81 3f 2d c1 7f 3f d3 87 7f 3f
       1.0348049 1.0101961 0.9990414 0.99816626
000300 8f e3 7d 3f 8c 4b 80 3f c1 59 81 3f 6c 49 83 3f
       0.9917535 1.0023055 1.0105516 1.0256782
000310 a5 a1 84 3f 1d b0 85 3f d3 ac 80 3f 94 6c 80 3f
       1.036183 1.044437 1.0052742 1.0033135
000320 54 cb 82 3f ef 77 7f 3f 47 e1 83 3f c3 23 80 3f
       1.0218301 0.9979238 1.0303124 1.0010914
000330 f8 5a 80 3f 5d 56 83 3f f7 b5 7e 3f 8e e1 81 3f
       1.0027761 1.0260731 0.99496406 1.0146959
000340 99 4e 81 3f f0 f4 83 3f 98 f1 82 3f 65 f3 83 3f
       1.0102111 1.0309124 1.0229979 1.0308653
000350 20 c2 83 3f 70 05 80 3f fd 74 84 3f c3 03 82 3f
       1.0293617 1.0001659 1.0348202 1.0157398
000360 0e 29 80 3f e6 17 82 3f 1b e3 82 3f e2 84 81 3f
       1.0012529 1.0163543 1.0225557 1.0118678
000370 b0 cd 80 3f 9f aa 82 3f b5 40 80 3f 34 4f 80 3f
       1.0062771 1.020832 1.0019747 1.0024171
000380 fe c7 80 3f 6e a5 85 3f 2a eb 81 3f 28 96 80 3f
       1.0061033 1.044111 1.0149891 1.0045824
000390 98 cd 85 3f ab 0b 83 3f dd 7d 7f 3f e8 01 84 3f
       1.0453367 1.0237936 0.9980143 1.0313082
0003a0 38 7e 7e 3f 8d 88 7d 3f d0 b6 80 3f 1c da 82 3f
       0.99411345 0.99036485 1.005579 1.0222812
0003b0 cc 06 84 3f db a1 81 3f f4 0e 81 3f c3 ee 82 3f
       1.0314574 1.0127519 1.0082688 1.0229114
0003c0 fc 71 80 3f f8 08 7e 3f 32 06 81 3f 7e ab 81 3f
       1.0034785 0.99232435 1.0080016 1.013046
0003d0 31 9f 7d 3f 7c bd 7f 3f 66 55 81 3f 95 de 7e 3f
       0.9907103 0.99898505 1.0104187 0.99558383
0003e0 58 c5 80 3f 88 63 7e 3f e9 16 84 3f ed 0c 80 3f
       1.0060225 0.9937062 1.0319492 1.0003945
0003f0 8e 25 7e 3f cc cd 80 3f 5b 65 81 3f 51 7c 82 3f
       0.99276054 1.0062804 1.0109056 1.0194188
