models/pretrained_PPO_racing.pt (torch, 287458 bytes, 36 tensors)

actor_logstd f4 [2]
000000 c7 c8 7e 3e 5d 02 e3 3d
       0.24881278 0.11084435

shared.0.weight f4 [128, 18]
000000 38 88 d2 bd 89 74 27 be ae 90 7a 3e a0 18 9f be
       -0.10279888 -0.16353048 0.24469253 -0.31073475
000010 6c 7e fd 3d 14 c6 69 3e bb 3c 52 3d cc 88 24 be
       0.12377629 0.22829467 0.05132745 -0.16067809
000020 b3 ae 22 be b4 3d 36 be a8 d1 8e be ad 51 80 3e
       -0.15886955 -0.17796975 -0.2789433 0.25062314
000030 9f 97 0a 3e f5 8f 75 3d 0e 30 10 3c 8b 55 02 3c
       0.13534401 0.05995174 0.00880052 0.007954965
000040 c0 44 ee bd 8c 76 67 3e 10 06 95 3c 96 14 21 bd
       -0.11634207 0.22603816 0.018191367 -0.039326273
000050 02 ea 22 3e 07 46 b5 bd 02 f4 23 3e 03 84 ba 3e
       0.1590958 -0.08851247 0.1601105 0.36428842
000060 7f cb 80 bd 25 65 03 be 4c 8e d9 3d 3c 48 e3 3d
       -0.06288814 -0.12831552 0.10622844 0.11097762
000070 6b ae 2f 3e 81 84 f8 bd 17 3c fa bc 3f 2f df 3d
       0.17156379 -0.12134648 -0.030546231 0.10897683
000080 25 76 4f be 9a 5b fc bc 89 6c 46 3e 4f 7d 57 3e
       -0.20259912 -0.030805398 0.1937734 0.21043895
000090 b4 af e1 3c c7 e3 cc 3c 9b 6e 91 be 08 65 87 3e
       0.027549602 0.025010956 -0.28404698 0.26444268
0000a0 bf cc 11 be 16 c4 84 bd 6a 15 66 3e c9 2d 0f 3e
       -0.1423826 -0.06482713 0.22469106 0.1398231
0000b0 05 6f 1b 3c b5 0a 15 3d ac 6f 0e be b1 d0 cf 3d
       0.009486918 0.036387164 -0.13909787 0.101472266
0000c0 e6 55 18 3e fa 27 97 3d 4d 40 75 3e e9 09 08 be
       0.14876518 0.07380672 0.2395031 -0.1328503
0000d0 45 d2 c1 3c a5 38 9b 3b 5b 9b 29 3e ef cc 3b be
       0.023659835 0.004736977 0.1656317 -0.18339895
0000e0 ca 28 8a 3d 20 37 f9 bc 9a 23 1c 3e 7d 4a 2e 3e
       0.06746061 -0.030421793 0.15247956 0.17020603
0000f0 5f 33 86 be 7a 2c 3e 3d a4 28 89 bd d1 f0 9b 3e
       -0.26211068 0.046429135 -0.06697205 0.30457166
000100 d0 d2 53 3e 49 ae c4 3e 47 6b 68 3d f9 c5 11 bd
       0.20685887 0.3841422 0.056742933 -0.035589192
000110 09 d6 19 3e c4 74 9e 3e 33 b7 69 3e d6 dc 38 3e
       0.15023054 0.3094846 0.22823791 0.18052992
000120 8d 2b 47 3c 5d 49 00 3d 02 7d 8e 3d 2a b6 13 be
       0.012156379 0.031319965 0.06957437 -0.14424959
000130 9f c4 fe bb 02 e0 fc 3c e7 ec 56 3b 6c 6d c3 3d
       -0.007774904 0.030868534 0.0032795013 0.09542355
000140 a6 f4 a2 3e e7 aa 99 bd f5 13 e8 3c 25 ba 23 3c
       0.31827277 -0.075033 0.028329829 0.009993111
000150 ee 7d a7 3d 0c d6 4d 3e 52 11 49 be 2f 0a 5e 3d
       0.08178316 0.20101184 -0.19635513 0.05420893
000160 34 e1 b6 3d 38 6e 8c 3e 9d fd 95 be 2a 2b 29 be
       0.08929673 0.2742784 -0.29295054 -0.16520372
000170 d7 30 5a 3e c8 cc fb 3d 57 3b 5d 3e 9a 27 0b 3e
       0.21307693 0.12294918 0.21604668 0.13589326
000180 56 14 b4 3d ec 0f 9e 3e 4f 19 88 be 5c bc 22 3e
       0.08792941 0.30871522 -0.2658181 0.15892166
000190 8b be 58 be ce a6 0f be a0 16 b1 3d 69 bc 75 3d
       -0.21166436 -0.14028475 0.086468935 0.059994135
0001a0 97 d3 00 be 75 63 7c 3e 87 3c 78 bc 6f 92 43 3e
       -0.12580715 0.24647315 -0.01515115 0.19098829
0001b0 77 d9 dd 3e d7 48 4a 3d 4b 8e d9 bd 5e 9d 0a 3e
       0.43329975 0.04938587 -0.10622843 0.13536593
0001c0 47 69 15 3e 63 b7 89 3c 94 35 50 be eb d8 88 bd
       0.14590941 0.016811078 -0.20332938 -0.06681999
0001d0 bf 2c 33 be 32 b5 3f 3e 00 0e 33 3e 8e 4b 56 3d
       -0.17497538 0.18721464 0.1748581 0.05231815
0001e0 7e eb f7 3d 8a f1 eb bc b8 65 26 3d 7c 9f 52 3e
       0.121054634 -0.028801698 0.04062435 0.20568651
0001f0 be 79 82 3d 78 c5 bc be 7f b4 47 3e 62 38 3f 3e
       0.06370877 -0.36869407 0.19502448 0.18673852
000200 b5 6e 01 be 38 60 34 bd f6 52 18 3e 35 a8 28 3d
       -0.12639888 -0.044037074 0.14875397 0.04117604
000210 a5 f1 8f 3e 26 c3 41 3d 3e 34 4f 3d d4 a8 93 3d
       0.28114048 0.04730525 0.05058693 0.07209936
000220 23 c4 3b be 00 de 47 be 01 b5 6d be 09 37 06 3d
       -0.18336539 -0.1951828 -0.23213579 0.03276733
000230 10 22 0c 3e 91 db 15 3e e5 75 4f 3e ce db cc bd
       0.13684869 0.14634539 0.20259817 -0.10002862
000240 fc 9a f4 bd 34 6e 1e 3d ab 03 83 bc f5 45 fb 3c
       -0.119436234 0.038679317 -0.01599296 0.030673007
000250 ea b3 b8 bd f8 c7 f7 3d a5 27 80 bc a5 db 1d 3e
       -0.09018691 0.12098688 -0.015643904 0.15415819
000260 58 6f 37 3c a4 5e 25 bd a1 6b fe bd 35 42 3d 3e
       0.01119598 -0.04037346 -0.12422872 0.18482287
000270 f1 5d e6 3b 98 06 71 3e 6d af cd 3e 4b ba 45 be
       0.0070302417 0.23537672 0.40172902 -0.19309346
000280 76 93 91 3d 94 bf 3c 3e 38 2c 71 3e 0f 52 d4 bd
       0.07108204 0.18432456 0.23552024 -0.10367214
000290 21 9c 18 be 48 ae e5 bd 8c 36 b9 be 04 d3 ed bd
       -0.14903308 -0.11214882 -0.36174428 -0.11612514
0002a0 15 77 a5 be 5e 52 1a 3d f0 56 e6 bb 25 ff 88 bd
       -0.32317415 0.037676208 -0.0070294067 -0.0668929
0002b0 83 3b 9d 3d 4e c5 9a bd 2f e0 90 bd 1e fc fc bd
       0.076773666 -0.07557164 -0.070740096 -0.12352775
0002c0 49 bd da bd 7a 81 e4 3d b9 b4 6f 3e 87 79 2c 3e
       -0.106806345 0.11157508 0.23408784 0.16843234
0002d0 5d b4 bd 3d 12 48 d4 bc 84 e5 a7 3d 93 3c 57 bd
       0.09262917 -0.025913272 0.081980735 -0.052548002
0002e0 5d 78 34 3e 61 53 3d 3e 2b fc f8 bc 45 4d 74 3e
       0.1762404 0.18488838 -0.03039368 0.23857601
0002f0 c1 7a 17 be b7 fd 24 bc dc 95 ed 3c 78 f3 ea be
       -0.1479292 -0.010070256 0.029002123 -0.45888877
000300 62 a6 9e be 71 0c 63 3e 7d ae a0 be c5 63 60 be
       -0.30986315 0.22172715 -0.31383124 -0.21913059
000310 81 a5 1c be c1 14 ca be ba f8 32 bc e0 ae bf 3c
       -0.1529751 -0.3946896 -0.010923559 0.023398817
000320 ae c1 3b be 56 e4 0b 3d 3e 6f 19 ba 44 51 ef bc
       -0.18335602 0.034153305 -0.0005853063 -0.029213555
000330 3b 28 d4 3d 2a 88 b0 3d 83 e4 81 3e 97 39 3e 3e
       0.10359236 0.08619721 0.25369653 0.18576656
000340 64 a1 1d 3e d6 c2 58 3e 52 60 c9 bd 40 8d f6 bd
       0.15393597 0.21168074 -0.09832825 -0.1203866
000350 42 ef e3 3d 78 a6 28 3e 2f 49 3c 3e 65 6d 5e be
       0.11129619 0.16469753 0.18387292 -0.21721418
000360 9c e2 c6 bd f9 bd 92 bd 21 17 16 3d f4 88 cf 3d
       -0.09711191 -0.07165141 0.03664315 0.101335436
000370 8d 36 e2 3b 7c b5 33 bd 4e 66 15 3e 9e 8c 92 3d
       0.0069034756 -0.04387425 0.14589807 0.07155727
000380 bf 9f c7 3c d4 60 83 3e ff e1 b8 bd bf 2b 67 3e
       0.024368165 0.25659811 -0.0902748 0.22575282
000390 f7 64 d1 3d 34 af 83 3e ec 0f f3 3e a5 a4 dc bb
       0.10224336 0.25719607 0.47473085 -0.0067334943
0003a0 e5 e3 5e be 0f 22 3f 3e 4b 55 8a 3d bc c6 8c bb
       -0.21766622 0.18665336 0.067545496 -0.004296152
0003b0 76 0f 87 3e 7b 9f d4 3d 4a 3b 20 bc 39 ce cf be
       0.26378983 0.10381981 -0.009779761 -0.40587023
0003c0 c2 16 26 3e 89 38 9a bd c1 0d 54 3e e0 01 b7 3e
       0.16219619 -0.075303145 0.20708372 0.35743618
0003d0 92 71 05 3d af 40 98 3e b9 06 f4 bb f6 93 28 3e
       0.032579012 0.2973685 -0.0074470905 0.16462693
0003e0 f3 24 e9 bd 28 71 dc bd ba 13 05 be 54 f4 3d 3d
       -0.11384001 -0.1076377 -0.12995806 0.046375588
0003f0 bc d7 bc 39 3f 19 b5 bd 27 c1 ce 3d 07 f3 35 3e
       0.0003601889 -0.08842706 0.10095435 0.17768489

shared.0.bias f4 [128]
000000 63 6b 56 3c 9c 52 84 3e 78 9d 6c bc f4 a5 15 be
       0.013087126 0.25844276 -0.01444184 -0.14614087
000010 73 d6 eb bb f9 e5 24 3e e3 ae ef 3d 03 c3 89 3e
       -0.007197195 0.16103353 0.11703279 0.26906595
000020 9c a4 de 3d c6 df 8f 3d 65 67 7f bc b3 45 43 3d
       0.108712405 0.07025103 -0.015588616 0.047673892
000030 f1 30 41 be b8 b9 26 be a4 02 5c 3e 7f 11 95 bc
       -0.18866326 -0.16281784 0.21485382 -0.01819682
000040 b4 1f ec 3d 56 71 d0 3d b0 d2 5e bd 73 28 14 3d
       0.115294844 0.10177867 -0.054400146 0.036171388
000050 bb 6f f2 bd bd 94 65 3a ab cd 25 be a4 59 89 3e
       -0.11837717 0.00087578205 -0.16191737 0.26826203
000060 6a 26 51 3e 0c ae cc bd 28 a9 c4 bd ff 96 4d 3e
       0.2042481 -0.09994134 -0.096025765 0.20077132
000070 c3 c9 ec 3d 44 7e 97 bd d8 c4 99 bd ec 5a 2c 3e
       0.115619205 -0.0739713 -0.07508248 0.16831559
000080 a3 4b 74 be 62 0a 8f 3e 56 ce df 3d 1f 9c 13 3d
       -0.23856978 0.2793761 0.10928027 0.03603756
000090 0f 57 e0 bc bd 9d 2b 3e cc 20 4a ba 29 ab 37 3d
       -0.027385263 0.16759391 -0.00077105756 0.044840965
0000a0 1a 63 99 3b d5 82 aa bd 1f d4 44 3e 62 98 d5 3d
       0.0046810033 -0.083257355 0.19221543 0.10429455
0000b0 9c 49 b9 3d 37 2d 06 bd b7 ce 87 3e f4 0c 12 be
       0.09047243 -0.032757964 0.26524898 -0.14262754
0000c0 75 89 36 3d f7 9c 23 3e 24 fc f0 3d 88 e9 06 3e
       0.044564683 0.15977846 0.11766842 0.13175023
0000d0 8c a3 96 3b 89 b4 bc bd 20 67 24 be e4 e3 d7 3d
       0.004597133 -0.09214122 -0.16054964 0.105415136
0000e0 84 dc b3 bd b9 8b 24 3e b2 16 d1 3d 6e ea 1a be
       -0.087822944 0.16068925 0.10209407 -0.1512849
0000f0 15 33 a7 3c aa 98 06 3e a1 29 47 3e d1 9e 58 bc
       0.0204101 0.13144174 0.19449474 -0.0132214585
000100 a1 f0 f0 bd e5 db 17 be 4e 40 30 be b5 63 8f 3c
       -0.11764646 -0.14829977 -0.1721203 0.017503599
000110 c0 c9 00 3d 7f 69 16 be c2 c4 d4 3c b4 a0 74 3e
       0.031442404 -0.14688681 0.025972728 0.23889428
000120 43 d4 aa 3d bf b6 db 3d 02 16 fc 3d d3 23 02 3d
       0.08341267 0.107282154 0.12308885 0.031772446
000130 0c 23 3f be 76 c6 37 bd 01 35 1e 3e bb fa 07 3e
       -0.18665713 -0.044867 0.15449907 0.1327924
000140 f6 b5 7e 3e 52 db 88 3e f9 61 c5 bc 28 3b d0 bd
       0.248741 0.26729828 -0.024094569 -0.10167533
000150 2f 3e 7f 3e 29 03 e9 bd 25 a3 25 3e 4a 65 04 bd
       0.24926065 -0.11377556 0.16175516 -0.03232316
000160 f5 eb f8 3d cf 64 86 bd 6d 6d 7a 3e 93 87 59 bc
       0.1215438 -0.065621965 0.24455805 -0.013276952
000170 c7 0d f0 bb 78 54 73 3e 56 92 c7 bc 5c 42 ad 3c
       -0.007325861 0.23762691 -0.02436177 0.021149807
000180 e4 59 7c be bd 46 97 3d 27 65 ab 3e ef 7e 86 3e
       -0.24643666 0.07386539 0.3347561 0.26268718
000190 da c5 82 bd d3 d7 25 be 0a c4 7b 3e 2f e3 fd bd
       -0.063853934 -0.16195612 0.24586502 -0.123968475
0001a0 77 28 95 3e 67 2d 0b 3e 89 ef 22 be 0f a6 3c 3d
       0.29132435 0.13591538 -0.15911688 0.046056803
0001b0 cb 7e 5b 3d 8d e7 2b 3e 66 b5 a6 bd df df d5 3d
       0.053587716 0.16787548 -0.08140068 0.10443091
0001c0 8d af 2d 3b 2d cf 5b 3e fa e8 a9 bd 32 ba 0b 3e
       0.0026502341 0.2146575 -0.0829639 0.13645247
0001d0 7a 00 a3 b9 bd 55 5e 3e c0 2c 1d 3e 61 dc d1 3c
       -0.00031090138 0.21712394 0.15349102 0.02561778
0001e0 13 40 71 3e 0c 06 00 3e 23 eb 00 3c 5b 73 06 3d
       0.23559599 0.12502307 0.007868561 0.032824855
0001f0 4b f2 2d 3e c2 57 e0 bb ed 15 6d 3d eb 14 c8 bd
       0.16986959 -0.006846399 0.05788224 -0.09769615

shared.1.weight f4 [128]
000000 cf 7c 9b 3f f6 04 80 3f b1 38 90 3f 0a ea 96 3f
       1.2147464 1.0001514 1.1267301 1.1790173
000010 c1 10 92 3f 33 24 8c 3f c8 62 83 3f ff 0b 92 3f
       1.1411363 1.0948547 1.0264521 1.1409911
000020 51 ba 8b 3f 65 9f a6 3f 05 3b a3 3f 3f 4f 8f 3f
       1.0916234 1.3017393 1.2752386 1.1196059
000030 27 2b aa 3f 23 c4 8a 3f 38 9b 92 3f 9f 3c 86 3f
       1.3294419 1.0841106 1.1453619 1.048725
000040 20 55 ab 3f 32 af 9f 3f f7 b6 71 3f ce f0 7f 3f
       1.3385353 1.247534 0.9441981 0.99976814
000050 27 7e 97 3f 42 b6 88 3f 9f f4 8e 3f e8 95 8a 3f
       1.1835374 1.0680621 1.1168402 1.0826998
000060 15 6b 63 3f fd 4e 81 3f 43 dd 98 3f a0 c6 78 3f
       0.8883527 1.010223 1.1942524 0.9717808
000070 c4 75 92 3f 6e 84 93 3f cd 57 86 3f c4 d0 95 3f
       1.1442189 1.1524789 1.0495545 1.1704335
000080 fe c2 92 3f c7 3b 93 3f 22 4c 82 3f 86 64 83 3f
       1.1465757 1.1502618 1.0179484 1.0265052
000090 6c a5 95 3f 35 e1 8a 3f 37 19 9c 3f 89 1e 8f 3f
       1.1691108 1.0849978 1.2195195 1.1181194
0000a0 82 3d 89 3f 90 e4 7d 3f d2 de 9e 3f 87 b8 8d 3f
       1.0721896 0.99176884 1.2411749 1.1071938
0000b0 6a 14 93 3f 76 df 7a 3f 1d 6f 94 3f dd 1d 90 3f
       1.1490605 0.97997224 1.1596409 1.1259114
0000c0 31 dd 97 3f 69 93 6b 3f 69 c9 80 3f 2e fa 6d 3f
       1.1864377 0.92021805 1.0061466 0.9295987
0000d0 46 06 98 3f 47 ec 93 3f e1 8f 96 3f db 53 65 3f
       1.1876915 1.1556481 1.1762658 0.8958108
0000e0 f3 17 ab 3f 82 bd 8b 3f 87 65 8e 3f 60 37 6c 3f
       1.3366684 1.0917208 1.1124734 0.92271996
0000f0 41 db aa 3f 36 c2 97 3f 08 fb 84 3f 5e 03 8f 3f
       1.3348161 1.1856143 1.0389109 1.1172903
000100 08 18 96 3f 82 3e a1 3f 33 56 79 3f 20 b0 8a 3f
       1.1726084 1.2597201 0.97397155 1.0834999
000110 2f 17 9c 3f b2 15 9d 3f dd 5e 7a 3f 95 ef 6c 3f
       1.2194575 1.2272246 0.97801 0.92553073
000120 f2 31 7f 3f 1d c2 75 3f b3 57 a2 3f 0a 82 8c 3f
       0.99685585 0.9599932 1.2683014 1.0977185
000130 92 8d 99 3f b0 d2 84 3f 1a 40 70 3f c4 d8 8a 3f
       1.1996329 1.0376797 0.9384781 1.0847402
000140 4a cd 86 3f 8e 04 86 3f f5 f1 8b 3f 8b 8e 9a 3f
       1.0531399 1.047014 1.0933214 1.2074751
000150 5b 06 8e 3f f5 d1 83 3f ce b2 8c 3f 1b 2f 9b 3f
       1.109569 1.0298449 1.0992067 1.212375
000160 5c e6 7c 3f b6 a1 9d 3f 91 e9 7c 3f 54 2e 87 3f
       0.98789 1.2314975 0.98793894 1.0561013
000170 4d f0 8b 3f 2d 3e 99 3f 8a fc 85 3f f7 e1 8a 3f
       1.0932709 1.19721 1.0467694 1.0850209
000180 66 0b 96 3f f5 fe 8b 3f f4 a6 9f 3f 38 ff 8e 3f
       1.1722229 1.0937182 1.2472825 1.1171637
000190 aa 1e 90 3f ec 0e a5 3f 84 6b 7b 3f 6c bf 83 3f
       1.1259358 1.2895179 0.9821093 1.0292792
0001a0 24 00 9d 3f 51 36 6f 3f b6 39 a7 3f b6 3e a3 3f
       1.2265668 0.93442255 1.3064487 1.2753513
0001b0 b7 6f 96 3f a4 3e 82 3f cc dc b9 3f cd 47 9b 3f
       1.1752843 1.0175366 1.4520507 1.2131287
0001c0 66 95 97 3f 03 ec 4d 3f 1c 56 a1 3f c0 7c 84 3f
       1.1842468 0.8043825 1.2604403 1.0350571
0001d0 07 43 82 3f a7 54 81 3f b9 26 7f 3f 34 5e 9e 3f
       1.0176705 1.0103959 0.9966846 1.2372499
0001e0 67 ae 82 3f 4f ff 90 3f 82 5d 83 3f 9b 44 a2 3f
       1.0209473 1.1327914 1.0262911 1.2677187
0001f0 ea 2e 7c 3f 7f 80 97 3f ee b6 89 3f f0 27 8e 3f
       0.98509085 1.1836089 1.0758951 1.1105938

shared.1.bias f4 [128]
000000 a8 90 bf bc ec bf b4 bd 66 55 75 bd 34 db 2b bd
       -0.023384407 -0.08825669 -0.059895895 -0.041957095
000010 bb 44 ad 3c c1 29 a8 bd 3e 58 f0 bd 90 80 c4 3d
       0.021150937 -0.08211089 -0.11735581 0.09594834
000020 58 f2 4d bd 94 38 da bd 33 ce 3d 3c b6 78 f5 bc
       -0.050279945 -0.10655323 0.011584806 -0.029964786
000030 b1 9a b8 bc 11 bd 72 bd d9 91 fc bd cb 68 89 3a
       -0.0225347 -0.05926234 -0.12332506 0.0010483501
000040 23 22 11 bd e3 06 7c bc f3 02 6e bd c4 0e c6 3c
       -0.035432946 -0.015382501 -0.05810828 0.024176963
000050 a0 33 9d bc aa 29 34 be b3 ec 01 3d 1d 60 44 bd
       -0.019189656 -0.17594019 0.031719875 -0.047943223
000060 8e f7 41 be 18 a4 78 bd 1b 0c d1 3d bf 0d 6d bd
       -0.18942091 -0.060703367 0.10207387 -0.057874437
000070 13 b1 11 be 2a 97 ed bd 09 6c 66 bc ce cf 4d bd
       -0.14227705 -0.11601098 -0.0140638435 -0.050247006
000080 d4 da 00 be 68 2a 8f 3d ea f1 fe bc 08 0c c3 bc
       -0.12583476 0.0699051 -0.031121213 -0.023809448
000090 4f f1 80 bd 72 32 f3 bd 90 89 89 bd 4a 89 df 3d
       -0.06296026 -0.11874856 -0.06715691 0.10914858
0000a0 93 8f 7c bd 5a 66 88 bd 03 15 51 3d 52 95 b7 bc
       -0.06166036 -0.06660147 0.05104543 -0.022410069
0000b0 7f eb 23 3d 22 5f 02 be 65 6a f8 bc c9 e8 ff bd
       0.04001951 -0.12731603 -0.03032417 -0.12495572
0000c0 34 0d 07 be 2b 8c 37 be d1 1d 1b bd 8e b2 f2 bd
       -0.1318863 -0.17924564 -0.037870232 -0.11850463
0000d0 ec b4 61 3d 0e d1 8a 3d 99 e2 80 bd 3c f5 09 be
       0.05510418 0.06778155 -0.0629322 -0.13472456
0000e0 9d 53 97 bd ab 25 32 3d b1 97 8c bd ba 3a 43 bd
       -0.07388995 0.043492954 -0.0686487 -0.047663428
0000f0 d7 5d 16 3d 25 41 2b be ec 5e d3 3b 79 7f 9e 3d
       0.036710586 -0.1672407 0.0064505246 0.07739157
000100 58 53 59 3d d7 59 35 bd 2e f7 aa bd 13 02 26 be
       0.053058 -0.04427513 -0.08347927 -0.16211729
000110 0d 47 18 3d 82 77 92 bd 10 54 05 be 6d f0 05 be
       0.037177134 -0.071517006 -0.13020349 -0.13079996
000120 7c 2c 4a 3c a0 2e 97 bd 08 01 be 3c f9 b7 3b 3d
       0.012339707 -0.0738194 0.023193851 0.045829747
000130 cb 04 08 bd af 33 7a be 2a c3 0f be ac 4c 2c 3d
       -0.033207696 -0.24433778 -0.14039293 0.042065307
000140 83 69 9b bc 72 b5 18 bd f1 7a 87 bd df a2 a1 bd
       -0.01897121 -0.037282415 -0.06615246 -0.07892393
000150 e0 d2 22 3d 83 4b 52 be 34 7f ed bd 3c cc 6f bd
       0.039751887 -0.20536618 -0.11596528 -0.058544382
000160 18 fd a6 bd d9 a4 ca 3d 1e 7f 2b be ff 75 76 3d
       -0.081537426 0.098947234 -0.1674771 0.060171124
000170 c6 cd 91 bd 7f c5 af bc ac db 89 bd cc 9f 62 bb
       -0.07119326 -0.021456478 -0.06731352 -0.003458011
000180 f8 27 c9 bd 58 1e 80 bd 36 25 35 3d e2 23 af bd
       -0.098220766 -0.062557876 0.04422494 -0.08551766
000190 71 c0 f4 3c 2d 04 01 be e7 2e 97 bd 91 54 2b bc
       0.02987692 -0.12599249 -0.07381993 -0.010457174
0001a0 65 66 b8 3c 2c dd d1 bd 1b 53 ba 3c 98 fe e0 3d
       0.022509763 -0.10247263 0.022744706 0.1098606
0001b0 2f 76 af 3c e1 49 a4 bd d8 fd a5 3c a3 f3 b1 bd
       0.021418659 -0.08021904 0.020262644 -0.08689048
0001c0 35 81 7f 3d 00 72 c3 bd 75 50 e1 3d 79 bc f9 bd
       0.06237908 -0.09543228 0.11001674 -0.121941514
0001d0 fa 5a 36 bd 2c 66 db bd b5 69 0d bd 3d 13 8b bd
       -0.044520356 -0.10712847 -0.03452464 -0.06790779
0001e0 93 85 61 3c 73 d1 64 bb 3e 67 c6 bd 04 ee c7 3b
       0.013764757 -0.003491488 -0.09687661 0.0061013717
0001f0 fd 5e 2f bd 03 92 c5 bd cf 5b 93 3d 2d 05 1f bd
       -0.042815197 -0.0964699 0.071952455 -0.038823295

shared.3.weight f4 [128, 128]
000000 e7 7c ca 3d d5 3f a4 bd 93 1d a8 3c e1 00 02 3e
       0.098871045 -0.080199875 0.020521915 0.12695648
000010 4a ad 61 be 33 e7 41 be e0 e6 8a 3c 26 94 6e bd
       -0.22038761 -0.18935852 0.016955793 -0.058246754
000020 50 d4 ac 3d e4 18 79 3e d8 ba 10 bd 7a ca 44 b9
       0.08438933 0.24325901 -0.035334438 -0.00018767445
000030 b5 64 b5 3e 5e 8d d2 3d 01 07 11 3e 27 d9 60 3e
       0.35428396 0.1028087 0.14162828 0.21957837
000040 4c 15 02 bd 8c 1a b0 3d 64 2a ef 3d b3 4d c9 bc
       -0.03175859 0.085988134 0.11678007 -0.024573183
000050 a2 59 6c 3e a1 f9 fd 3d 28 28 39 3d d3 6a 72 3c
       0.23081067 0.124011286 0.04520431 0.014795977
000060 52 da 4a 3d 6f 8f 12 3e d4 d4 d1 3c f2 d2 e9 3b
       0.049524613 0.14312528 0.02561418 0.0071357423
000070 82 36 76 3d a2 95 e5 bd 77 99 76 3d 50 d8 bb bd
       0.060110576 -0.11210181 0.06020495 -0.09172118
000080 da 3f f1 3a 87 fe 3e bd 65 d7 bd bc 84 73 ad 3d
       0.001840587 -0.046629455 -0.023173997 0.084692985
000090 da 1f 95 bd ae be f3 3d a5 fa f7 3d 12 ec 98 bd
       -0.07281466 0.11901604 0.121083535 -0.07466902
0000a0 74 7a c6 3d cf ec 0a 3e ab a8 79 be db 7b a4 bd
       0.09691325 0.13566898 -0.24380748 -0.08031436
0000b0 85 e9 b7 bd b2 12 80 bd b8 dd ec 3d f1 2b b8 bc
       -0.08980087 -0.06253566 0.11565727 -0.02248189
0000c0 28 a3 02 3e d6 3a 22 3e 70 b2 4a 3c 50 17 e5 3c
       0.12757552 0.15842757 0.012371644 0.027965218
0000d0 ea f1 4b 3c 73 9a 1b 3e 67 43 fc 3d ab bd 9d bc
       0.0124478135 0.15195636 0.123175435 -0.01925548
0000e0 78 a1 a8 bc 89 48 2c bd 45 e5 08 3e e7 c0 20 bd
       -0.020584807 -0.042061362 0.1336871 -0.039246466
0000f0 7b 7b 85 be d6 60 c1 bd ca 2e f3 bd e2 bc b6 bd
       -0.2607077 -0.09442298 -0.11874159 -0.08922745
000100 9b d8 47 3e 90 2e 28 3e 62 0f 33 3c d2 a0 fa bb
       0.19516222 0.16424012 0.0109289605 -0.007648566
000110 ed 2f 26 be 83 bc e9 3d 97 2b 69 3d 66 c6 5c bc
       -0.1622922 0.11412909 0.056926336 -0.013475036
000120 2e 53 04 be 1f de a4 bd d6 06 71 bd 9e ba 24 bd
       -0.12922356 -0.08050179 -0.05884441 -0.040217035
000130 11 5d d7 3d be 2a 23 3d 21 f3 62 3d c9 02 63 bc
       0.10515798 0.039835684 0.055407647 -0.0138556445
000140 aa 83 25 be 49 a3 87 bd 45 68 97 3d 31 64 94 3e
       -0.16163507 -0.06622941 0.07392935 0.2898269
000150 b1 4d df bd 71 af 3b 3e 44 8c 42 3d ff fb c9 bc
       -0.1090349 0.18328644 0.04749705 -0.024656294
000160 ff ea 63 3d a3 8c ef 3c 1d 19 d8 bd 82 55 22 3c
       0.05564403 0.029241866 -0.10551665 0.009908082
000170 5d 44 0b 3e 34 42 4f be 33 f9 05 bd 29 77 c2 3d
       0.13600297 -0.20240098 -0.032708358 0.09495384
000180 e5 de 53 3e f2 a2 06 3e 89 18 56 be c6 52 d6 3d
       0.20690496 0.13148096 -0.20907797 0.104650065
000190 fe 9e f3 bc ea c4 a5 3e 5f f8 68 bd 51 65 d6 3d
       -0.0297389 0.32376796 -0.05687749 0.10468543
0001a0 07 3c 9f bc 54 97 27 bd 04 61 71 3e fe 45 3c 3e
       -0.019437803 -0.040915802 0.23572165 0.18386075
0001b0 00 1e 45 3e 46 77 e4 bc 52 06 5b be 10 a8 e9 3d
       0.19249725 -0.027888905 -0.2138913 0.114090085
0001c0 dd 26 55 3e bb 98 ec 3c f0 f8 fc 3d 7b db b0 bd
       0.20815606 0.028881421 0.123521686 -0.086356126
0001d0 02 6c 94 bd 39 23 74 3d 50 2a 0b be f4 0f eb bd
       -0.07247163 0.059603903 -0.1359036 -0.11477652
0001e0 5e ab 56 bc 20 3e 03 bd 67 88 72 3e 7f 96 a4 bd
       -0.013102381 -0.03204167 0.23684846 -0.08036517
0001f0 aa 58 c2 bd 6f 39 69 3e 61 d7 00 be 57 fa 05 be
       -0.094895676 0.22775815 -0.1258216 -0.13083778
000200 ed f9 04 3e a2 12 94 bd 20 02 ac bd 33 c3 cd 3d
       0.12985964 -0.072301164 -0.08398843 0.10046997
000210 8e fb ea bd 35 83 aa bd 7a 52 41 3d 3a 30 a9 3c
       -0.114737615 -0.08325807 0.047197796 0.020652879
000220 be 94 4e 3e a5 e8 d8 3d 49 fc 82 be 2e de 86 bd
       0.20173928 0.105912484 -0.25583103 -0.06585346
000230 42 53 a9 3e 33 0e 97 3d 21 58 80 3e 09 cd 6d 3e
       0.33071333 0.07375755 0.25067237 0.23222746
000240 0e 67 2d bd 3a fe 9b 3e d8 d8 1b 3d ab 69 b3 bc
       -0.04233461 0.30467397 0.038048595 -0.021900972
000250 1b 2d bc 3d 21 1a 5f 3e 65 b1 ca 3c 20 10 fc bc
       0.09188291 0.21787311 0.024742791 -0.030769408
000260 bd 31 f4 bc b5 9d 4d 3e 49 65 b1 3d c0 e8 a0 3d
       -0.029808873 0.20079692 0.08661897 0.078568935
000270 a6 f7 44 3e c4 c5 8a be e7 eb 37 3d 26 d9 de bc
       0.19235095 -0.27104008 0.04490271 -0.027203154
000280 f9 24 2d 3d 01 66 0a be 23 82 c2 3d b8 8b 37 3d
       0.042271588 -0.13515474 0.09497478 0.04481098
000290 ed 15 0c be d4 91 43 3e d6 0f 8d 3d 96 03 29 be
       -0.13680239 0.19098598 0.06887786 -0.16505274
0002a0 ba ec 2b 3e e0 ec e6 bb 3f eb 65 be 2d 52 29 bd
       0.16789523 -0.0070472807 -0.2245302 -0.041338135
0002b0 fe 37 40 be 49 14 21 bd 45 f0 2a 3e b6 9a 48 3c
       -0.1877136 -0.039325986 0.16693218 0.012243917
0002c0 2d 54 c2 3c 17 93 9b 3d cd bd 18 3d 3a 9e c4 3c
       0.023721779 0.075964145 0.037290383 0.02400123
0002d0 1e a9 c4 bd 88 f4 2d 3e d1 31 ab 3d 88 15 92 3d
       -0.09602569 0.16987813 0.08359111 0.07133013
0002e0 2b 59 9a bd f8 83 86 bd 41 1e 69 3c 7a 8a b8 3d
       -0.07536539 -0.0656814 0.0142284045 0.09010787
0002f0 45 ab 67 be 6d f9 8a bd 9c 75 c6 bc 53 05 32 be
       -0.22623928 -0.067858554 -0.024226002 -0.17384844
000300 c2 8a 71 3d ed 81 b3 3d 09 eb 9b 3d 3f 64 8c bb
       0.05897022 0.08765016 0.07613189 -0.004284411
000310 f3 5e 6f 3d 01 38 15 3e 14 c7 be 3c f0 a3 41 bd
       0.05844016 0.14572145 0.023288287 -0.047275484
000320 50 34 06 bd 53 fd 81 3d f7 3e 85 3b f2 8b e6 bd
       -0.032764733 0.06347146 0.004066344 -0.11257161
000330 f9 7f ab 3d de 99 4b 3d 97 dc 26 3c cb ac a4 bb
       0.08374018 0.049707286 0.010184429 -0.0050254813
000340 bb a2 d8 bd e7 a2 db 3c ca 15 03 3e 2a 2c 42 3e
       -0.105779134 0.026811076 0.1280128 0.1896216
000350 7b 0a d0 bd db 18 d6 3b d3 93 ca bc 88 61 1c bd
       -0.10158249 0.0065337247 -0.024728691 -0.03817895
000360 03 90 5b 3d 5f 82 46 bb d6 a0 af 3b 94 59 cc 3d
       0.053604137 -0.003029011 0.0053597493 0.09978023
000370 56 3a d6 3d 57 1a 2a be 70 54 fd b9 11 9e 2f 3d
       0.104603454 -0.1661161 -0.0004831883 0.042875353
000380 06 e5 2c 3e 61 0f 63 3d 4c fb cb bd d7 30 d4 bd
       0.1688424 0.05543459 -0.099600405 -0.10360878
000390 90 6b 08 be db 98 44 be 46 73 e7 bd 2b dc 80 3c
       -0.13322282 -0.19198935 -0.113012835 0.015729984
0003a0 43 97 9f be b5 e9 80 3c 57 b2 90 3e de 57 c2 3d
       -0.3117009 0.01573644 0.28261063 0.094894156
0003b0 1b e6 10 3e 34 a0 0c 3e 98 2d 19 be f6 61 ef 3c
       0.14150278 0.13732988 -0.14958799 0.029221516
0003c0 0d e9 c6 3d e0 1e 0d 3d 6e 4d b5 3d 20 45 03 be
       0.0971242 0.034453273 0.08852659 -0.12819338
0003d0 11 24 2d bb 2a 14 d6 3d 50 9b 11 bd 1d 21 97 3e
       -0.0026419202 0.10453065 -0.03554851 0.2951745
0003e0 21 ee 9c bd 35 da bc bd 0a 58 0d 3e 4f 7b 98 be
       -0.07662607 -0.09221307 0.13803115 -0.29781577
0003f0 bf 59 f6 bd 94 4e 9b 3e 5e 43 df bd 2b 36 1b 3e
       -0.120288365 0.30333388 -0.10901521 0.15157382

shared.3.bias f4 [128]
000000 1a f4 f0 bc 42 14 85 3d 2e 2e aa 3d a5 6f 10 bd
       -0.029413272 0.064980045 0.08309589 -0.035262723
000010 74 a6 4e bd 85 fe 14 3d 0e 5a ea bc a1 3d 54 3d
       -0.05045171 0.03637554 -0.028607395 0.051816586
000020 af 4a cd bd 0b cc 08 3d cb b5 58 bd fe 9b 39 3c
       -0.100240104 0.033397716 -0.052907746 0.011328695
000030 41 85 84 bd 61 26 17 3d 01 86 c7 3a db ec 5e 3d
       -0.06470729 0.036901835 0.0015222431 0.0544251
000040 6a e8 80 3d 19 39 08 3d 57 6f 65 3c c3 1a fb bc
       0.062943295 0.033257578 0.014003596 -0.03065241
000050 af 35 35 3d 6f 22 4b 3d 22 18 61 3d 89 f9 11 bd
       0.04424065 0.049593385 0.054954655 -0.035638366
000060 4e 8b 09 bd ae 9a 5b 3d 46 ca 80 bc b8 ca 58 bd
       -0.033580117 0.05361431 -0.015721451 -0.052927703
000070 fe 7f 63 3d 96 20 87 3b 4d f8 2d bd 3e 8a c9 3b
       0.055541985 0.0041237576 -0.042473126 0.006150513
000080 98 77 d1 3d a7 51 8c bc da d0 6b bd 63 03 05 bd
       0.10227889 -0.017128779 -0.057572223 -0.032473933
000090 31 d7 1e 3d 0f ff ac 3d 82 36 fe bc 50 92 b4 3c
       0.03877944 0.08447086 -0.03103185 0.022042423
0000a0 a6 47 bf 3c db c5 74 bd ed 82 62 3d 0f be 6f bd
       0.023349594 -0.059759002 0.05530064 -0.058530863
0000b0 9d 69 9d bd de b6 e1 3d 61 9b cb bd ee ec 18 3c
       -0.0768616 0.11021207 -0.099417455 0.009333832
0000c0 06 ae 20 3d d8 f0 f4 3c 22 88 44 bc 03 cb ba 3c
       0.03922846 0.0299 -0.011995347 0.022801882
0000d0 23 9a 82 3d 8a 22 09 3c bd 5c 0c bd 50 50 9b bd
       0.063770555 0.008370051 -0.03426813 -0.07583678
0000e0 a0 8b 57 bd 03 39 14 3d 62 0b 57 bd 84 7d 0d bd
       -0.05262339 0.036187183 -0.05250109 -0.03454353
0000f0 2e 1c 35 bd e6 fb 34 bd a4 1f dd 3d 1e 9f 82 bc
       -0.044216327 -0.04418554 0.107970506 -0.015945014
000100 a1 8f a4 3d 8c 03 14 3d 98 f8 23 3a da fc 9a bb
       0.080352075 0.036136195 0.0006255 -0.0047298493
000110 2d d0 26 bd d0 31 7e 3c 9b 86 7a bd 62 8a fd 3c
       -0.040725876 0.015514806 -0.061163526 0.030949775
000120 b6 ce bf bd c6 6e bf 3d 92 67 8a 3d 80 f7 31 bd
       -0.09365599 0.093473 0.06758036 -0.043448925
000130 fc b8 04 bc 21 ff 22 3d 40 8b 16 3d 17 ad 21 bd
       -0.008100744 0.03979409 0.036753893 -0.039471712
000140 91 0f 9a 3d 26 0c 68 bd 85 2e 8c 3d 07 af 87 bc
       0.075225 -0.05665221 0.068448104 -0.016562952
000150 75 88 48 bd a0 8b 17 bd f5 6d 48 3d 92 93 40 3d
       -0.04895826 -0.03699839 0.04893299 0.047015734
000160 9c 7f 78 bd aa 4b c3 3c 2d e8 aa bc f7 21 13 3d
       -0.060668573 0.02383979 -0.020862663 0.035921063
000170 34 fd 33 3c 57 8f b0 3d 87 1d 42 3d bc 3d 3d bc
       0.010985661 0.0862109 0.04739144 -0.011550363
000180 e7 1e 62 3d b3 ad 75 3d 43 e6 f4 bc 33 1a 05 3d
       0.055205252 0.059980106 -0.029894954 0.03249569
000190 92 61 dd 3c 24 fe bd bc 5b 9e b4 bc cc 57 20 bd
       0.027024064 -0.023192473 -0.022048166 -0.03914623
0001a0 1b 77 d5 bc e3 32 b6 3d 50 8f 02 3c 87 b6 f1 3c
       -0.02605777 0.088964246 0.007968739 0.029505981
0001b0 c7 d2 25 3d 93 94 95 bc b8 34 57 3d 9a db cb 3d
       0.040484216 -0.018259322 0.05254051 0.09953995
0001c0 aa b5 36 bc 1f 20 5d 3d ea ae b2 bc 7e 7e 09 bd
       -0.0111517105 0.05398571 -0.021811921 -0.033567898
0001d0 e1 cd 4f bd 06 14 8b 3d a2 71 9a bc 54 86 a6 bc
       -0.05073345 0.067909285 -0.018853012 -0.020327725
0001e0 98 a9 91 bb 48 d3 44 3d 18 e1 31 3d 30 df 9a 3d
       -0.004445266 0.048053056 0.043427557 0.07562101
0001f0 ee 4b 2d bc 4d 6d 43 3d b0 55 e2 3d 19 0a 75 bc
       -0.010577185 0.04771166 0.110515 -0.014956021

shared.4.weight f4 [128]
000000 fe ef f9 3f 93 5f db 3f e7 df 8e 3f 38 07 ba 3f
       1.9526365 1.7138542 1.116208 1.4533453
000010 87 9c f3 3f 3f 6b 99 3f 3d b8 38 40 18 b8 44 40
       1.9032143 1.1985854 2.886245 3.0737362
000020 78 34 05 40 44 39 82 40 dc 51 0b 40 1a d7 32 40
       2.0813274 4.0694904 2.1768713 2.7943788
000030 db 3d 0a 40 79 2d 6d 40 67 00 dd 3f c9 ad 47 40
       2.1600254 3.7059004 1.7265748 3.119982
000040 d3 5c e4 3f 54 fc 36 40 ee 87 2d 40 ca 1b 08 40
       1.7840828 2.859151 2.7114215 2.126696
000050 ae 9c 44 40 99 61 03 40 da 23 39 40 83 c5 4e 40
       3.072063 2.052832 2.8928132 3.2308052
000060 37 4b 97 3f da 20 60 40 9c 8e 03 40 cc 37 fa 3f
       1.1819829 3.502005 2.0555792 1.9548278
000070 45 f3 71 40 ed 81 41 40 27 ee 6e 40 95 20 9f 3f
       3.780473 3.023555 3.7332857 1.2431818
000080 6d 97 6c 40 e3 c3 9c 3f bb 38 0d 40 1d 5b a5 3f
       3.6967423 1.224728 2.2065876 1.291843
000090 9b a5 aa 3f 97 3b 5d 40 36 79 88 3f 0c fd 02 40
       1.3331789 3.456762 1.0661991 2.0466948
0000a0 c8 fe 08 40 b8 78 57 40 bd 90 27 40 82 38 fa 3f
       2.1405506 3.366743 2.6182091 1.9548495
0000b0 d6 20 fd 3f ac 07 7c 3f 81 84 03 40 6f 18 f4 3f
       1.9775646 0.98449206 2.0549624 1.9069957
0000c0 6a 24 a0 3f e4 84 90 3f 83 86 42 40 7a c0 bf 3f
       1.2511113 1.1290555 3.03946 1.4980614
0000d0 17 5a a3 3f 1a 74 2f 40 0e 99 06 40 d2 84 8c 3f
       1.2761868 2.7414613 2.1030917 1.0978034
0000e0 2f a2 e2 3f 61 7c 6c 40 1d 02 05 40 0a 39 33 40
       1.7705745 3.6950915 2.078254 2.8003564
0000f0 a5 a4 07 40 c6 4e f1 3f b1 b5 42 40 91 ea 0d 40
       2.119424 1.8852165 3.0423396 2.2174418
000100 d2 91 4e 40 e7 51 81 3f b8 cd 3e 40 63 b0 9d 3f
       3.2276502 1.010312 2.981306 1.2319454
000110 cf e7 33 40 34 66 57 40 a2 0c 3c 40 33 3e 94 3f
       2.8110235 3.365613 2.938271 1.1581482
000120 03 70 f8 3f ec 01 c3 3f 24 90 e3 3f f1 99 8b 3f
       1.9409183 1.5234962 1.7778363 1.0906354
000130 b9 c6 6a 40 86 05 9b 3f 72 49 3f 40 86 be 37 40
       3.668379 1.2111061 2.9888577 2.8710036
000140 ec ea ac 3f e4 10 03 40 f5 18 98 3f e1 94 16 40
       1.3509192 2.047906 1.1882616 2.3528368
000150 b9 82 3e 40 62 e0 91 3f c3 f4 8d 3f 35 2b c0 3f
       2.9767287 1.1396601 1.109032 1.5013186
000160 a6 1f 92 3f c8 4a 36 40 c6 4a 0c 40 45 b1 76 3f
       1.1415908 2.8483143 2.1920638 0.9636424
000170 22 4f a7 3f 2c 16 7f 3f e1 d0 a2 3f d4 15 b0 3f
       1.3071024 0.99643207 1.2719995 1.3756661
000180 04 c1 93 3f 2e 27 88 3f d4 b3 53 40 1c 9c 87 3f
       1.1543279 1.0636957 3.3078508 1.0594516
000190 37 71 ae 3f 1f ca c7 3f bc 23 c2 3f eb 12 fe 3f
       1.36283 1.5608557 1.5167155 1.9849523
0001a0 47 5c 39 40 cc 3b a8 3f 4e 8e 8a 3f 81 df 86 3f
       2.8962572 1.3143249 1.0824678 1.0536958
0001b0 2a 7c 2a 40 44 c6 99 3f 96 fc 07 40 1d cc 4f 40
       2.6638284 1.2013631 2.1247916 3.246833
0001c0 19 30 8d 3f 8b be 9a 3f e2 04 39 40 d2 19 89 3f
       1.1030303 1.2089399 2.890923 1.0711005
0001d0 cb 11 d9 3f 88 fa 30 40 67 5c 41 40 46 cd ad 3f
       1.6958555 2.7652912 3.0212648 1.357827
0001e0 42 c0 7e 3f b2 83 22 40 48 34 f0 3f d8 cc a1 3f
       0.9951211 2.539288 1.8765955 1.2640638
0001f0 98 c7 5f 40 ee 90 28 40 b5 b7 27 40 f7 46 8d 3f
       3.4965572 2.6338458 2.6205876 1.1037282

shared.4.bias f4 [128]
000000 49 e5 3e 3f 55 f8 4e 3f f5 42 a4 3b 07 b7 03 3e
       0.7456861 0.80847675 0.0050128647 0.12862788
000010 ea 62 6c 3f f8 4e 8c 3e 52 7c d1 3f e4 84 d8 3f
       0.9233843 0.27403998 1.6366065 1.6915555
000020 67 9d 1c 3f 29 e1 ea 3f a4 bf 08 3f d8 88 e5 3f
       0.61177677 1.8349963 0.5341742 1.7932386
000030 98 f1 14 3f 83 8a e0 3f 45 e1 4b 3f f1 ad d5 3f
       0.5818114 1.754227 0.7964061 1.6693708
000040 21 b1 54 3f b3 ab d7 3f 9d fc d3 3f d8 7c 07 3f
       0.8308278 1.6849273 1.6561466 0.5292487
000050 8d 37 df 3f d9 e1 11 3f 30 f7 de 3f b0 97 e7 3f
       1.7438828 0.5698524 1.7419186 1.8093166
000060 c1 5d ce 3d 43 66 e3 3f 8e 0e 08 3f 07 c6 22 3f
       0.10076476 1.7765583 0.5314721 0.63583416
000070 7b 10 e3 3f 59 58 da 3f f0 88 e6 3f ec ac 47 bd
       1.7739404 1.7058212 1.801054 -0.048748896
000080 f4 4b e4 3f f3 68 9d 3c a0 fc 2b 3f 5a 48 b6 3c
       1.7835679 0.019215083 0.6718235 0.022251297
000090 1f a2 59 3d b7 03 e3 3f 8a 7d 6d 3d cc 00 3f 3f
       0.053133126 1.7735509 0.05798105 0.7461059
0000a0 73 14 0f 3f fa 20 db 3f 11 97 dc 3f 16 b9 1b 3f
       0.5589058 1.7119439 1.7233602 0.60829294
0000b0 8d 9c fd 3e b9 0f 69 be e5 d2 13 3f 83 e9 28 3f
       0.495335 -0.22759904 0.57743675 0.6598131
0000c0 2e 7c e9 3d 13 ba e5 bc 2f d4 dc 3f 64 d3 62 3e
       0.114006385 -0.028042829 1.7252253 0.22150952
0000d0 1f d7 d4 bb c6 cd d9 3f b4 ac fe 3e 7a 1d 39 3d
       -0.006495371 1.7015922 0.49741137 0.045194127
0000e0 6c 4e 3a 3f 22 08 e4 3f bf 2d 15 3f 10 e8 da 3f
       0.7277591 1.7814982 0.5827293 1.710207
0000f0 2f aa 10 3f 31 31 32 3f f8 75 e5 3f bc 6c 38 3f
       0.5650968 0.6960631 1.7926626 0.72040915
000100 f9 3d d8 3f b0 c3 07 3e db 8c dd 3f ca 1b 1b 3c
       1.6893913 0.13258243 1.7308611 0.009467075
000110 ae 31 db 3f 46 c4 e4 3f ca 3d e4 3f e2 89 8f 3d
       1.7124536 1.7872398 1.7831357 0.07008721
000120 bf 9a 32 3f 0c 2e a2 3e 0d 09 4e 3f e8 d6 eb 3d
       0.69767374 0.31675756 0.8048256 0.115155995
000130 52 e6 d5 3f 3d 6c 50 3e 44 f9 d8 3f 21 e7 dd 3f
       1.6710913 0.2035379 1.695107 1.733616
000140 4e 33 01 3e 80 7f 13 3f 0f 12 98 bd 41 5a d6 3f
       0.12617227 0.57616425 -0.074253194 1.6746293
000150 f8 d9 de 3f 78 4f 02 3d 32 8d fd bd c8 3e 18 3e
       1.7410269 0.03181407 -0.123804465 0.14867699
000160 20 d6 a2 bd 20 f8 e6 3f 70 1c 1a 3f be 5d c7 bd
       -0.07950997 1.8044472 0.6019964 -0.09734677
000170 c5 d2 66 3d d4 0f fb 3d aa 66 28 3d 97 be 23 3d
       0.05635335 0.12258878 0.041113533 0.039976683
000180 da be a1 3c 7a 03 88 bd 99 93 ef 3f e6 0d 53 be
       0.019744325 -0.06641288 1.8716918 -0.2061077
000190 8f d1 09 bd 5a cf 41 3e 02 ca b9 3d 66 50 27 3f
       -0.033647116 0.18926755 0.09071733 0.65357053
0001a0 61 c8 de 3f 87 e4 cb 3d a6 f9 b9 3c 8b 20 5c 3e
       1.7404901 0.099556975 0.02270205 0.21496789
0001b0 aa 8a dc 3f 60 5c a2 bd 86 fe 12 3f 97 bf e9 3f
       1.7229817 -0.079277754 0.5741962 1.8261594
0001c0 8f 8c 95 3d d0 e4 78 bb 67 a3 e5 3f e3 92 a9 3d
       0.073022 -0.003797818 1.7940491 0.082799695
0001d0 e6 2e 56 3f 73 8d e0 3f c1 ac dc 3f 28 a6 d9 3c
       0.8366531 1.7543167 1.724022 0.026568487
0001e0 a0 8a b8 3e 83 b8 de 3f 9f ef 26 3f c5 5e e3 3d
       0.36043262 1.7400059 0.6520938 0.1110206
0001f0 3f 96 ea 3f 76 c9 df 3f 89 e3 e3 3f c3 c0 05 3d
       1.8327101 1.7483356 1.7803813 0.032654535

actor_mean.weight f4 [2, 128]
000000 75 0a 12 bd 1f be 08 be 16 6b 5c 3d 44 0c 66 3c
       -0.035654504 -0.13353775 0.053813063 0.01404101
000010 7a fe a6 3d ab 37 b8 bd b3 e4 7f bd 59 9d d1 bd
       0.08154006 -0.08994993 -0.062473964 -0.1023509
000020 3b 7b 89 3d 53 7c b0 bd 42 37 5c bd 53 ed 3e 3d
       0.067129575 -0.08617463 -0.053763635 0.04661305
000030 80 b9 54 3d e7 9a 45 bd 2e 04 c9 bd 32 94 8e 3d
       0.05193472 -0.04824343 -0.0981525 0.0696186
000040 9d 6c a3 3d 68 e8 69 3d 62 13 c1 bc ec 22 ae 3d
       0.07979701 0.057106405 -0.023568813 0.085027546
000050 26 f7 1c 3d 72 cc 86 bd 1a fd e4 3c 16 74 21 3e
       0.038321637 -0.065819636 0.02795272 0.1576694
000060 72 c9 20 bd 0c f7 a8 bc 2d 41 2c bd 93 9b 79 3d
       -0.039254613 -0.020625614 -0.042054344 0.060939383
000070 1d b4 b8 3d a2 e7 75 3d 17 9b bd bc 75 7c f6 bc
       0.09018729 0.060035355 -0.023145242 -0.030088643
000080 23 f3 47 3d 54 80 a0 3c b6 76 3b 3d f3 a8 81 3b
       0.048815858 0.019592442 0.04576751 0.003956908
000090 21 20 42 3d 12 ea 65 bd d1 9d 7b 3d 25 4d cb 3c
       0.04739392 -0.05613143 0.061429802 0.024817059
0000a0 8b 29 5c bd d1 de 8f 3d d0 7a ae bd ea f4 46 3d
       -0.053750556 0.07024921 -0.085195184 0.048573412
0000b0 1a b7 c4 3d de f8 09 3e 1f 93 81 3d ba 5e 7e 3e
       0.09605236 0.13473842 0.06326889 0.24840823
0000c0 93 6a 30 3d b2 b0 02 3c 40 db 4e 3d 7d 15 32 3d
       0.043070387 0.007976698 0.05050206 0.043477524
0000d0 de 48 88 3d c1 87 da bc 0b f5 d6 3d 07 13 97 bd
       0.06654523 -0.02667606 0.10495957 -0.07376676
0000e0 9f a9 ff bc dc 44 06 bd 83 d6 7f bc ad 80 7c 3d
       -0.031208811 -0.032780513 -0.015615108 0.061646152
0000f0 9f 36 00 3d 88 87 8a bd c3 11 35 3c 85 ab 05 3d
       0.03130209 -0.06764132 0.011051598 0.032634277
000100 33 c7 03 bd 2e 67 09 bd 38 fa 74 3d da 50 73 3d
       -0.032172393 -0.033545665 0.05980894 0.059403278
000110 da 78 64 3d 64 48 a0 bd 83 6d 2d 3d 81 85 56 3c
       0.055779316 -0.078263074 0.042340767 0.013093353
000120 f6 94 e6 bc 85 78 32 be 69 60 86 bd fe a7 f4 bd
       -0.028147202 -0.17428787 -0.065613575 -0.119461045
000130 c2 ab 13 bd 18 c5 0f 3c 71 76 73 bb a8 7b 1c bd
       -0.036052473 0.008775018 -0.0037149454 -0.038203865
000140 78 fa 6e 3e f5 22 d0 3d 0c a2 07 3e b7 93 da bd
       0.23337734 0.101629175 0.1324541 -0.106727056
000150 8a 7d 20 bc 42 5f 2c bd 5e 77 f5 bd fe ba dd bc
       -0.009795556 -0.042083032 -0.11985658 -0.027066704
000160 bd 8a 7b 3d 62 a6 53 bd df d0 3c 3d dc fd a1 bc
       0.061411608 -0.051672347 0.046097632 -0.01977437
000170 d5 e0 8c 3e 98 5a ca 3d 62 88 0c bc 99 75 61 3d
       0.27515283 0.09880561 -0.008577438 0.05504379
000180 19 f6 3e bd 4d c2 80 3d 2a 77 15 3c 38 9d c3 3d
       -0.046621416 0.0628706 0.009122649 0.095514715
000190 6a d2 be 3d a0 3e 34 3e 5f 88 34 bd d2 32 09 3e
       0.09317477 0.17602015 -0.044075366 0.13398293
0001a0 e0 9d 83 3d 61 64 21 ba 77 81 24 be 98 52 47 3e
       0.06426597 -0.000615662 -0.16065012 0.19465101
0001b0 47 32 2e 3d 97 ab 95 bd 50 a9 0f 3e 2e 5a cf 3d
       0.042528417 -0.07308119 0.14029431 0.10124622
0001c0 e9 02 fb bd 16 ce 05 3d 96 10 ab 3d ab d2 52 3d
       -0.122564144 0.032667242 0.08352773 0.05147044
0001d0 33 da 88 3c ff 58 11 3c 63 46 b8 3d 9a 98 ac bd
       0.016705608 0.008871316 0.089978 -0.08427544
0001e0 03 7c c4 bd 9d ae 4e 3c ab 99 84 3d 06 42 bd 3d
       -0.09593966 0.012614873 0.06474622 0.092411086
0001f0 a7 c2 24 bd 75 37 72 bd 4e 0c c5 3d 5a 84 1c 3d
       -0.040224697 -0.05913492 0.096214876 0.038212158
000200 a1 af 16 bc 81 64 27 be 65 fa 26 be 9b 76 80 3b
       -0.009197147 -0.16346933 -0.16306455 0.003920389
000210 eb 8f 38 3d c2 b5 bb bd fa 2b 58 3e cb 29 36 3e
       0.045059126 -0.09165527 0.21110526 0.1778938
000220 71 39 90 3c 8a d1 03 bc 5e 4d de 3c 8a e2 0f bd
       0.017605515 -0.0080455635 0.0271365 -0.035128154
000230 d6 68 09 3c 05 55 01 3e d1 cd 91 3d 92 0b 49 3c
       0.008386811 0.12630089 0.071193345 0.012270825
000240 e3 85 a5 bd 2c f5 d4 bd 91 b9 32 bd e4 1d 4a bd
       -0.080821775 -0.10398325 -0.043634 -0.049344912
000250 56 b8 84 bd a1 3a 81 bc 8a 4c 29 3d c2 17 80 bc
       -0.06480472 -0.015775027 0.04133276 -0.015636329
000260 d3 23 7d 3a 1c 04 ac bd 40 40 a0 3d 38 e8 b5 3d
       0.00096565223 -0.08399221 0.07824755 0.08882183
000270 01 1e cd 3d e1 65 51 3d ba c3 30 bd 9c 9e 64 bc
       0.100154884 0.05112255 -0.04315541 -0.013953831
000280 08 46 59 bd 90 7d c6 bd c0 45 ef 3d 97 b7 38 3e
       -0.053045303 -0.09691918 0.11683226 0.18038784
000290 42 56 ed 3d 91 ac 07 3e c1 a1 fb 3d 0b ee 03 3d
       0.11588718 0.13249423 0.122867115 0.032209437
0002a0 cc 32 5f 3c 12 9c 38 3d a7 ca e2 3b 18 9b c5 bb
       0.013622951 0.045070715 0.0069211307 -0.0060304515
0002b0 ec 96 02 bc ae a2 24 be ca e6 96 bd 2f 44 32 bc
       -0.007970553 -0.16077682 -0.07368238 -0.010880514
0002c0 75 85 99 3b 6d 07 6c 3d fc 1e 39 bd 0d a7 0f be
       0.004685099 0.05762427 -0.045195565 -0.14028569
0002d0 21 fb e5 bd 3f e9 22 be 4e ed 8a 3d 08 72 ee 3a
       -0.1122954 -0.15909289 0.067835435 0.0018191943
0002e0 67 9c ce bc 5c 00 24 3d a1 76 6b 3d 7f 0a 82 bd
       -0.025221063 0.040039405 0.05748618 -0.06349658
0002f0 ac d7 0b 3e bf 3c 50 3d 4c 68 9c bd aa c8 bd 3d
       0.13656491 0.050839182 -0.076370806 0.09266789
000300 b1 fe 75 bc 20 12 2a be 43 5b 8e bc 7b 41 b0 3d
       -0.015014336 -0.16608477 -0.017377501 0.086062394
000310 02 fe 77 bc a7 82 eb 3c 4c bb ed 3c ed 2d fc 3d
       -0.015136244 0.028748823 0.029019974 0.12313447
000320 94 a2 8c bd 1f 47 37 be f2 fb df 3d c8 41 a8 be
       -0.06866947 -0.17898224 0.10936727 -0.32862687
000330 9e 8f d5 bd aa 97 5d 3e 67 01 69 bd 1a 78 02 3e
       -0.104277834 0.21639886 -0.056886103 0.12741128
000340 04 fc 30 be ca 63 a3 3d aa f7 e0 bc 6a 77 cb bd
       -0.17283636 0.07978018 -0.027461845 -0.09934886
000350 4b c7 c2 3b 29 35 ef 3b a7 52 0f bb 2a 8b cd 3b
       0.0059441677 0.0073000384 -0.0021869333 0.006272693
000360 ff 50 08 bc f2 d0 4b 3d 77 0c 60 3c 5a c3 30 bd
       -0.008320092 0.049759813 0.013674847 -0.04315505
000370 f9 8d ee 3d 86 55 2c 3d 41 d8 2b bd 5e 9e 40 bd
       0.11648173 0.04207375 -0.041954283 -0.04702603
000380 76 0c 8a bd 36 c2 00 3d 76 95 2f ba 8f e1 9c bb
       -0.06740658 0.031435214 -0.00066979916 -0.004787631
000390 8c e6 37 be 0e dd ed 3d 0b 42 5a bc 3e 3d 06 bd
       -0.1795904 0.116144285 -0.01332141 -0.03277325
0003a0 f5 48 e6 bd c9 9e d3 bd 0e b3 97 bd d7 b0 4c bd
       -0.11244384 -0.1033302 -0.07407199 -0.049973335
0003b0 ac b1 44 bc de 41 b6 3d c6 31 9c bd 08 e1 8e 3d
       -0.012005251 0.08899282 -0.07626681 0.06976515
0003c0 98 2f 09 bd ac ab df 3d e5 ef 06 3d d5 7f d1 3b
       -0.033492655 0.10921416 0.032943625 0.0063934126
0003d0 4c 92 6c 3e b4 54 99 3d 41 43 af bc 6e 91 27 bc
       0.23102683 0.07486859 -0.021394374 -0.010227544
0003e0 88 6b 85 bc 9f 3d 71 3d 6d b9 1d be 0b 55 bc 3c
       -0.016286626 0.058896657 -0.15402766 0.02298977
0003f0 43 02 16 be 44 29 3b bd b3 e9 16 3d 18 ea 2f 3d
       -0.146493 -0.04569365 0.036843967 0.04294786

actor_mean.bias f4 [2]
000000 46 ae 86 3d fa fd a1 3d
       0.06576209 0.0790977

critic.weight f4 [1, 128]
000000 06 81 4f bf e0 5e 31 bf f1 74 9d bd fd d7 cb be
       -0.8105625 -0.6928539 -0.076883204 -0.39813223
000010 3b c3 48 bf d2 c0 65 be 62 2a ee 3f 2e 8d f6 3f
       -0.784229 -0.22436836 1.8606684 1.9261835
000020 c9 88 58 bf f5 12 2c 40 13 66 69 bf 05 cc d6 3f
       -0.8458372 2.688657 -0.9117138 1.6781012
000030 fe 44 5c bf c2 0d 1b 40 99 16 39 bf 3e ba fa 3f
       -0.86042774 2.4227147 -0.72300106 1.9588087
000040 15 c4 37 bf 92 e2 eb 3f f9 2c de 3f 26 97 57 bf
       -0.7178357 1.8428519 1.7357475 -0.8421501
000050 e9 32 02 40 b0 73 60 bf 2f c6 e7 3f 95 70 03 40
       2.0343573 -0.87676525 1.8107356 2.0537465
000060 60 e0 7c be 05 29 10 40 4f cc 46 bf 0c 0d 49 bf
       -0.24694967 2.2525036 -0.776555 -0.7853553
000070 f8 a0 20 40 4d ed fa 3f d1 5f 20 40 2c 3b 78 be
       2.5098248 1.9603668 2.5058482 -0.24241322
000080 f0 fa 1e 40 4e 3f 69 3e dc f0 71 bf b1 83 a4 be
       2.484066 0.22778055 -0.9450815 -0.32131723
000090 d7 31 ae be 2c fc 11 40 77 68 e6 bd 81 b9 5f bf
       -0.340224 2.2810163 -0.11250394 -0.8739243
0000a0 94 4d 63 bf 30 37 0b 40 de 8b d1 3f 88 0f 46 bf
       -0.8879025 2.1752434 1.6370809 -0.7736745
0000b0 13 af 4b bf e5 31 49 3d e7 e8 51 bf 72 c5 3e bf
       -0.7956402 0.04911985 -0.81996006 -0.7452003
0000c0 e3 c5 84 be 05 24 1a be 9d 50 f4 3f c8 e6 dd be
       -0.25932226 -0.15052803 1.9087101 -0.43340135
0000d0 15 ba 8e be 26 f2 da 3f b7 90 51 bf 7a 0d ac bd
       -0.27876344 1.7105148 -0.8186144 -0.08401008
0000e0 7e 66 39 bf 8e 51 1c 40 f8 9c 59 bf f9 f5 dd 3f
       -0.72422016 2.4424777 -0.8500514 1.734069
0000f0 2a c7 4f bf 83 49 4d bf 12 8c f4 3f 97 30 72 bf
       -0.81163275 -0.80190295 1.9105246 -0.9460539
000100 e7 c6 04 40 ed 65 23 bd 84 ee f2 3f d8 2a 9a be
       2.07464 -0.039892126 1.8979039 -0.30110812
000110 4c 32 e3 3f 1b 81 06 40 25 0b e9 3f 92 38 13 be
       1.7749724 2.10163 1.8206526 -0.14377049
000120 25 4f 46 bf 7a 4d eb 3e 43 69 39 bf 25 58 33 be
       -0.77464515 0.45957547 -0.7242624 -0.17514093
000130 3d d9 1c 40 69 4c 8a be 04 94 f2 3f 13 e9 e5 3f
       2.4507592 -0.2701142 1.8951421 1.7961754
000140 36 6d 71 be 9f f2 54 bf 48 73 7a be 86 d8 c2 3f
       -0.23576817 -0.8318271 -0.24458039 1.5222328
000150 ee aa ed 3f 50 4f 80 bd 59 a1 00 3e e0 b9 ce be
       1.8567789 -0.06265128 0.12561549 -0.40376186
000160 07 76 2d be 69 74 e2 3f 24 d5 56 bf b0 ab 41 bd
       -0.16939555 1.7691776 -0.83918977 -0.047282875
000170 be 22 96 be 01 c7 4a bd ed 20 75 be 93 37 bd be
       -0.2932338 -0.04950619 -0.23938341 -0.36956462
000180 07 fd 44 be b7 25 45 3d 80 fb 02 40 91 a6 df bd
       -0.19237147 0.04813167 2.0466003 -0.10920442
000190 20 5d d4 be 48 c1 d6 be 21 5b f0 be 49 64 55 bf
       -0.414773 -0.41944337 -0.46944526 -0.8335615
0001a0 f7 df e2 3f c9 bd 2c be e3 11 96 3d 22 e4 7c bd
       1.7724599 -0.16869272 0.0732763 -0.061741002
0001b0 1e b4 d2 3f b7 0d 89 be a8 12 59 bf c3 32 02 40
       1.6461217 -0.26768276 -0.8479409 2.0343482
0001c0 94 23 00 be 15 84 67 be 6f c3 e8 3f 2f e5 7c bd
       -0.12513572 -0.22608979 1.8184642 -0.061742004
0001d0 90 66 31 bf eb d7 d8 3f cf c9 f1 3f 75 53 d4 be
       -0.6929712 1.6940893 1.8889712 -0.41469923
0001e0 41 da d4 bd 6c ce c4 3f 37 16 37 bf 19 bf 55 be
       -0.10393191 1.5375495 -0.7151827 -0.20873679
0001f0 81 e4 0f 40 81 fb cf 3f e8 d5 cd 3f 34 f8 06 3d
       2.2483218 1.6248628 1.6080904 0.03295155

exp_avg f4 [2]
000000 c8 fb d2 b5 58 72 cd 36
       -1.5719497e-06 6.1227875e-06

exp_avg_sq f4 [2]
000000 3c 02 85 31 cf 1c 80 31
       3.8710635e-09 3.7285655e-09
