models/race_ppo_base.pt (torch, 457858 bytes, 36 tensors)

actor_logstd f4 [2]
1.3159562 0.6268893
00000000: 4171 a83f d17b 203f

shared.0.weight f4 [128, 18]
0.52118146 -0.107447736 0.44328645 0.5002513 0.6793123 0.20286772 0.45021403 0.38262245
0.8830299 0.48420537 0.4486274 0.7203453 -0.16596557 0.4006553 0.4049952 0.61846435
0.53949696 0.72558326 0.47545764 -0.0076205935 0.1093399 0.24880847 0.20541571 -0.09241439
-0.026371453 0.018000614 0.017246777 -0.3664683 -0.08141169 -0.4401683 0.060640227 0.27098605
0.06127655 0.39122054 0.14286141 0.016454328 0.2999424 -0.067439 0.36934018 0.12699331
-0.23160894 0.11470911 0.2119846 0.30723614 0.34639558 -0.009787365 0.2870985 0.5278169
0.18084744 0.47944188 -0.113111 0.29227623 0.32945526 0.24493612 0.0554296 0.2483548
-0.18464753 0.39597052 0.21816017 0.4572692 0.08156084 0.45885417 0.16426715 -0.0103933215
0.37301177 0.4101377 0.25615937 -0.164133 0.46417785 0.29778484 0.18502164 0.24922855
0.30905396 -0.16392633 -0.0078894235 0.4004114 0.23331997 0.46429127 0.25120497 0.12937611
0.21701588 -0.109140754 0.053718023 -0.0007710908 -0.032428056 -0.27357474 0.030977504 0.2983382
0.23684292 0.16259313 -0.052796822 0.07906064 0.36177456 0.31829432 0.2085362 0.015633168
0.11191351 0.04464394 0.34977365 0.13888529 -0.43696794 -0.035755668 0.2553514 0.19717166
0.457804 0.19598624 0.20567821 0.2088591 0.021289507 0.3815825 0.27325726 0.22228406
0.26556277 0.2202313 0.33054522 0.5071256 -0.23066667 -0.13266549 -0.054173175 0.38509184
-0.1628627 0.2163282 0.13603675 0.1465467 -0.036276333 0.22993453 0.006162307 -0.08156505
0.07042218 0.06586579 0.22366181 -0.11823253 0.3720317 0.021608144 0.3578524 0.49281004
0.035898805 0.15619175 -0.2233054 0.31001556 0.74423957 -0.1859867 0.110472195 0.13629553
0.095554754 0.006799665 0.1536456 0.21015769 0.14691532 0.18576743 0.17123006 0.41208857
-0.05370693 0.021681324 0.29045388 -0.39904308 -0.2405214 0.31290004 0.3722573 0.06432674
-0.18589869 -0.4551602 0.062515005 0.37221685 0.13662153 0.22290945 -0.023975976 0.13677707
0.25210437 0.2923129 0.22979198 0.51925987 0.17897366 0.11670662 0.02452524 -0.05088878
0.83835655 0.31418976 0.22951214 0.12018947 0.3768886 -0.0051120394 0.26411694 0.59341985
0.8348123 0.26224276 0.552801 0.5686919 0.580536 0.56633896 0.45654714 0.47420633
0.12180459 0.35621148 0.28667113 0.42943475 0.533003 0.68959904 0.101816595 0.10818026
-0.40027308 0.107120514 0.06301593 0.033013187 0.26510867 0.2823807 -0.07741979 0.05941924
-0.033427253 0.34882087 -0.2108531 0.21054497 -0.022924995 0.036190577 0.101579 0.19928643
0.16762877 0.0003685164 0.044222817 -0.09326906 0.19903246 0.014171633 0.20363739 0.12866662
0.42001128 0.38744515 0.3367327 0.045362037 -0.013085174 0.11964231 -0.04361093 -0.057920348
0.015524902 0.11681895 -0.07242399 0.15710284 0.15593366 0.4798925 0.3450303 0.43421704
0.019122465 0.39170024 -0.019487498 0.11166029 0.06134382 0.3179054 -0.034521587 0.10420183
-0.092538886 0.04976457 0.19471733 0.11574072 0.20210972 0.033043843 0.52625203 0.010415821
00000000: 266c 053f 8f0d dcbd 71f6 e23e 7810 003f
00000010: 69e7 2d3f 8ebc 4f3e 7482 e63e 17e7 c33e
00000020: 3f0e 623f c4e9 f73e 7eb2 e53e 8d68 383f
00000030: e1f2 29be b122 cd3e 885b cf3e ae53 1e3f
00000040: 791c 0a3f d3bf 393f 2f6f f33e 2cb6 f9bb
00000050: 99ed df3d a6c7 7e3e 7f58 523e c143 bdbd
00000060: f208 d8bc 0676 933c 1d49 8d3c bca1 bbbe
00000070: 2cbb a6bd bd5d e1be e361 783d afbe 8a3e
00000080: 1ffd 7a3d 0f4e c83e 434a 123e 3acb 863c
00000090: 0d92 993e 751d 8abd 281a bd3e 890a 023e
000000a0: e52a 6dbe 9cec ea3d 7e12 593e 0e4e 9d3e
000000b0: c35a b13e 2f5b 20bc 93fe 923e 021f 073f
000000c0: 1230 393e 6879 f53e bda6 e7bd 3ba5 953e
000000d0: 5cae a83e 89d0 7a3e 260a 633d b850 7e3e
000000e0: 3e14 3dbe a6bc ca3e 6165 5f3e 301f ea3e
000000f0: 5f09 a73d efee ea3e a635 283e c048 2abc
00000100: 66fb be3e 92fd d13e 5227 833e 7b12 28be
00000110: b8a8 ed3e 4177 983e 5076 3d3e c535 7f3e
00000120: 523c 9e3e 4edc 27be a442 01bc b902 cd3e
00000130: 6eeb 6e3e 96b7 ed3e f09d 803e 2c7b 043e
00000140: 6939 5e3e 3085 dfbd 6e07 5c3d 0723 4aba
00000150: 48d3 04bd fd11 8cbe 89c4 fd3c c9bf 983e
00000160: f386 723e d07e 263e 7b41 58bd 8bea a13d
00000170: 843a b93e 79f7 a23e 838a 553e 2111 803c
00000180: e932 e53d 90dc 363d 8815 b33e f237 0e3e
00000190: 43ba dfbe 8974 12bd 6bbd 823e 5ee7 493e
000001a0: 4965 ea3e 9eb0 483e 4f9d 523e 29df 553e
000001b0: 5567 ae3c c85e c33e 60e8 8b3e 6f9e 633e
000001c0: d8f7 873e 5084 613e 393d a93e fcd2 013f
000001d0: e233 6cbe 76d9 07be b1e4 5dbd c22a c53e
000001e0: 7bc5 26be 2485 5d3e 384d 0b3e 5710 163e
000001f0: 7e96 14bd f573 6b3e 2eed c93b 940b a7bd
00000200: 8139 903d a5e4 863d 9a07 653e e623 f2bd
00000210: f07a be3e 9003 b13c 6e38 b73e 9951 fc3e
00000220: a00a 133d bbf0 1f3e 2caa 64be 5cba 9e3e
00000230: 7c86 3e3f 4c73 3ebe 3f3f e23d 0e91 0b3e
00000240: 36b2 c33d b9cf de3b 4655 1d3e 9433 573e
00000250: f870 163e d139 3e3e ef56 2f3e 46fd d23e
00000260: ccfb 5bbd 089d b13c 5fb6 943e 604f ccbe
00000270: 3e4b 76be 6f34 a03e 8298 be3e bdbd 833d
00000280: 3a5c 3ebe c20a e9be de07 803d 3593 be3e
00000290: 84e6 0b3e 6042 643e 4469 c4bc 4a0f 0c3e
000002a0: d313 813e 09aa 953e 974e 6b3e 37ee 043f
000002b0: df44 373e e103 ef3d 28e9 c83c c170 50bd
000002c0: 899e 563f 7bdd a03e 3b05 6b3e e625 f63d
000002d0: 8bf7 c03e e582 a7bb 563a 873e 5dea 173f
000002e0: 42b6 553f af44 863e 5e84 0d3f cb95 113f
000002f0: 029e 143f 97fb 103f 8cc0 e93e 2ccb f23e
00000300: af74 f93d 5a61 b63e 8fc6 923e dfde db3e
00000310: e272 083f 9089 303f 3885 d03d 9d8d dd3d
00000320: 98f0 ccbe 0062 db3d 7f0e 813d d638 073d
00000330: 53bc 873e 3494 903e 448e 9ebd 9761 733d
00000340: 04eb 08bd a698 b23e e0e9 57be 1a99 573e
00000350: 33cd bbbc 923c 143d a708 d03d be11 4c3e
00000360: e0a6 2b3e 6f35 c139 fc22 353d d903 bfbd
00000370: 2acf 4b3e 2330 683c 5286 503e 2fc1 033e
00000380: b80b d73e 365f c63e 3a68 ac3e 8bcd 393d
00000390: 3363 56bc 0707 f53d 60a1 32bd e33d 6dbd
000003a0: 295c 7e3c c63e ef3d 0753 94bd 91df 203e
000003b0: 13ad 1f3e 78b4 f53e d0a7 b03e b251 de3e
000003c0: b7a6 9c3c ef8c c83e 3fa4 9fbc 26ae e43d
000003d0: a843 7b3d 7fc4 a23e 8266 0dbd c567 d53d
000003e0: 0785 bdbd efd5 4b3d fb63 473e 7809 ed3d
000003f0: daf5 4e3e fb58 073d 74b8 063f 1fa7 2a3c

shared.0.bias f4 [128]
0.3659269 0.3947223 0.3269953 0.34983084 -0.01636135 0.0358781 0.052382402 0.16970424
0.45712703 0.21803904 0.718366 0.23345262 0.18124281 -0.015247682 0.16739802 0.2939696
0.05740793 0.5020035 0.037338417 0.36478087 -0.10364036 0.31344143 0.051419593 -0.12759739
0.21514739 -0.08759222 0.031771295 0.2630951 0.39241934 0.16027659 0.07253123 0.2719902
0.18528293 -0.010793666 0.51356465 -0.10891484 0.35987166 0.31239113 0.08827824 0.07450424
0.32431927 0.3316847 -0.07458132 0.28334847 0.4532626 -0.027991293 0.2870804 0.31794396
0.18005812 0.32523164 0.05270144 0.05830809 -0.0011832258 0.13015655 0.30873665 0.18200739
0.40081152 0.3568729 0.24997057 0.32914662 0.15177268 0.38245592 0.27956536 -0.012794419
0.2850276 0.28057244 0.23802559 -0.12546106 0.14388365 0.30801952 0.24740839 0.0350915
0.4230268 0.38676494 -0.07060041 -0.002645712 0.09015419 0.084801234 0.22451827 0.30251056
0.22753018 0.33875886 0.40768212 0.08635735 0.24195357 0.044178005 0.19348149 0.45933053
0.12414549 0.15663111 0.28678334 0.099144116 0.4598964 -0.013596096 0.34637505 0.14243606
0.12566745 0.11178966 -0.07630165 0.40732065 0.10446949 0.014351647 0.13279667 0.5280913
0.19584621 -0.025700567 0.12605716 0.033465967 0.2857606 0.18103525 0.008265589 -0.06786721
0.35351697 0.46450052 0.21825612 0.044019498 0.24743824 0.12813802 0.020708079 0.48427752
0.24072991 0.09544141 0.18343727 0.05047591 0.08735093 -0.067643434 0.117365904 0.21631756
00000000: c55a bb3e 0b19 ca3e ee6b a73e 071d b33e
00000010: 3d08 86bc eaf4 123d ee8e 563d f3c6 2d3e
00000020: 8e0c ea3e a045 5f3e d6e6 373f 340e 6f3e
00000030: b797 393e 6ad1 79bc 636a 2b3e 2f83 963e
00000040: 9424 6b3d 4d83 003f 2bf0 183d 8fc4 ba3e
00000050: 6641 d4bd 657b a03e 5a9d 523d e4a8 02be
00000060: 994f 5c3e 8d63 b3bd 9e22 023d 67b4 863e
00000070: 30eb c83e 8c1f 243e 418b 943d 4d42 8b3e
00000080: cfba 3d3e ebd7 30bc f978 033f be0e dfbd
00000090: 1941 b83e bbf1 9f3e 39cb b43d ae95 983d
000000a0: 2d0d a63e 94d2 a93e 17be 98bd 0d13 913e
000000b0: 0912 e83e ff4d e5bc 34fc 923e 8dc9 a23e
000000c0: 2861 383e c384 a63e 77dd 573d 77d4 6e3d
000000d0: 7816 9bba c247 053e bb12 9e3e 2560 3a3e
000000e0: 2b37 cd3e 0bb8 b63e 49f8 7f3e e885 a83e
000000f0: 4c6a 1b3e 43d1 c33e 3123 8f3e af9f 51bc
00000100: 23ef 913e 31a7 8f3e fbbc 733e dd78 00be
00000110: 3c56 133e bcb4 9d3e a058 7d3e 1bbc 0f3d
00000120: f896 d83e 0e06 c63e f396 90bd af63 2dbb
00000130: c3a2 b83d 45ac ad3d 1ee8 653e aae2 9a3e
00000140: acfd 683e cd71 ad3e b6bb d03e 1fdc b03d
00000150: adc2 773e fff3 343d 0320 463e 5f2d eb3e
00000160: fe3f fe3d e863 203e 44d5 923e 120c cb3d
00000170: 8a77 eb3e 29c2 5ebc 1258 b13e c2da 113e
00000180: f8ae 003e faf1 e43d 0a44 9cbd 558c d03e
00000190: 1af4 d53d 2c23 6b3c dafb 073e fe30 073f
000001a0: e98b 483e ff89 d2bc 2115 013e 9c13 093d
000001b0: 374f 923e 4e61 393e 656c 073c f7fd 8abd
000001c0: 2d00 b53e 03d3 ed3e 887e 5f3e ca4d 343d
000001d0: 7360 7d3e 9d36 033e fda3 a93c 39f3 f73e
000001e0: e781 763e c976 c33d fbd6 3b3e d4bf 4e3d
000001f0: 0be5 b23d a488 8abd 895d f03d 5a82 5d3e

shared.1.weight f4 [128]
0.36058193 1.1972929 1.0564241 1.2131581 1.2901917 1.4331132 1.7333733 1.3596407
1.2885015 1.3623503 0.43747482 1.1728404 1.2439412 1.4480563 1.733866 1.2032102
1.3851897 0.47865516 1.0613333 1.0482832 1.4306309 0.47799096 1.5641128 1.4901252
1.4922186 1.3790644 1.0393865 1.7268147 1.506647 1.5683875 1.1917508 1.5700889
1.6421019 1.2668396 0.2868866 1.3581393 1.3778446 1.0105989 1.224435 1.3199666
1.1916454 1.5078764 1.608407 0.96538496 1.4519287 1.6470859 1.7262291 1.5851505
1.4540689 1.8094314 0.78442395 1.2269355 1.5192652 1.7100472 1.7185267 1.8446822
1.6960343 1.6163785 0.7091586 1.5609804 0.9770881 0.8107601 1.4186354 1.4790667
1.1652079 0.97952634 1.5818675 1.3226585 0.9659732 1.6875817 1.5971527 1.7164571
1.4629881 0.7894228 1.2337464 1.5946891 1.4004515 1.7656004 1.39678 1.3509169
1.372687 1.2332275 1.2248683 1.6612166 1.3961183 1.5783994 1.2083642 1.196081
1.3909538 1.4252152 1.6470872 1.518383 0.5299182 1.765555 0.7842356 1.3424525
1.4699712 1.316151 1.2878718 1.465174 1.0091997 1.3515167 1.7871672 1.10448
0.991816 1.448811 1.3039196 1.4007186 0.7509169 1.4015732 1.4849622 1.9912277
1.1735711 1.1458973 1.1901674 1.2875307 1.3682694 1.4455608 1.2802474 0.98135155
1.2501686 1.4755341 1.1708776 1.2610308 1.6837941 1.2076106 1.3053265 1.1811584
00000000: 329e b83e e540 993f e838 873f c448 9b3f
00000010: 0025 a53f 4170 b73f 2ddf dd3f b508 ae3f
00000020: 9eed a43f 7f61 ae3f b3fc df3e a21f 963f
00000030: 7739 9f3f e959 b93f 52ef dd3f cb02 9a3f
00000040: e54d b13f 4a12 f53e c5d9 873f 252e 863f
00000050: ea1e b73f 3bbb f43e d934 c83f 6cbc be3f
00000060: 0501 bf3f 2f85 b03f 9e0a 853f 4408 dd3f
00000070: cfd9 c03f ecc0 c83f 4a8b 983f acf8 c83f
00000080: 6530 d23f cd27 a23f cde2 923e 82d7 ad3f
00000090: 365d b03f 4e5b 813f 49ba 9c3f aaf4 a83f
000000a0: d687 983f 1802 c13f 48e0 cd3f 7823 773f
000000b0: cdd8 b93f b6d3 d23f 13f5 dc3f 36e6 ca3f
000000c0: ee1e ba3f 739b e73f 02d0 483f 390c 9d3f
000000d0: 4877 c23f d4e2 da3f aff8 db3f 8c1e ec3f
000000e0: a717 d93f 7ee5 ce3f 6b8b 353f 35ce c73f
000000f0: 7222 7a3f f98d 4f3f d895 b53f 0f52 bd3f
00000100: 8825 953f 3dc2 7a3f a27a ca3f e04c a93f
00000110: 054a 773f ad02 d83f 806f cc3f deb4 db3f
00000120: 3243 bb3f 9d17 4a3f 67eb 9d3f c61e cc3f
00000130: ff41 b33f 32ff e13f b0c9 b23f d8ea ac3f
00000140: 35b4 af3f 66da 9d3f 7cc8 9c3f bfa2 d43f
00000150: 01b4 b23f fe08 ca3f aeab 9a3f 2f19 993f
00000160: c60a b23f 746d b63f c1d3 d23f 605a c23f
00000170: b8a8 073f b5fd e13f aac3 483f 7cd5 ab3f
00000180: 0428 bc3f a377 a83f fcd8 a43f d28a bb3f
00000190: 752d 813f 80fe ac3f e5c1 e43f 9a5f 8d3f
000001a0: a7e7 7d3f a472 b93f d6e6 a63f bf4a b33f
000001b0: 173c 403f c066 b33f 3e13 be3f 8de0 fe3f
000001c0: 9437 963f c3ac 923f 6857 983f cecd a43f
000001d0: 7423 af3f 2308 b93f 26df a33f db39 7b3f
000001e0: 8605 a03f 4dde bc3f 51df 953f 7569 a13f
000001f0: 9186 d73f fc92 9a3f f014 a73f 3330 973f

shared.1.bias f4 [128]
-0.6117962 -0.0774401 -0.12668934 -0.06831934 -0.22308949 -0.28135628 -0.021059958 -0.12862526
-0.082633935 -0.004329977 -0.4799242 -0.35756055 -0.4006387 -0.20818624 0.04496385 -0.13085812
-0.05723107 -0.5751163 -0.18093008 -0.18909355 -0.041823465 -0.57420385 -0.0629901 -0.07770521
0.026238624 -0.007401606 -0.27652895 0.031561524 0.07892638 -0.13275738 0.008153453 -0.008392907
-0.16430423 -0.061290476 -0.64050424 0.005267693 -0.054945983 -0.37683153 -0.028342014 -0.18661264
-0.08444428 -0.1976168 -0.107182585 -0.57363427 0.1847504 0.029546205 0.017604126 -0.026427664
0.008714837 -0.13822961 -0.35810927 -0.108391896 -0.22431536 0.102777705 0.02502687 0.07014497
0.021375904 0.107975096 -0.44800767 0.007855099 -0.27878234 -0.39140725 -0.11365216 -0.22641833
0.02481698 -0.28508607 -0.15463604 -0.12503253 -0.052755795 0.11252441 -0.14214699 -0.097430184
-0.07351556 -0.3913168 -0.04380396 -0.0034355773 0.008836544 0.013694817 -0.08876841 -0.010129189
0.038033497 0.13387237 -0.08925405 0.21920209 -0.029389547 0.052505642 0.095501944 -0.017502965
0.040162466 0.085123435 0.19522992 -0.02942212 -0.4881507 -0.095163636 -0.37069348 -0.2764692
-0.23440126 -0.30835596 -0.23613058 0.047890093 -0.22408281 -0.2850264 -0.10159864 0.04878334
-0.08573291 -0.052071225 0.0063779843 -0.0060837474 -0.32152912 0.029640067 -0.14011428 0.043779913
-0.007062847 -0.08580581 -0.045734704 -0.20159875 0.034291472 -0.20152168 -0.16972612 -0.09982537
-0.096120246 -0.1355407 -0.033777934 0.07141993 -0.022339746 -0.094994284 -0.1939297 0.05176224
00000000: ad9e 1cbf ea98 9ebd daba 01be 03eb 8bbd
00000010: 9271 64be ee0d 90be ef85 acbc 57b6 03be
00000020: fb3b a9bd 7be2 8dbb a0b8 f5be 2d12 b7be
00000030: 8420 cdbe c62e 55be 042c 383d acff 05be
00000040: 206b 6abd d23a 13bf bc45 39be bda1 41be
00000050: 154f 2bbd 06ff 12bf f400 81bd e923 9fbd
00000060: 62f2 d63c 2c89 f2bb 3495 8dbe a846 013d
00000070: 27a4 a13d 8df1 07be 0f96 053c 6782 09bc
00000080: 5e3f 28be b90b 7bbd 16f8 23bf 9d9c ac3b
00000090: 0a0f 61bd 10f0 c0be 832d e8bc 6217 3fbe
000000a0: 1ff1 acbd 0f5c 4abe 8b82 dbbd b2d9 12bf
000000b0: 352f 3d3e e20a f23c 8736 903c d47e d8bc
000000c0: adc8 0e3c 108c 0dbe 195a b7be 92fc ddbd
000000d0: edb2 65be 1e7d d23d 2705 cd3c 2ba8 8f3d
000000e0: 851c af3c 0c22 dd3d 4361 e5be acb2 003c
000000f0: 8fbc 8ebe 8866 c8be 77c2 e8bd 35da 67be
00000100: fb4c cb3c cdf6 91be e958 1ebe 8708 00be
00000110: 7616 58bd 3373 e63d fb8e 11be 7a89 c7bd
00000120: 538f 96bd ad5a c8be c86b 33bd 6c27 61bb
00000130: 27c7 103c 3a60 603c 36cc b5bd e6f4 25bc
00000140: 03c9 1b3d d715 093e d4ca b6bd 8376 603e
00000150: 59c2 f0bc 2810 573d 8696 c33d 6162 8fbc
00000160: 6681 243d 3255 ae3d 5aea 473e a806 f1bc
00000170: e3ee f9be 27e5 c2bd 89cb bdbe 5f8d 8dbe
00000180: e206 70be d5e0 9dbe 37cc 71be 6728 443d
00000190: f775 65be fbee 91be f312 d0bd 0ad1 473d
000001a0: bc94 afbd a348 55bd 69fe d03b 2c5a c7bb
000001b0: 779f a4be bacf f23c 1e7a 0fbe 9152 333d
000001c0: 746f e7bb f5ba afbd 5054 3bbd e76f 4ebe
000001d0: 3775 0c3d b35b 4ebe afcc 2dbe 3e71 ccbd
000001e0: b1da c4bd 2ecb 0abe bb5a 0abd 9d44 923d
000001f0: d801 b7bc 5d8c c2bd 8295 46be a404 543d

shared.3.weight f4 [128, 128]
-0.08660201 -0.09909931 -0.113277204 0.07404472 0.44518295 0.82861525 0.44061363 0.114871636
0.17972583 0.18372308 -0.09427739 -0.037069876 0.23014379 0.605481 -0.31840867 0.17001073
0.4219705 0.07978996 -0.1523999 -0.07757809 -0.15367953 -0.02232859 -0.088098 -0.070274904
-0.44752717 -0.4961627 0.06451143 -0.005887548 0.030202007 0.17188804 0.16480476 0.323868
0.31527257 -0.06264014 0.012561012 0.25662595 0.27815947 0.008130397 -0.014709561 0.27758515
0.30487883 0.20130336 0.4320196 0.5698109 -0.17125021 -0.45481154 -0.35283145 -0.6562838
0.23594162 0.12290037 -0.008754287 0.1557304 0.5046828 -0.61753505 -0.51019424 -0.1989541
-0.12865148 -0.16333619 0.033260457 -0.5185181 -0.24563561 0.028247343 -0.46725354 0.6312353
0.2065422 0.018388335 0.43918213 0.34209317 0.046142746 0.044800155 0.47140568 -0.036976818
-0.25320083 -0.05437075 -0.007015579 0.49915224 -0.064460546 -0.7542978 0.0012966349 0.28654146
0.09267388 -0.102352805 0.04704886 0.32789794 0.30666617 -0.47352502 -0.159245 -0.31872338
-0.3864366 -0.24988031 -0.022714559 0.3006203 0.015064576 0.68602264 0.05640986 0.24989194
0.36598715 0.41862795 0.06969238 -0.4302398 0.09631558 0.3901048 0.5818552 0.021905968
-0.068695836 0.39824915 0.10554853 -0.045794357 -0.1264332 -0.065424636 0.24951047 1.0407023
0.008538279 -0.13793978 0.051339086 -0.29114637 -0.022250598 0.50565946 0.31652585 -0.0544203
0.22929016 0.13407566 0.24786438 0.35168606 -0.21337092 -0.10258685 0.6122419 0.04282947
0.07379838 0.33955517 0.009527884 -0.01859363 -0.35797706 -0.75801253 -0.29544514 0.15816697
0.24901141 0.07715771 0.005516331 0.065442234 -0.31863645 -0.43758726 0.2736711 0.054296028
-0.36434287 0.12695558 0.2200782 0.089881234 -0.058308627 0.09937642 0.011073794 -0.16247566
0.14988343 -0.040158685 -0.051385608 0.095695995 0.31478983 -0.32451716 -0.037075322 0.12854365
-0.41082773 0.3671111 0.17319384 -0.1965138 -0.29852444 0.23021922 0.010900121 0.2011066
-0.096703246 -0.5983876 -0.5922833 -0.7454089 0.21828033 -0.042243984 0.4726686 0.2649758
-0.07237218 -0.39581934 0.16481762 -0.17282537 -0.42839992 0.31989396 0.12102171 0.8217707
0.45321083 0.4795208 0.057923004 0.28921396 0.10544088 -0.041289497 0.47790262 -0.4576911
-0.09051084 -0.124053605 -0.39245278 -0.38968268 0.1586255 0.41783905 -0.45162803 0.17236212
0.4991338 0.07288959 -0.06929946 -0.14218199 0.26732218 0.39640275 0.100995384 -0.020983897
-0.20916902 0.2895276 0.17285639 0.34354895 0.14130566 0.5208515 0.3058428 0.11327161
0.06342601 -0.06894946 0.21431738 -0.08821126 0.027350502 -0.7055764 0.015615243 -0.4025511
-0.34792203 -0.25790372 -0.3436723 0.12288639 0.40153894 -0.5795224 -0.02316813 0.19952203
0.07270788 -0.36445427 -0.029802432 -0.042744998 0.25299603 0.10631672 -0.41727787 -1.0231124
0.18098909 0.06922564 0.23308133 0.21022435 -0.0043221596 -0.5365073 0.14922279 0.038336713
0.060974088 -0.14989267 0.08433632 -0.1389309 0.47141054 -0.048169788 -0.40364745 -0.041192524
00000000: 655c b1bd 94f4 cabd e1fd e7bd c2a4 973d
00000010: 05ef e33e 2120 543f 1c98 e13e d241 eb3d
00000020: 0c0a 383e e721 3c3e 8114 c1bd 95d6 17bd
00000030: d0aa 6b3e ce00 1b3f 7606 a3be 4b17 2e3e
00000040: 840c d83e eb68 a33d b80e 1cbe 43e1 9ebd
00000050: 2b5e 1dbe 72ea b6bc b96c b4bd 4aec 8fbd
00000060: 4822 e5be 0a09 febe 921e 843d 55ec c0bb
00000070: 336a f73c 6b03 303e 94c2 283e 07d2 a53e
00000080: 686b a13e 7949 80bd b4cc 4d3c 7a64 833e
00000090: eb6a 8e3e 5b35 053c 5f00 71bc a41f 8e3e
000000a0: 1419 9c3e 7822 4e3e ac31 dd3e 21df 113f
000000b0: 375c 2fbe 0fdd e8be 53a6 b4be 3702 28bf
000000c0: ae9a 713e 30b3 fb3d 246e 0fbc ca77 1f3e
000000d0: e432 013f c716 1ebf 179c 02bf a0ba 4bbe
000000e0: 37bd 03be 9a41 27be 1e3c 083d 9abd 04bf
000000f0: e787 7bbe f966 e73c db3b efbe a398 213f
00000100: cc7f 533e 22a3 963c 7bdc e03e d626 af3e
00000110: 2d00 3d3d 5e80 373d 165c f13e 0175 17bd
00000120: 8aa3 81be ddb3 5ebd f1e2 e5bb e290 ff3e
00000130: e403 84bd a919 41bf d9f3 a93a 90b5 923e
00000140: cecb bd3d 599e d1bd 4eb6 403d 3de2 a73e
00000150: 5903 9d3e df71 f2be 1f11 23be b62f a3be
00000160: 05db c5be a0e0 7fbe e213 babc e7ea 993e
00000170: 69d1 763c 2e9f 2f3f 060e 673d ace3 7f3e
00000180: ab62 bb3e 6756 d63e e1ba 8e3d 6448 dcbe
00000190: 1a41 c53d d1bb c73e 76f4 143f 2574 b33c
000001a0: 67b0 8cbd 50e7 cb3e d429 d83d dd92 3bbd
000001b0: b477 01be 5afd 85bd ac7f 7f3e bc35 853f
000001c0: 23e4 0b3c 1640 0dbe ef48 523d 2311 95be
000001d0: e346 b6bc e672 013f ad0f a23e d2e7 5ebd
000001e0: 0acb 6a3e 214b 093e 29d0 7d3e 3210 b43e
000001f0: e87d 5abe 0e19 d2bd e3bb 1c3f f46d 2f3d
00000200: 9b23 973d 2dda ad3e d81a 1c3c ab51 98bc
00000210: c548 b7be 1c0d 42bf 9644 97be 86f6 213e
00000220: d9fc 7e3e dd04 9e3d 57c2 b43b 9406 863d
00000230: 5124 a3be 700b e0be 9e1e 8c3e 8365 5e3d
00000240: 268b babe a500 023e 2e5c 613e a713 b83d
00000250: 07d5 6ebd dd85 cb3d dc6e 353c 0560 26be
00000260: 0b7b 193e 6f7d 24bd b779 52bd 43fc c33d
00000270: 222c a13e 1d27 a6be 4bdc 17bd f2a0 033e
00000280: 0358 d2be fcf5 bb3e ba59 313e ea3a 49be
00000290: 32d8 98be 96be 6b3e 6c96 323c e3ee 4d3e
000002a0: 5a0c c6bd ee2f 19bf e19f 17bf 1ed3 3ebf
000002b0: e184 5f3e 0708 2dbd 9e01 f23e e8aa 873e
000002c0: de37 94bd d5a8 cabe f3c5 283e 22f9 30be
000002d0: 3c57 dbbe 24c9 a33e 3bda f73d 915f 523f
000002e0: 400b e83e c083 f53e ac40 6d3d da13 943e
000002f0: 63f1 d73d 2d1f 29bd a7af f43e 7d56 eabe
00000300: bf5d b9bd d10f febd 92ef c8be 7d84 c7be
00000310: b96e 223e 00ef d53e ca3b e7be b27f 303e
00000320: 778e ff3e 2347 953d e0ec 8dbd 2898 11be
00000330: 74de 883e 4df5 ca3e abd6 ce3d 6ce6 abbc
00000340: 6730 56be f63c 943e 4401 313e a6e5 af3e
00000350: 6eb2 103e 8656 053f 6d97 9c3e f2fa e73d
00000360: 7fe5 813d 6035 8dbd 0476 5b3e 1ba8 b4bd
00000370: 290e e03c a8a0 34bf 14d7 7f3c 2e1b cebe
00000380: d622 b2be f50b 84be d1f5 afbe dcab fb3d
00000390: 8396 cd3e 945b 14bf 17cb bdbc 814f 4c3e
000003a0: dee7 943d c099 babe 3b24 f4bc 6115 2fbd
000003b0: b288 813e 95bc d93d 72a5 d5be 59f5 82bf
000003c0: 3455 393e 2cc6 8d3d dfac 6e3e 0d45 573e
000003d0: e7a0 8dbb 8b58 09bf dccd 183e f506 1d3d
000003e0: f7bf 793d 777d 19be 85b8 ac3d e743 0ebe
000003f0: b95c f13e af4d 45bd e1aa cebe 7eb9 28bd

shared.3.bias f4 [128]
0.047160156 0.0028419376 -0.032279238 0.05918723 0.14093508 -0.019564407 0.0012347127 0.03285039
0.027357193 0.057896372 -0.0051825214 0.03473768 0.11647298 0.13015895 0.016061304 0.0102183
0.0282309 0.13749021 0.09148351 0.17162527 -0.063397996 0.13784195 0.1314628 -0.056034487
0.13768032 0.14544229 0.18824886 0.056828182 0.025917001 0.096350595 -0.049839787 0.021017712
0.1273575 -0.05875941 0.079738274 -0.069321 0.05950423 0.0033574624 -0.011640818 0.055043843
-0.0702936 0.006429858 0.024348604 0.056576043 -0.05964467 0.05588355 -0.0055289357 -0.008288596
-0.012574858 -0.022431051 0.10106348 -0.028803034 0.1145793 0.13491558 0.0063849576 0.10210703
0.11497676 0.15132627 0.027413256 0.05705726 0.06442101 0.04882321 0.02176932 0.04589952
-0.0075016227 0.060031127 0.07361482 0.015311335 0.04148807 0.045162868 0.019325893 0.053992786
-0.017866451 -0.035380337 0.09890086 0.03914765 -0.014836567 0.07661828 0.07124636 -0.053678617
0.19796748 0.08893261 0.06429284 0.17501982 0.09173346 -0.009570471 0.054304276 0.125612
0.019342545 0.11716284 0.10162169 -0.015543997 0.090048425 0.029179515 0.07022619 0.104097046
0.01627934 0.045557752 0.15345626 0.07371897 -0.021669418 0.060295437 0.01425431 0.09490215
0.0019228857 0.08551817 0.019597482 0.040560905 -0.0024222322 0.13085292 0.028800631 -0.020996701
0.054717667 0.19614322 0.14734155 0.06186396 0.05542275 -0.011412673 0.03880631 0.07466956
0.086296245 0.1023202 0.115579635 0.114258125 0.067343295 0.10901847 0.114838056 0.14286293
00000000: 022b 413d cd3f 3a3b 3c37 04bd 4f6e 723d
00000010: 4951 103e 8945 a0bc 15d6 a13a 218e 063d
00000020: 311c e03c bf24 6d3d 24d2 a9bb 1949 0e3d
00000030: 6389 ee3d 6348 053e ff92 833c a86a 273c
00000040: 7d44 e73c 3cca 0c3e b55b bb3d 89be 2f3e
00000050: cfd6 81bd 7126 0d3e 2f9e 063e 6b84 65bd
00000060: 12fc 0c3e d3ee 143e 4fc4 403e abc4 683d
00000070: e44f d43c 7653 c53d ce24 4cbd 562d ac3c
00000080: 016a 023e b5ad 70bd d24d a33d 2bf8 8dbd
00000090: b5ba 733d df08 5c3b 21b9 3ebc a775 613d
000000a0: 17f6 8fbd 8fb1 d23b b976 c73c 48bc 673d
000000b0: f84d 74bd 26e6 643d 132c b5bb e4cc 07bc
000000c0: c706 4ebc 53c1 b7bc 5ffa ce3d 57f4 ebbc
000000d0: 8da8 ea3d 4f27 0a3e e838 d13b 7e1d d13d
000000e0: f078 eb3d 46f5 1a3e c491 e03c e0b4 693d
000000f0: 2aef 833d d9fa 473d 9355 b23c 2301 3c3d
00000100: 2cd0 f5bb 33e3 753d 5ec3 963d 65dc 7a3c
00000110: 65ef 293d b3fc 383d 5651 9e3c 8a27 5d3d
00000120: aa5c 92bc f9ea 10bd 898c ca3d 4959 203d
00000130: 1315 73bc 0bea 9c3d 9de9 913d 1cde 5bbd
00000140: fdb7 4a3e 4d22 b63d f7ab 833d 6538 333e
00000150: c1de bb3d 77cd 1cbc 296e 5e3d 6fa0 003e
00000160: 4274 9e3c 12f3 ef3d 081f d03d 40ac 7ebc
00000170: 4f6b b83d e109 ef3c c0d2 8f3d d530 d53d
00000180: 405c 853c c49a 3a3d a323 1d3e f9f9 963d
00000190: 1084 b1bc 59f8 763d e98a 693c 0f5c c23d
000001a0: 5609 fc3a 2624 af3d e68a a03c 3123 263d
000001b0: 50be 1ebb 4ffe 053e 4def eb3c 4601 acbc
000001c0: a21f 603d c5d9 483e b4e0 163e 1065 7d3d
000001d0: f702 633d 38fc 3abc 5ef3 1e3d 5bec 983d
000001e0: 16bc b03d 418d d13d 04b5 ec3d 2a00 ea3d
000001f0: 48eb 893d 1345 df3d 3730 eb3d a94a 123e

shared.4.weight f4 [128]
1.3207033 4.4299297 3.1897085 0.9554652 2.542993 3.5361354 3.218692 1.758423
3.0514977 2.468938 1.1992236 3.908698 3.75896 4.3258452 0.99437356 2.9631996
2.053318 3.5389354 2.0104864 1.4466543 3.3576324 2.10154 1.9425069 3.3878758
2.9487925 2.484855 2.6443806 2.3096364 3.4321365 3.1126595 2.464731 2.5365536
1.522081 2.3645053 2.4667666 3.1516159 2.0150027 1.4213849 3.347238 3.8088825
2.649173 3.6904674 2.0495062 3.920513 3.4885225 5.6838517 3.259903 3.5883193
3.5743337 3.6022582 3.4692142 3.3468952 3.591823 4.3483253 1.6451861 4.211984
2.8008878 4.200472 2.814188 1.7679027 2.1032102 2.8471346 2.0258107 3.0349653
3.7687333 2.1752083 4.4356523 2.1349702 3.8588068 2.1334515 2.1165264 3.860146
1.0415636 2.5305119 3.920651 2.5763805 4.0204873 2.3321562 3.942709 1.0826614
1.3169425 2.8881497 2.1854272 1.820602 2.162233 1.8591237 5.0793657 4.2994895
4.1187882 4.0936127 4.304478 1.2840726 2.7355204 3.2743845 2.2747037 3.6028304
2.3366568 3.6135771 2.0828454 2.7334702 2.255022 3.6216302 2.2175736 2.312952
1.2238845 2.2384527 1.4043359 2.352922 1.8760713 2.8383791 2.2387803 1.0422772
4.0634084 2.445734 3.2497602 2.5110257 1.7985426 3.8536723 4.0761037 3.8615735
2.9839952 2.9153092 1.903159 3.5501785 2.0194337 4.0646124 3.6074548 4.7098975
00000000: ce0c a93f fcc1 8d40 2f24 4c40 5e99 743f
00000010: 66c0 2240 0b50 6240 0dff 4d40 0114 e13f
00000020: bd4b 4340 1503 1e40 2980 993f 1c28 7a40
00000030: cd92 7040 536d 8a40 448f 7e3f 10a5 3d40
00000040: 9069 0340 eb7d 6240 cfab 0040 f82b b93f
00000050: 73e3 5640 a27f 0640 11a4 f83f f5d2 5840
00000060: 04b9 3c40 dd07 1f40 883d 2940 15d1 1340
00000070: 20a8 5b40 d035 4740 27be 1d40 e556 2240
00000080: 8dd3 c23f 0e54 1740 81df 1d40 13b4 4940
00000090: cef5 0040 f1ef b53f 2639 5640 bbc4 7340
000000a0: 0d8c 2940 9e30 6c40 1c2b 0340 afe9 7a40
000000b0: f443 5f40 1de2 b540 40a2 5040 06a7 6540
000000c0: e2c1 6440 668b 6640 9b07 5e40 8833 5640
000000d0: 6ee0 6540 7b25 8b40 7595 d23f 93c8 8640
000000e0: bf41 3340 446a 8640 a81b 3440 a34a e23f
000000f0: ff9a 0640 7437 3640 e2a6 0140 df3c 4240
00000100: ed32 7140 9d36 0b40 ddf0 8d40 5aa3 0840
00000110: b1f6 7640 788a 0840 2b75 0740 a20c 7740
00000120: f551 853f e8f3 2140 f2eb 7a40 6be3 2440
00000130: d5a7 8040 0c42 1540 5855 7c40 a694 8a3f
00000140: 9291 a83f 72d7 3840 0ade 0b40 7d09 e93f
00000150: 0762 0a40 c4f7 ed3f 2a8a a240 6b95 8940
00000160: 1dcd 8340 e0fe 8240 49be 8940 7e5c a43f
00000170: c412 2f40 848f 5140 bf94 1140 c694 6640
00000180: c98b 1540 d944 6740 574d 0540 2df1 2e40
00000190: 4852 1040 cac8 6740 baec 0d40 6807 1440
000001a0: 3fa8 9c3f cf42 0f40 47c1 b33f 4696 1640
000001b0: 1b23 f03f 01a8 3540 2d48 0f40 5769 853f
000001c0: 7107 8240 e886 1c40 12fc 4f40 a5b4 2040
000001d0: a536 e63f 91a2 7640 716f 8240 0524 7740
000001e0: c7f9 3e40 6d94 3a40 b79a f33f 2036 6340
000001f0: 673e 0140 4e11 8240 8ae0 6640 7bb7 9640

shared.4.bias f4 [128]
0.87148345 2.235941 2.2499757 0.68578506 0.25513116 2.2107277 0.9788882 1.226964
0.93503153 0.70852876 0.5706501 2.1975944 2.2188568 2.1649888 0.7267048 0.3926041
0.29089692 0.78641754 0.29354295 0.24210824 2.3593962 1.4232949 0.14176054 2.2166865
0.9762539 0.35680544 0.123227134 0.23178586 2.252598 2.232216 0.17852171 0.5547475
-0.22126336 0.19823068 0.10981466 2.3305962 0.43044323 0.6688836 2.1910362 2.290537
0.58850217 0.731818 0.43861073 0.802164 2.2674851 2.4546142 0.74574405 2.2156003
0.90680754 2.2330015 0.5857662 2.3822849 0.87871015 2.3104987 0.12599093 2.264045
0.06510087 2.3088348 2.1571357 0.14828043 1.3710586 1.2397271 0.59667104 2.128378
2.1966984 0.60944414 2.2762382 0.40517896 0.90668917 0.29732573 1.3498255 2.2373078
0.7635223 0.12006448 2.1789827 0.17200455 2.1916337 0.21881355 0.81564415 2.2193732
-0.05530472 2.28444 0.20590374 0.4825557 0.056011092 0.050422624 2.3356047 2.2783074
0.6019409 2.261351 0.7639084 -0.18263215 0.3465105 1.0543488 0.08938266 2.2403476
0.30784607 2.2726989 0.16109306 1.2268437 1.2193621 2.1927423 0.3020351 0.11634638
-0.39133057 0.964697 0.56224245 0.34333187 0.6852633 0.29475358 0.45764512 0.7430234
2.2822204 0.40314087 2.2846894 0.19980787 0.42617732 2.213686 2.2409298 2.2304502
1.2579583 2.1755629 0.6806746 0.50723547 1.277195 0.83798724 2.3340318 0.8937528
00000000: 8a19 5f3f a819 0f40 9aff 0f40 9c8f 2f3f
00000010: 8da0 823e 907c 0d40 6b98 7a3f 280d 9d3f
00000020: 3a5e 6f3f 2462 353f 2016 123f 63a5 0c40
00000030: c001 0e40 2d8f 0a40 5309 3a3f 6803 c93e
00000040: 71f0 943e a952 493f 434b 963e 39eb 773e
00000050: 5900 1740 872e b63f ad29 113e 31de 0d40
00000060: c7eb 793f 34af b63e 825e fc3d 4659 6d3e
00000070: 912a 1040 a0dc 0e40 65ce 363e ef03 0e3f
00000080: dd92 62be fcfc 4a3e 82e6 e03d 7d28 1540
00000090: 0e63 dc3e f53b 2b3f f039 0c40 2998 1240
000000a0: 14a8 163f 6d58 3b3f 9691 e03e 9f5a 4d3f
000000b0: 7a1e 1140 6618 1d40 15e9 3e3f 65cc 0d40
000000c0: 8a24 683f 7fe9 0e40 c6f4 153f 5b77 1840
000000d0: 26f3 603f 36df 1340 c403 013e 1de6 1040
000000e0: 9b53 853d f3c3 1340 830e 0a40 d3d6 173e
000000f0: d97e af3f 61af 9e3f 6fbf 183f 5837 0840
00000100: b596 0c40 8804 1c3f e3ad 1140 9e73 cf3e
00000110: c81c 683f 143b 983e 15c7 ac3f 0d30 0f40
00000120: 3376 433f 5ee4 f53d 7474 0b40 f621 303e
00000130: ba43 0c40 a910 603e 0ece 503f 360a 0e40
00000140: 3487 62bd 4434 1240 6ed8 523e 8a11 f73e
00000150: e36b 653d f487 4e3d 8c7a 1540 cacf 1140
00000160: cc18 1a3f fab9 1040 808f 433f ec03 3bbe
00000170: d369 b13e e7f4 863f 420e b73d db61 0f40
00000180: 009e 9d3e e673 1140 94f5 243e 3709 9d3f
00000190: 0f14 9c3f e455 0c40 58a4 9a3e 0347 ee3d
000001a0: 7b5c c8be 62f6 763f 1fef 0f3f 32c9 af3e
000001b0: 6a6d 2f3f f1e9 963e 7650 ea3e c836 3e3f
000001c0: e60f 1240 7b68 ce3e 5a38 1240 6f9a 4c3e
000001d0: ea33 da3e 08ad 0d40 656b 0f40 b2bf 0e40
000001e0: c704 a13f 6c3c 0b40 b140 2e3f 2fda 013f
000001f0: 207b a33f 5586 563f c760 1540 fccc 643f

actor_mean.weight f4 [2, 128]
-0.2506654 -0.04267602 -0.0868824 -0.3806767 0.08552657 -0.16376235 -0.0613018 0.114242375
-0.14060514 0.29503483 0.0046517253 -0.017918674 0.09554576 -0.04756402 -0.22413774 0.06980297
0.0008161473 -0.24857387 -0.18345343 -0.13274452 -0.10285371 0.05130686 0.00063756807 0.114470415
0.34286827 -0.019346647 0.39524937 0.04850466 0.020609168 -0.011365366 -0.05994657 0.04371796
-0.3429947 -0.3682879 -0.06332062 0.03739009 0.1617237 0.09925909 0.10665083 0.011244917
0.10533186 -0.14295004 0.19303505 -0.20261922 -0.103102244 0.26329458 0.07877775 0.08107137
-0.21572036 0.1435959 0.030644987 -0.07155952 -0.30128995 0.12968859 0.13938646 -0.13789111
0.18624356 0.04856601 0.040823076 0.35739547 0.21532278 0.18359496 0.008112348 0.14626923
0.017880734 -0.24950746 0.06068595 0.08125716 0.07742379 -0.16656928 -0.021456266 0.01966553
0.0131727345 -0.010610825 -0.07591387 -0.11946383 -0.030799825 -0.16171853 0.17998594 0.08503912
0.1448349 0.09472742 -0.004834957 -0.1332761 -0.10617262 -0.15114328 0.2586713 -0.1393788
-0.059135795 -0.108244434 -0.027772963 0.07510063 0.06081952 0.032556277 -0.1277937 0.2192447
-0.4625039 -0.048453175 -0.2216528 -0.15612176 0.037750874 -0.0502698 0.274254 0.28410476
-0.079548776 0.057785496 -0.21819174 0.09698947 0.150997 -0.062958576 0.21943678 -0.049407486
-0.06794571 -0.34323758 0.007999522 0.23751356 0.060313556 0.13493328 -0.12275751 -0.11085373
0.2906854 0.009408606 -0.18922372 -0.3147299 0.58021224 -0.15353073 0.15169507 0.00039976023
0.5904976 -0.40756807 0.04740657 -0.48386508 0.051753737 0.09325495 -0.0019840794 -0.6190073
0.16780582 0.24924317 0.25076404 0.12201391 -0.10352394 0.36788815 -0.09668908 0.2685143
-0.1497437 -0.12266479 0.11806429 -0.14839517 0.024905697 -0.15887664 0.47934678 -0.20489043
0.19387281 0.010445138 -0.14632936 -0.1512758 -0.0522203 -0.11894432 -0.1300727 0.34974325
0.08431366 0.30474305 0.40750957 -0.10014284 0.12279945 0.21937992 0.092987 0.06836005
-0.010350937 -0.13119249 0.3609885 -0.07801211 -0.13308387 -0.26904702 0.2654317 -0.12762533
-0.059008505 0.046395533 0.030233659 -0.10425298 0.14199884 0.08136463 -0.040585842 -0.03781813
0.14599687 0.02188222 -0.16087851 -0.1781108 -0.14445002 0.47252393 0.056658484 -0.11231982
0.11892695 -0.53428096 -0.10166401 -0.10106454 -0.21218272 -0.14290017 0.32095292 0.16236329
0.030736133 -0.06413534 0.14659373 0.464876 0.041370645 -0.022557072 -0.18592651 -0.025590055
-0.25869963 -0.060456216 0.07825441 0.04861671 0.05428811 -0.14941104 -0.115591966 0.20072119
0.020274008 -0.14080043 -0.13305883 -0.28893957 0.10133092 0.10336118 -0.31824714 0.1013779
-0.3425955 0.13020605 0.46355858 -0.39951068 -0.49536186 -0.15549192 -0.0759945 -0.037109338
-0.3087611 0.12519222 -0.11917133 -0.12235777 0.341136 0.01003987 0.08924748 0.1338692
0.20892608 -0.12945788 0.07315997 -0.014030633 0.054404553 0.014211255 0.06352784 0.010715627
0.11531763 0.05295174 0.09632421 -0.20398657 0.24116416 -0.19418235 0.045995485 -0.031991247
00000000: 3757 80be 0dcd 2ebd 66ef b1bd 0ee8 c2be
00000010: 8e28 af3d 51b1 27be 9917 7bbd e8f7 e93d
00000020: cbfa 0fbe ce0e 973e 806d 983b 2fca 92bc
00000030: 7fad c33d 7dd2 42bd 5d84 65be dcf4 8e3d
00000040: b8f2 553a 268a 7ebe 37db 3bbe 2eee 07be
00000050: f7a4 d2bd 2427 523d 7822 273a 776f ea3d
00000060: 6e8c af3e dc7c 9ebc 205e ca3e d3ac 463d
00000070: 8fd4 a83c cd35 3abc 898a 75bd 9b11 333d
00000080: 009d afbe 3b90 bcbe 3eae 81bd 5a26 193d
00000090: e69a 253e 5a48 cb3d c06b da3d 9a3c 383c
000000a0: 3bb8 d73d 7f61 12be fbaa 453e 6a7b 4fbe
000000b0: 4527 d3bd 8cce 863e 3b56 a13d bf08 a63d
000000c0: cce5 5cbe ce0a 133e 320b fb3c cc8d 92bd
000000d0: ad42 9abe 16cd 043e 53bb 0e3e 5433 0dbe
000000e0: a2b6 3e3e 27ed 463d 1936 273d 8afc b63e
000000f0: 937d 5c3e 5100 3c3e a7e9 043c 9ac7 153e
00000100: 9e7a 923c e27e 7fbe d591 783d 276a a63d
00000110: 5d90 9e3d 2391 2abe 0dc5 afbc 9b19 a13c
00000120: 74d2 573c 07d9 2dbc bb78 9bbd 74a9 f4bd
00000130: ea4f fcbc 8b99 25be 3c4e 383e fd28 ae3d
00000140: 9a4f 143e 7300 c23d 8f6e 9ebb 8879 08be
00000150: 0871 d9bd 4ec5 1abe 9170 843e 51b9 0ebe
00000160: 6038 72bd 42af ddbd 2084 e3bc 5cce 993d
00000170: e41d 793d bb59 053d 5adc 02be af81 603e
00000180: 50cd ecbe d676 46bd f4f8 62be 62de 1fbe
00000190: a9a0 1a3d b5e7 4dbd 056b 8c3e 2e76 913e
000001a0: 78ea a2bd 7cb0 6c3d a86d 5fbe 6aa2 c63d
000001b0: f59e 1a3e 6df0 80bd 09b4 603e 815f 4abd
000001c0: 1f27 8bbd d6bc afbe 6d10 033c c136 733e
000001d0: 590b 773d f32b 0a3e 4a68 fbbd 4807 e3bd
000001e0: b7d4 943e 8e26 1a3c ddc3 41be 4724 a1be
000001f0: ca88 143f 2937 1dbe f455 1b3e e996 d139
00000200: da2a 173f c3ac d0be 642d 423d 2abd f7be
00000210: bafb 533d 74fc be3d 5407 02bb 4377 1ebf
00000220: 4ad5 2b3e 9a39 7f3e 2564 803e 6ee2 f93d
00000230: 5c04 d4bd d65b bc3e ed04 c6bd b57a 893e
00000240: 6a56 19be ad37 fbbd b1cb f13d e7f4 17be
00000250: 0807 cc3c 8fb0 22be f16c f53e ccce 51be
00000260: 9886 463e 1622 2b3c 5dd7 15be 0be8 1abe
00000270: f4e4 55bd 1499 f3bd c731 05be 8c11 b33e
00000280: a4ac ac3d 4807 9c3e 18a5 d03e b017 cdbd
00000290: 477e fb3d 21a5 603e f86f be3d 5b00 8c3d
000002a0: fa96 29bc 5357 06be 7cd3 b83e d0c4 9fbd
000002b0: 2347 08be 88c0 89be aae6 873e 37b0 02be
000002c0: e7b2 71bd 3e09 3e3d 94ac f73c 9682 d5bd
000002d0: 2568 113e 80a2 a63d 573d 26bd 2fe7 1abd
000002e0: 3480 153e 5742 b33c 56bd 24be ad62 36be
000002f0: b5ea 13be a8ee f13e ba12 683d ef07 e6bd
00000300: f98f f33d a3c6 08bf 3835 d0bd edfa cebd
00000310: 6d46 59be 6c54 12be f153 a43e 9042 263e
00000320: 58ca fb3c 6459 83bd ab1c 163e 3a04 ee3e
00000330: 4474 293d 9cc9 b8bc 8563 3ebe 3ca2 d1bc
00000340: 4774 84be f0a0 77bd d943 a03d 5122 473d
00000350: 365d 5e3d 35ff 18be 7bbb ecbd db89 4d3e
00000360: ad15 a63c fd2d 10be 9340 08be e3ef 93be
00000370: 9686 cf3d 07af d33d 4af1 a2be 379f cf3d
00000380: ad68 afbe bc54 053e 8d57 ed3e aa8c ccbe
00000390: 12a0 fdbe 4639 1fbe 01a3 9bbd f6ff 17bd
000003a0: ef15 9ebe 6432 003e 1910 f4bd b696 fabd
000003b0: 61a9 ae3e 447e 243c 62c7 b63d 0215 093e
000003c0: b8f0 553e 9b90 04be e5d4 953d bde0 65bc
000003d0: 4fd7 5e3d 53d6 683c e21a 823d 9990 2f3c
000003e0: a62b ec3d ece3 583d a145 c53d dbe1 50be
000003f0: bdf3 763e bdd7 46be c365 3c3d 4109 03bd

actor_mean.bias f4 [2]
-0.075091116 0.062577255
00000000: 5fc9 99bd 8128 803d

critic.weight f4 [1, 128]
-0.9490155 3.0722244 2.1097476 -0.45421174 -1.2700481 2.4623415 -1.7719223 -1.139
-1.589486 -1.431894 -0.48891777 2.5896125 2.5227919 2.9619806 -0.47289544 -1.5375857
-0.9767119 -2.0462532 -0.9264923 -0.24860379 2.1799903 -1.2525107 -0.79006934 2.313008
-1.5651203 -1.2970291 -1.5355293 -1.0728182 2.2762308 2.0281234 -1.0912184 -1.4172202
-0.6274935 -1.2345276 -1.3306417 2.0852022 -0.97312987 -0.78454006 2.316693 2.553292
-1.5082229 -1.9550302 -1.0705845 -2.247561 2.343325 3.9413912 -1.8333615 2.4525204
-1.9116911 2.464934 -1.7480294 2.21956 -2.0531363 2.926342 -0.80295 2.9064314
-1.6199336 2.9462178 1.9292617 -0.69611883 -1.2375314 -1.7898303 -1.263348 2.1057725
2.5700247 -1.0516058 3.058251 -0.98574513 -2.17337 -1.1711801 -1.2418147 2.638144
-0.5417313 -1.4370683 2.6625874 -1.3389543 2.731719 -1.2086139 -2.2792716 1.5767802
-0.23343262 2.027847 -1.2594057 -0.7657575 -1.0663469 -0.8627259 3.4477158 2.956821
-2.3689213 2.8480628 -2.4447033 -0.38511002 -1.3550335 -1.8058352 -1.2197633 2.4270377
-1.2460005 2.4294076 -0.87128705 -1.446378 -1.2683396 2.5609612 -1.2193937 -1.0237205
-0.28194773 -1.5710421 -0.59844667 -1.1208833 -1.0514449 -1.4428762 -1.1525514 -0.54611146
2.7877476 -1.3353363 2.2067988 -1.2869269 -0.7546255 2.644429 2.7876532 2.6905978
-1.7764475 1.9902549 -1.0832132 -1.7721698 -1.2251573 -2.298299 2.3982246 -2.840122
00000000: aef2 72bf 539f 4440 1b06 0740 718e e8be
00000010: f090 a2bf 0197 1d40 5ace e2bf c1ca 91bf
00000020: 4774 cbbf 4d48 b7bf 6e53 fabe 36bc 2540
00000030: 6c75 2140 1791 3d40 5a1f f2be 9ccf c4bf
00000040: cb09 7abf d0f5 02c0 992e 6dbf fe91 7ebe
00000050: f684 0b40 4552 a0bf fc41 4abf 5308 1440
00000060: dd55 c8bf 0d05 a6bf 398c c4bf 1b52 89bf
00000070: c4ad 1140 c6cc 0140 0bad 8bbf 7967 b5bf
00000080: 6aa3 20bf 0005 9ebf 7852 aabf f473 0540
00000090: 0a1f 79bf 9ed7 48bf b344 1440 2369 2340
000000a0: 730d c1bf 6e3e fabf ea08 89bf 0ad8 0fc0
000000b0: 09f9 1540 c13f 7c40 97ab eabf 18f6 1c40
000000c0: 4bb2 f4bf 7bc1 1d40 6dbf dfbf 450d 0e40
000000d0: 9666 03c0 3049 3b40 228e 4dbf f902 3a40
000000e0: fc59 cfbf d58e 3c40 0cf2 f63f d834 32bf
000000f0: 6e67 9ebf 2919 e5bf 63b5 a1bf fac4 0640
00000100: 497b 2440 059b 86bf 62ba 4340 cb59 7cbf
00000110: 7e18 0bc0 3be9 95bf c9f3 9ebf 5ad7 2840
00000120: e7ae 0abf dbf1 b7bf d567 2a40 db62 abbf
00000130: 7cd4 2e40 dcb3 9abf 96df 11c0 efd3 c93f
00000140: f608 6fbe 3fc8 0140 3534 a1bf af08 44bf
00000150: 0e7e 88bf 9bdb 5cbf 60a7 5c40 8e3c 3d40
00000160: 689c 17c0 a946 3640 0576 1cc0 242d c5be
00000170: bd71 adbf 9c25 e7bf 3421 9cbf 9654 1b40
00000180: f27c 9fbf 6a7b 1b40 ab0c 5fbf ea22 b9bf
00000190: f458 a2bf cae6 2340 1815 9cbf 4609 83bf
000001a0: 745b 90be e817 c9bf cd33 19bf 1b79 8fbf
000001b0: bf95 86bf 2bb0 b8bf ce86 93bf f6cd 0bbf
000001c0: 756a 3240 4dec aabf 313c 0d40 05ba a4bf
000001d0: 232f 41bf 533e 2940 e968 3240 c132 2c40
000001e0: a262 e3bf acc0 fe3f bba6 8abf 76d6 e2bf
000001f0: f4d1 9cbf 5517 13c0 837c 1940 8fc4 35c0

exp_avg f4 [2]
-3.4831533e-06 1.9539384e-06
00000000: 1ec0 69b6 6820 0336

exp_avg_sq f4 [2]
3.29786e-10 2.0065323e-10
00000000: 414d b52f dd9e 5c2f

exp_avg f4 [128, 18]
0.00040078297 -6.8196205e-05 0.0001671089 0.00018199554 3.8690767e-05 0.00010602144 0.0002156185 3.9471497e-06
0.00011429362 0.00010419454 0.00021782317 6.6262364e-05 -0.00023051052 0.0002773919 4.9363687e-05 0.00010517311
0.000101578255 6.708449e-05 -5.969082e-05 -0.0007313976 -2.8080864e-05 -0.00013980985 -0.00019611424 0.00017612636
-0.00030646217 0.00028994773 -0.00026796915 -2.8190252e-05 7.501256e-05 0.00021063784 0.0002935263 -0.0004146546
-0.00022300184 -8.354972e-05 -2.1721307e-05 0.00021180713 0.0021249005 0.00012132117 0.0012064026 0.001263484
0.0003003478 0.00036736857 0.00096115575 0.00010660863 0.0003741071 0.00054213096 0.00089057686 0.00040307097
-5.671575e-05 0.0019282536 0.00022208749 0.00046832074 0.00047300733 0.00039979385 -0.0009093521 -0.0005968613
0.00014591211 -0.00049509393 -0.00025258143 -0.00059183914 -0.00089614245 -0.0007473116 -0.0002815497 -0.00024136773
-0.0004795425 -0.00010367485 0.00061725575 -0.0007090279 -0.000453218 -9.1553986e-05 -9.7198885e-05 -0.00010243099
0.0005590133 -0.00020959976 0.000105711544 0.00013074129 9.698527e-05 0.0002018585 0.000200908 5.738113e-05
0.0002074928 0.00021557529 0.00020044323 8.112544e-05 -0.00010962327 -1.6213326e-05 0.000121257835 0.00012300002
0.000114522554 8.2332226e-05 -0.00012462365 -0.0003027757 -0.00031938442 -0.00050643564 -1.826809e-06 1.8585697e-05
8.886492e-05 -9.549748e-05 -0.00036882242 -5.699215e-05 8.2743405e-05 -8.543872e-05 7.1454506e-06 -0.0004425857
-0.00013557564 5.092908e-05 -3.8427075e-05 -8.433725e-05 0.0032157796 0.002980341 0.00033043788 0.0022929236
0.0011345524 0.0015439187 0.004307382 -0.00022178526 0.00025573064 0.00036635844 0.0015569963 0.00041501483
-0.0024580003 0.0024879253 0.00032979675 0.0011353749 0.0011107017 0.00041609278 -0.0018416558 0.003710719
-0.003186759 -0.0018444833 -0.0007594228 -4.1193154e-05 -0.0006962319 -0.00029265147 -0.0007493237 -0.00061745953
-0.00067190325 -0.0004738546 -0.0013782925 -0.0025977432 0.0004555623 -0.00025733057 -0.00032754423 -0.00047222147
-0.0036882441 0.0020483003 -0.0056096483 -0.0030873297 -0.0005395508 0.00084687036 -7.0627946e-05 0.0012989803
-0.0011460566 -0.00068940694 -0.0018210987 -0.00046456602 0.0020380558 -0.0033102746 0.0010088881 -0.0011325043
-0.00090287573 -0.00046287544 -0.0005912536 -0.0011453768 -0.0006951088 -0.00035473987 3.8781774e-05 -0.0007991354
-0.0008320621 0.00012562284 0.00053613476 2.360929e-05 -1.1302337e-05 -0.00030212072 -0.0017401347 -0.0010296648
-5.0158233e-05 -0.00019568067 -0.0002181795 -0.0003009638 0.0005235245 -4.3876724e-05 0.00013006342 0.00022917919
3.4434386e-05 0.00021319446 0.00026405757 3.4386398e-05 0.00017284518 0.00014484838 0.00028469143 0.00010139737
-0.00017113092 0.00036181067 0.000107994674 0.00013314153 0.00013182698 0.000102365084 0.00011675895 -5.5880373e-05
0.00015845461 -1.101797e-05 1.4174937e-05 8.370334e-06 6.445313e-05 -9.365319e-06 4.1220712e-05 2.7629534e-05
6.1360435e-05 2.4226745e-06 -0.00015348011 3.7579528e-05 -2.6958385e-05 4.5931454e-05 4.0563882e-05 3.582234e-06
0.00023015977 -2.3322795e-05 2.4650994e-05 7.580622e-05 4.508049e-05 5.582312e-05 0.0001225164 6.690653e-06
5.3988097e-05 5.870975e-05 0.00012903412 2.939069e-05 -0.00019763429 0.00012993987 4.2016418e-05 5.633755e-05
5.5018165e-05 3.0445068e-05 0.00033816963 3.234394e-05 0.00011292555 0.00016610972 0.00012734244 0.00014802274
0.00013003434 7.755912e-05 8.857506e-05 9.3520815e-05 0.00018890627 4.7410005e-05 -0.00026782736 0.00020799937
8.648789e-05 7.786242e-05 7.429699e-05 4.8508373e-05 0.0033066368 -0.0014225838 0.0052046054 0.0029125006
00000000: 2e20 d239 8f04 8fb8 f439 2f39 0ed6 3e39
00000010: e547 2238 d457 de38 a617 6239 c271 8436
00000020: ecb0 ef38 0583 da38 7667 6439 56f6 8a38
00000030: 32b5 71b9 e96e 9139 db0b 4f38 6290 dc38
00000040: 6906 d538 b6af 8c38 885c 7ab8 43bb 3fba
00000050: 328f ebb7 ec99 12b9 04a4 4db9 8fae 3839
00000060: a8ac a0b9 2004 9839 367e 8cb9 1b7a ecb7
00000070: 1050 9d38 aade 5c39 6fe4 9939 0066 d9b9
00000080: 9ad5 69b9 6a37 afb8 2736 b6b7 8b18 5e39
00000090: ea41 0b3b cf6d fe38 2720 9e3a 7d9b a53a
000000a0: 0078 9d39 609b c039 12f6 7b3a 1393 df38
000000b0: ce23 c439 cb1d 0e3a 9a75 693a 4553 d339
000000c0: 13e2 6db8 74bd fc3a 28e0 6839 f288 f539
000000d0: f8fd f739 6c9b d139 9661 6eba af76 1cba
000000e0: fcff 1839 31c9 01ba e86c 84b9 a725 1bba
000000f0: 1aeb 6aba 3ce7 43ba f69c 93b9 a817 7db9
00000100: 1b6b fbb9 036c d9b8 55cf 213a 0fde 39ba
00000110: e49d edb9 ac00 c0b8 41d7 cbb8 38d0 d6b8
00000120: bf8a 123a 02c8 5bb9 74b1 dd38 9917 0939
00000130: 9264 cb38 faa9 5339 d5aa 5239 85ac 7038
00000140: 6d92 5939 0d0c 6239 122e 5239 e421 aa38
00000150: 8ce5 e5b8 da01 88b7 ce4b fe38 91f9 0039
00000160: d42b f038 c7a9 ac38 68ad 02b9 debd 9eb9
00000170: 0d73 a7b9 52c2 04ba ae30 f5b5 7be8 9b37
00000180: fe5c ba38 d245 c8b8 825e c1b9 db0a 6fb8
00000190: 8786 ad38 902d b3b8 f4c2 ef36 d90a e8b9
000001a0: 4f29 0eb9 af9c 5538 c22c 21b8 37de b0b8
000001b0: d4bf 523b d351 433b 9f3e ad39 e044 163b
000001c0: 43b5 943a 515d ca3a f024 8d3b 078f 68b9
000001d0: 9613 8639 cc13 c039 2014 cc3a 5996 d939
000001e0: 6716 21bb 760c 233b 92e8 ac39 dcd0 943a
000001f0: f794 913a 0727 da39 b763 f1ba 892f 733b
00000200: f2d8 50bb 97c2 f1ba 0014 47ba d0c6 2cb8
00000210: 5583 36ba 046f 99b9 436e 44ba 02dd 21ba
00000220: aa22 30ba b06f f8b9 d2a7 b4ba e63e 2abb
00000230: 89d8 ee39 53ea 86b9 3eba abb9 7e94 f7b9
00000240: 78b6 71bb c73c 063b 24d1 b7bb cc54 4abb
00000250: a470 0dba 8200 5e3a 171e 94b8 8c42 aa3a
00000260: 4737 96ba 51b9 34ba efb1 eeba ff90 f3b9
00000270: e790 053b 31f1 58bb ab3c 843a 8a70 94ba
00000280: f7ae 6cba 17ae f2b9 5cfe 1aba 7820 96ba
00000290: f637 36ba 61fc b9b9 9da9 2238 127d 51ba
000002a0: be1e 5aba a0b9 0339 658b 0c3a 900c c637
000002b0: 2b9f 3db7 f565 9eb9 3b15 e4ba d1f5 86ba
000002c0: fe60 52b8 a12f 4db9 1dc7 64b9 adca 9db9
000002d0: 223d 093a 4608 38b8 a261 0839 d24f 7039
000002e0: a46d 1038 f48c 5f39 3571 8a39 1d3a 1038
000002f0: c63d 3539 71e2 1739 a342 9539 4ca5 d438
00000300: 9b71 33b9 68b1 bd39 337b e238 e89b 0b39
00000310: 093b 0a39 d6ac d638 7cdc f438 1861 6ab8
00000320: d626 2639 d2d9 38b7 e4d0 6d37 506e 0c37
00000330: 032b 8738 bd1f 1db7 67e4 2c38 f9c5 e737
00000340: a2ae 8038 3b95 2236 81ef 20b9 b69e 1d38
00000350: b124 e2b7 86a6 4038 2323 2a38 5066 7036
00000360: 0b57 7139 52a5 c3b7 9bc9 ce37 28fa 9e38
00000370: cf14 3d38 9e23 6a38 bf77 0039 4680 e036
00000380: 4771 6238 1d3f 7638 554d 0739 078c f637
00000390: 0d3c 4fb9 7840 0839 c93a 3038 fc4b 6c38
000003a0: 4ec3 6638 4964 ff37 5c4c b139 0ba9 0738
000003b0: 71d2 ec38 bd2d 2e39 3a87 0539 8d36 1b39
000003c0: d459 0839 3ca7 a238 60c1 b938 9b20 c438
000003d0: 2415 4639 1bda 4638 2e6b 8cb9 681a 5a39
000003e0: d560 b538 124a a338 e5cf 9b38 7875 4b38
000003f0: 29b4 583b fe75 baba 658b aa3b a7df 3e3b
