models/target_ppo_cont1.pt (torch, 306290 bytes, 36 tensors)

actor_logstd f4 [2]
2.001229 2.001203
00000000: 2314 0040 b613 0040

shared.0.weight f4 [128, 23]
1.4941006 0.41218302 -0.20599289 0.94880533 -1.3891467 1.7664015 0.51257306 -0.25274798
1.5569433 1.6442665 0.92639714 1.2256056 0.97805697 1.2291677 1.0063734 1.2623345
1.0367552 1.5342118 1.9606807 1.5201755 1.6747673 1.2491771 1.3455083 1.1569818
-1.6995357 -0.47425276 1.2835755 -1.2772377 1.3890859 1.3928343 -0.41619754 1.4127547
1.183376 1.1442378 1.3518592 1.6161705 1.6631842 1.5593749 1.9526205 1.6474115
1.1106015 1.1862121 1.4858025 2.154324 0.89949715 0.8570094 2.285544 2.2430577
-0.25778627 -2.6157675 -0.6628415 1.3897579 0.8702058 0.90744 1.6766733 1.9225965
1.4462552 1.6684241 1.265878 1.317682 1.1545546 0.8723728 1.5138046 1.4433708
1.3025002 1.090999 1.7000979 1.3368126 1.4196393 2.0120482 -0.98805535 0.41308257
-0.021647567 -1.1824332 1.4042104 1.0411916 -0.57035047 1.4330411 1.4143121 1.0385119
1.3582451 1.3431392 1.3995273 0.980293 2.1603458 1.3536589 1.155663 1.2411146
1.4307601 0.82561237 0.5149655 0.78949624 -0.36310688 -0.60198534 1.0004843 -0.3885556
-1.4047921 1.2763616 0.5146641 0.26835582 1.495107 1.2224236 1.2875986 1.1425347
1.1245514 1.3422738 0.5255264 1.1216133 0.8911888 1.2409623 1.1399558 1.3051666
0.91003144 1.2585351 1.4577715 1.0454218 -0.08527566 -0.012816909 0.580518 -2.5249758
1.8000224 1.3165321 1.1535999 1.1369156 1.5168039 1.3320897 1.2709352 1.0646324
1.3055487 0.81365 0.4766265 1.5362103 1.5574069 1.1696984 1.1478705 -0.71290624
0.940772 1.3748398 -0.3750192 -1.1164986 0.37075415 0.907156 0.2702005 1.3728641
1.1637793 -0.17061777 1.2352127 1.2803762 0.98242587 1.399251 1.4580231 1.5202521
1.799712 1.3376665 0.7217536 1.1188103 1.6262326 1.4653133 2.2303147 1.1178159
1.3217682 1.4355799 -0.6236121 0.7961343 0.30452552 -0.8049343 1.0570304 -0.087004
-0.46926618 1.1828712 1.1570966 1.0096973 1.3169966 1.0602604 1.126949 1.0381827
1.6717848 1.896934 0.7729292 0.8437063 1.0023768 0.63745886 0.76758814 1.0888591
1.1540306 -0.5762925 0.8114591 1.419703 -0.562033 1.5544788 0.77107346 0.623993
1.2226944 1.3221301 1.4722507 1.4219412 1.4964603 1.5246652 1.3319378 1.2949817
1.3837376 1.542726 1.2236313 1.3647044 -0.04905518 1.2647102 1.3019414 2.013212
-0.82225305 -0.57848454 0.4671067 -0.7772821 1.0516931 0.4243549 0.7903127 1.8600973
1.8319736 1.5285645 1.4732859 1.2232932 1.3524611 1.4543617 1.0763196 0.70513356
0.8296257 2.0161612 1.9058609 1.5701793 2.2834342 2.2624805 1.3253318 -1.1907108
-0.5327206 -0.24615765 -1.1037959 1.5753088 0.40683812 0.28974137 1.3351386 1.2241427
1.0484831 1.2699058 1.296848 1.3033601 0.66895634 1.2552664 0.74145 1.9501504
1.1183778 1.2442017 1.0176613 1.087468 1.5501254 2.2728238 -0.55545247 -0.31714264
00000000: b03e bf3f a709 d33e cdef 52be e8e4 723f
00000010: 8fcf b1bf 7219 e23f fd37 033f 2f68 81be
00000020: eb49 c73f 5377 d23f 5d28 6d3f a5e0 9c3f
00000030: f161 7a3f 5e55 9d3f d8d0 803f 2d94 a13f
00000040: 65b4 843f 0d61 c43f 96f7 fa3f 1c95 c23f
00000050: c65e d63f 09e5 9f3f 9e39 ac3f fb17 943f
00000060: 638a d9bf 42d1 f2be 344c a43f 867c a3bf
00000070: 91cd b13f 6548 b23f d817 d5be 25d5 b43f
00000080: dd78 973f 6276 923f b909 ad3f adde ce3f
00000090: 38e3 d43f 9999 c73f 78ef f93f 61de d23f
000000a0: 3128 8e3f ccd5 973f c72e be3f 72e0 0940
000000b0: 7245 663f f864 5b3f 5a46 1240 428e 0f40
000000c0: 90fc 83be bc68 27c0 fbaf 29bf 96e3 b13f
000000d0: cfc5 5e3f fd4d 683f 3b9d d63f a417 f63f
000000e0: e41e b93f ec8e d53f 4a08 a23f cea9 a83f
000000f0: 72c8 933f d353 5f3f 59c4 c13f 60c0 b83f
00000100: 54b8 a63f dba5 8b3f cf9c d93f ad1c ab3f
00000110: beb6 b53f 66c5 0040 32f1 7cbf 8f7f d33e
00000120: 3d56 b1bc f959 97bf 2bbd b33f c445 853f
00000130: 7d02 12bf e46d b73f 2e08 b53f f5ed 843f
00000140: fada ad3f fceb ab3f b623 b33f 7bf4 7a3f
00000150: 1b43 0a40 b244 ad3f c4ec 933f d8dc 9e3f
00000160: 2623 b73f 555b 533f c7d4 033f 6d1c 4a3f
00000170: 25e9 b9be b61b 1abf df0f 803f c2f0 c6be
00000180: 3ad0 b3bf d15f a33f 07c1 033f ef65 893e
00000190: ab5f bf3f 6078 9c3f 08d0 a43f 943e 923f
000001a0: 4df1 8f3f a1cf ab3f e688 063f 0691 8f3f
000001b0: f324 643f dad7 9e3f 12ea 913f b30f a73f
000001c0: d2f7 683f ae17 a13f 4298 ba3f 62d0 853f
000001d0: 01a5 aebd 03fe 51bc d49c 143f 3499 21c0
000001e0: 2267 e63f 2084 a83f 29a9 933f 7386 913f
000001f0: a126 c23f ea81 aa3f 01ae a23f e045 883f
00000200: 381c a73f 5e4b 503f 6308 f43e 8aa2 c43f
00000210: 1c59 c73f adb8 953f 6ced 923f 0681 36bf
00000220: 6fd6 703f c0fa af3f 8402 c0be 6de9 8ebf
00000230: 7dd3 bd3e 603b 683f b857 8a3e 03ba af3f
00000240: b8f6 943f 6db6 2ebe 731b 9e3f 5ee3 a33f
00000250: 4380 7b3f a81a b33f 80a0 ba3f 9f97 c23f
00000260: f65c e63f a838 ab3f d8c4 383f 2d35 8f3f
00000270: 6428 d03f 638f bb3f 7abd 0e40 9714 8f3f
00000280: b32f a93f 15c1 b73f 0ba5 1fbf 75cf 4b3f
00000290: c5ea 9b3e 2d10 4ebf c64c 873f 272f b2bd
000002a0: a843 f0be 5368 973f be1b 943f c33d 813f
000002b0: 5893 a83f 9db6 873f dd3f 903f 2ce3 843f
000002c0: 0bfd d53f bcce f23f b0de 453f 23fd 573f
000002d0: e24d 803f 8130 233f a880 443f bc5f 8b3f
000002e0: 46b7 933f e887 13bf c9bb 4f3f d4b8 b53f
000002f0: 65e1 0fbf 29f9 c63f 1265 453f 01be 1f3f
00000300: 4081 9c3f 8f3b a93f b672 bc3f 2b02 b63f
00000310: 038c bf3f 3b28 c33f f07c aa3f f6c1 a53f
00000320: 501e b13f 0c78 c53f f39f 9c3f a2ae ae3f
00000330: 16ee 48bd 06e2 a13f 04a6 a63f 77d8 0040
00000340: 2d7f 52bf 9017 14bf 9c28 ef3e f6fb 46bf
00000350: e19d 863f 0c45 d93e ef51 4a3f ab17 ee3f
00000360: 1c7e ea3f 00a8 c33f a294 bc3f df94 9c3f
00000370: 721d ad3f 8628 ba3f d7c4 893f a283 343f
00000380: 5a62 543f c908 0140 40f3 f33f a3fb c83f
00000390: c923 1240 7bcc 1040 79a4 a93f 3669 98bf
000003a0: 6160 08bf c010 7cbe 2f49 8dbf b8a3 c93f
000003b0: 164d d03e fb58 943e d2e5 aa3f b5b0 9c3f
000003c0: b234 863f 468c a23f 1eff a53f 81d4 a63f
000003d0: b940 2b3f 92ac a03f abcf 3d3f 879e f93f
000003e0: 0127 8f3f 0042 9f3f ba42 823f 2732 8b3f
000003f0: 826a c63f f275 1140 2232 0ebf 8560 a2be

shared.0.bias f4 [128]
1.522943 1.3795003 1.3172125 1.4482776 0.91692233 1.5129945 1.2224973 1.3435892
1.2197366 1.9972532 1.404491 1.0391606 1.3181932 1.6962997 1.3496515 1.3549924
1.3511825 1.3186314 1.6612664 1.1213285 1.6592753 1.5536858 1.5574355 1.8115114
1.7537031 1.2494289 1.4257953 1.7498943 1.5491335 1.1677281 2.244093 1.2906606
1.4744979 1.5593407 1.9262079 1.3192118 1.0472997 1.3597257 1.2939197 1.7920643
1.4087881 0.75975436 1.6079494 1.7777945 1.399164 1.4266702 1.7297562 1.4349937
1.4358636 1.4585665 0.87255186 0.7701681 1.5749797 1.0830281 1.428238 1.3746415
1.2570167 1.1664472 1.8804728 1.974504 0.9830968 1.516105 1.781586 1.4316437
1.9618272 1.5303346 1.5520704 1.7587842 1.101244 1.4247 1.077454 1.3695573
1.3152947 1.1780661 1.4441383 1.7069715 1.1094226 1.6701938 0.89614385 1.4502213
1.8025587 1.4566758 1.0783165 1.1566916 1.3286237 1.2097366 1.217348 1.4399586
1.3822186 1.4590161 0.98346525 1.5871174 1.5929462 1.0901656 1.3070422 1.9855511
1.2870044 1.364822 1.3038547 1.2134986 1.0672531 1.3528349 1.3652961 1.6135106
1.7923766 1.61396 1.6904626 1.3014586 0.9457474 1.4917103 1.280791 1.4356352
0.86115324 1.644095 1.2306566 1.2583717 1.3315668 1.3401058 1.1851935 1.218603
1.334254 1.2382976 1.7361614 1.5427305 1.1671451 1.1147524 0.98632646 1.2520016
00000000: ccef c23f 7793 b03f 6b9a a83f 2961 b93f
00000010: 6cbb 6a3f cea9 c13f cb7a 9c3f bbfa ab3f
00000020: 5420 9c3f fea5 ff3f 5cc6 b33f 3703 853f
00000030: 8eba a83f 5920 d93f 61c1 ac3f 6470 ad3f
00000040: 8cf3 ac3f eac8 a83f 61a4 d43f b187 8f3f
00000050: 2263 d43f 2ddf c63f 0c5a c73f 9bdf e73f
00000060: 5879 e03f 49ed 9f3f 7680 b63f 89fc df3f
00000070: 024a c63f 1d78 953f 389f 0f40 5e34 a53f
00000080: 59bc bc3f 7a98 c73f fb8d f63f efdb a83f
00000090: eb0d 863f 7e0b ae3f 299f a53f 5d62 e53f
000000a0: 2b53 b43f 437f 423f 49d1 cd3f c58e e33f
000000b0: ce17 b33f 219d b63f a768 dd3f e0ad b73f
000000c0: 61ca b73f 4fb2 ba3f 8f5f 5f3f bd29 453f
000000d0: ef98 c93f aaa0 8a3f 81d0 b63f 41f4 af3f
000000e0: ece5 a03f 244e 953f 55b3 f03f 8cbc fc3f
000000f0: 3bac 7b3f bb0f c23f 030b e43f 1a40 b73f
00000100: 271d fb3f 01e2 c33f 3eaa c63f d71f e13f
00000110: 90f5 8c3f 925c b63f 03ea 893f a74d af3f
00000120: 945b a83f dfca 963f 86d9 b83f 0b7e da3f
00000130: 8f01 8e3f e9c8 d53f af69 653f daa0 b93f
00000140: 3eba e63f 5a74 ba3f 4606 8a3f 780e 943f
00000150: 5710 aa3f a6d8 9a3f 0fd2 9b3f 9050 b83f
00000160: 8aec b03f 0ac1 ba3f 61c4 7b3f aa26 cb3f
00000170: a9e5 cb3f 8c8a 8b3f 294d a73f 8a26 fe3f
00000180: 8fbc a43f 7db2 ae3f b6e4 a63f ec53 9b3f
00000190: c09b 883f b229 ad3f 06c2 ae3f 8487 ce3f
000001a0: 996c e53f 3e96 ce3f 1461 d83f 3296 a63f
000001b0: 801c 723f 5df0 be3f f6f0 a33f e5c2 b73f
000001c0: 8a74 5c3f b471 d23f 2886 9d3f 5312 a13f
000001d0: c870 aa3f 9688 ab3f 6cb4 973f 2ffb 9b3f
000001e0: d6c8 aa3f 8980 9e3f 893a de3f 3178 c53f
000001f0: 0365 953f 35b0 8e3f e47f 7c3f 9741 a03f

shared.1.weight f4 [128]
1.6873457 2.4375863 4.0773883 3.2004747 3.4913573 2.2085092 4.7088284 3.4426925
2.2682896 1.8741518 1.9488136 3.391653 2.985198 3.3006053 2.4126482 2.4026964
3.3367589 3.0962021 2.21961 4.1793337 3.0220573 2.0365424 3.9645276 1.9237219
3.1566253 3.9589245 3.7054822 2.602835 3.0225205 2.8435588 0.14291641 4.867043
2.2149858 2.7734106 3.8658953 1.6046487 4.0811443 2.2740958 2.4071212 2.2532218
6.010119 3.5790145 2.7485065 1.1981195 1.8954164 1.6564387 3.7301152 3.0238945
2.6065795 1.6685542 3.2982745 4.374558 3.3138275 1.7030922 1.8134767 1.7946427
3.6240728 3.6427047 1.4715849 2.3381972 1.3977642 3.7167115 3.3742805 3.2324746
1.052352 3.5551524 2.6879466 3.0285943 3.0026498 2.302053 2.5204341 3.76711
2.7595804 3.3710573 2.8103228 4.4414296 3.0003197 2.7972746 3.2892442 2.8146358
1.5733811 1.7897713 4.482508 3.8099895 2.485281 1.9533029 2.931203 1.2895418
2.7199488 2.1152694 2.2716155 4.5012655 3.8636289 4.2255282 2.8661423 3.3534384
3.120845 2.735009 1.6410228 3.5578837 1.8823204 6.8251534 2.32273 2.4321995
2.2695127 2.708944 3.9431272 3.2631617 1.3909166 2.2500856 1.7672526 2.4887345
4.259365 2.8812203 3.540923 2.851086 3.1710196 3.3583846 2.196788 3.5593684
3.363791 2.394661 3.0977192 2.062934 2.4020047 8.89684 2.485981 2.1922028
00000000: f2fa d73f 6a01 1c40 f779 8240 94d4 4c40
00000010: 6672 5f40 3758 0d40 b9ae 9640 1355 5c40
00000020: a82b 1140 35e4 ef3f b972 f93f d810 5940
00000030: 7c0d 3f40 1e3d 5340 d468 1a40 c7c5 1940
00000040: 758d 5540 2d28 4640 170e 0e40 1abd 8540
00000050: 6369 4140 b656 0240 d2ba 7d40 853c f63f
00000060: 2606 4a40 055f 7d40 9f26 6d40 d994 2640
00000070: fa70 4140 defc 3540 ae58 123e d1be 9b40
00000080: 54c2 0d40 8f7f 3140 d46a 7740 2165 cd3f
00000090: bc98 8240 c98a 1140 460e 1a40 c934 1040
000000a0: e552 c040 930e 6540 88e7 2f40 fb5b 993f
000000b0: 019d f23f 2f06 d43f 35ba 6e40 7d87 4140
000000c0: 33d2 2640 2f93 d53f ee16 5340 61fc 8b40
000000d0: c015 5440 edfe d93f 0120 e83f dab6 e53f
000000e0: cff0 6740 1322 6940 e55c bc3f 06a5 1540
000000f0: f0e9 b23f 9ade 6d40 36f4 5740 dde0 4e40
00000100: 78b3 863f 9e87 6340 5107 2c40 7dd4 4140
00000110: 6a2b 4040 d654 1340 cb4e 2140 5518 7140
00000120: f79c 3040 67bf 5740 54dc 3340 3120 8e40
00000130: 3d05 4040 8c06 3340 fa82 5240 fe22 3440
00000140: 8d64 c93f 3a17 e53f b570 8f40 ded6 7340
00000150: d80e 1f40 d405 fa3f d498 3b40 b50f a53f
00000160: a413 2e40 9360 0740 2662 1140 5e0a 9040
00000170: b245 7740 8737 8740 e06e 3740 bc9e 5640
00000180: edbb 4740 630a 2f40 090d d23f 5eb4 6340
00000190: e0ef f03f a867 da40 9ca7 1440 28a9 1b40
000001a0: b23f 1140 575f 2d40 325c 7c40 a4d7 5040
000001b0: 8e09 b23f 6701 1040 5535 e23f 6d47 1f40
000001c0: b84c 8840 ea65 3840 7c9e 6240 3178 3640
000001d0: fcf1 4a40 c6ef 5640 2d98 0c40 b1cc 6340
000001e0: 5a48 5740 2042 1940 0841 4640 1c07 0440
000001f0: 72ba 1940 7559 0e41 501a 1f40 0d4d 0c40

shared.1.bias f4 [128]
0.38675946 -0.11726365 0.5790314 0.0013511553 -0.5949479 0.43055773 0.016607828 -0.2269897
0.06537098 0.35494518 -0.2938954 1.3640083 0.9894112 0.32469818 -0.72677606 1.2726585
0.73034143 0.8625255 0.3116482 0.7508251 0.4686548 -0.0048886165 0.3473024 -0.06169384
0.6821538 0.6714514 0.6182271 0.17363064 0.36729342 0.6750298 -1.0136329 0.74726695
-0.14132652 0.7952421 0.36900628 -0.08366319 1.045824 0.5207678 -0.105229825 -0.25939852
0.4600224 0.15331385 -0.22041628 -0.4593781 -0.163139 -0.6978035 0.3714514 0.020518783
-1.1338403 0.03813504 0.65163517 1.1125506 0.87551624 -0.36330447 0.38912457 -0.0710551
0.7304184 0.43935102 -0.2781438 0.25755978 0.744762 0.5311983 0.44259122 0.45859903
-0.16963209 1.1309806 0.5864256 0.866173 1.3469409 -0.11501871 0.7454984 0.5551722
0.73020124 0.46189895 0.6192764 0.048108548 0.4819045 -0.08993146 1.0966578 0.14285526
0.23190013 -0.080911346 0.93123907 0.32704204 -0.56089365 -0.13847789 0.31620604 -1.1754813
0.76191163 0.19616145 -0.45574316 0.7594852 0.19241191 0.6179331 0.022139039 0.38333154
0.55605215 0.60290897 -0.3290853 0.4272504 0.037992634 0.30316848 0.81948537 0.50416297
0.3543807 0.70174015 0.8741946 0.58405155 0.62392217 0.5496126 0.043157186 0.5710079
1.0344158 0.50986236 0.38883123 0.34313035 0.60955197 0.3723572 -0.07750978 -0.3408588
1.40524 0.27743307 -0.25933668 -0.14445646 -0.46595886 0.99080276 0.61544234 0.39702925
00000000: 5605 c63e ed27 f0bd 673b 143f 4019 b13a
00000010: 814e 18bf 1072 dc3e 240d 883c fd6f 68be
00000020: 38e1 853d 60bb b53e 7579 96be d397 ae3f
00000030: 0d4a 7d3f d73e a63e ff0d 3abf 79e6 a23f
00000040: a8f7 3a3f 79ce 5c3f 5a90 9f3e 1336 403f
00000050: 86f3 ef3e b030 a0bb 9fd1 b13e aeb2 7cbd
00000060: a2a1 2e3f 3de4 2b3f 2244 1e3f 3bcc 313e
00000070: e20d bc3e c1ce 2c3f b9be 81bf e34c 3f3f
00000080: e6b7 10be fc94 4b3f 64ee bc3e 9b57 abbd
00000090: 90dd 853f 0a51 053f bc82 d7bd e2cf 84be
000000a0: 0e88 eb3e 4efe 1c3e ceb4 61be 9b33 ebbe
000000b0: e90d 27be 40a3 32bf e12e be3e 0217 a83c
000000c0: ae21 91bf 7d33 1c3d 90d1 263f 0f68 8e3f
000000d0: d521 603f 0b03 babe 563b c73e 5685 91bd
000000e0: b3fc 3a3f 9ef2 e03e dd68 8ebe e0de 833e
000000f0: b9a8 3e3f 9dfc 073f 519b e23e 7ecd ea3e
00000100: 09b4 2dbe f9c3 903f fd1f 163f 84bd 5d3f
00000110: 8f68 ac3f ee8e ebbd fcd8 3e3f c41f 0e3f
00000120: 78ee 3a3f 057e ec3e e688 1e3f 780d 453d
00000130: 30bc f63e fc2d b8bd 485f 8c3f a648 123e
00000140: 3a77 6d3e d9b4 a5bd af65 6e3f 0e72 a73e
00000150: ba96 0fbf 26cd 0dbe c2e5 a13e 2c76 96bf
00000160: a40c 433f 8cde 483e 2b57 e9be 9f6d 423f
00000170: a107 453e dd30 1e3f ee5c b53c 0844 c43e
00000180: 6f59 0e3f 3e58 1a3f de7d a8be 90c0 da3e
00000190: 2a9e 1b3d e638 9b3e cbc9 513f d310 013f
000001a0: 6371 b53e 3ea5 333f 38cb 5f3f 6784 153f
000001b0: 5db9 1f3f 69b3 0c3f 97c5 303d 932d 123f
000001c0: bd67 843f 5786 023f e314 c73e c8ae af3e
000001d0: 990b 1c3f 9aa5 be3e 73bd 9ebd 0b85 aebe
000001e0: e8de b33f b50b 8e3e c7c7 84be 65ec 13be
000001f0: 2992 eebe 40a5 7d3f a18d 1d3f 6b47 cb3e

shared.3.weight f4 [128, 128]
0.51536626 1.1060358 0.57612073 1.7611355 0.7924806 1.8247786 -0.22736062 2.475619
0.6102552 0.95505834 -0.076310225 0.44098276 0.66437167 1.5865027 -0.4605057 0.9699484
1.79468 1.0809647 0.12385524 0.5918617 0.5715355 1.1721257 1.8151901 1.8499273
1.1494875 0.91774195 -0.29086947 1.001922 -0.20512752 0.27410513 0.36265928 1.6125011
0.35169998 0.6731706 -0.6178779 1.0220158 0.6140866 0.23013034 -0.004174817 1.7052344
2.7487104 -0.049349964 1.6835384 1.0204594 1.2716094 0.740557 1.8172941 0.82246983
0.037398845 1.9896994 0.105022974 -0.5693564 1.8426645 0.7841636 -0.4625255 0.90143824
0.3798546 0.9901855 1.1464615 0.9930632 -0.05133218 0.70853233 2.7775788 1.5327535
1.1777183 1.3588264 -0.022819884 1.6370852 0.32610947 0.92107224 0.400133 -0.30410886
-0.02203825 0.24810146 1.3636672 1.8798203 -0.42657733 1.0243268 -0.8174857 1.5637648
1.4585713 0.14940189 0.36988473 0.23548312 2.0691397 0.89869803 0.69306624 -0.13264233
-0.22782369 -0.10029076 0.40098682 -1.4169769 -0.10519823 0.17935404 2.2892342 1.8646475
0.8380764 2.5327213 0.7792747 1.4560798 0.08961338 2.606988 0.5564091 0.512991
1.3135569 0.50663555 -1.0407444 1.4942014 1.1173879 1.4602388 1.1493486 0.07463843
0.34749338 0.44660306 1.4898854 -0.092590176 1.7906399 0.8429133 -0.09897254 0.014587275
0.7408998 0.5400334 2.5492575 1.6296712 1.4538671 1.6680197 1.8212146 0.68671715
1.1325762 0.4943236 1.1932703 -0.3256731 1.0147226 0.17348082 2.3599746 0.07209969
0.35285866 0.8215492 -1.5830289 1.0357045 0.7918591 -1.3748864 1.9762692 0.52487296
-1.0072348 -0.10791363 -0.25717717 -0.10245068 -0.07703176 -1.2841915 -0.56957066 0.020169407
0.35481605 1.7137885 3.5517523 0.025566444 -0.7051732 0.4778126 0.6899843 -1.5945069
1.336453 1.036063 1.5077621 -0.40327865 0.2983771 1.3088712 0.68890536 -0.1892607
-2.2399068 0.801452 -0.56328315 0.7908031 0.8246165 -0.570158 -0.7690261 -0.8001422
0.16705061 -0.15443212 1.0042626 1.7732445 -0.39911854 1.624647 0.20631331 0.48767906
0.79918 0.8336619 1.1031394 0.26984012 0.9532095 -1.0741446 -0.6396652 0.045220617
0.8499797 0.9391502 1.685704 0.64074934 1.3792619 0.66418874 0.15095417 -0.7121963
1.2261691 0.47594452 -0.34534284 -1.3697892 0.60505646 -1.5507045 2.3895438 0.02805955
0.50906813 0.38107637 0.42096174 1.0717674 -1.0504227 -1.2453355 -0.06284428 1.621464
1.4380144 0.708426 1.2299116 -1.924845 0.8364795 0.5180896 0.26147264 -1.071782
0.60892373 -1.0371749 -0.7240911 -0.8666378 0.11530834 -2.535972 1.5714115 -0.5153739
0.74371475 0.47229472 -2.0992289 -0.16453265 -0.18332723 0.3940107 -0.27670044 0.92402166
1.0773485 2.0735877 -0.17116657 0.6033401 -1.067982 1.3277384 -0.09372854 1.9451041
0.7925039 0.42758903 0.07321334 -1.0712923 -0.3585368 0.3701383 0.38411102 -0.50072247
00000000: 0bef 033f 9592 8d3f a67c 133f e36c e13f
00000010: 02e0 4a3f 5892 e93f 39d1 68be 8b70 1e40
00000020: af39 1c3f b47e 743f 8948 9cbd 7ec8 e13e
00000030: 4314 2a3f 8512 cb3f 67c7 ebbe 8a4e 783f
00000040: 13b8 e53f 0d5d 8a3f d1a7 fd3d 4084 173f
00000050: 2750 123f 3708 963f 2658 e83f 6bca ec3f
00000060: 6822 933f 23f1 6a3f d8ec 94be fb3e 803f
00000070: f30c 52be 8257 8c3e 7aae b93e 7066 ce3f
00000080: 0512 b43e e954 2c3f 3f2d 1ebf 6ad1 823f
00000090: c834 1d3f 4aa7 6b3e e7cc 88bb 1f45 da3f
000000a0: dfea 2f40 3023 4abd 307e d73f 6a9e 823f
000000b0: 19c4 a23f 2595 3d3f 189d e83f 628d 523f
000000c0: 882f 193d 78ae fe3f 4916 d73d 57c1 11bf
000000d0: 6edc eb3f f2be 483f 24d0 ecbe a8c4 663f
000000e0: 4d7c c23e cc7c 7d3f 40bf 923f 6439 7e3f
000000f0: b141 52bd 6062 353f dac3 3140 4431 c43f
00000100: 79bf 963f 06ee ad3f c4f0 babc 028c d13f
00000110: d2f7 a63e 64cb 6b3f 3cde cc3e 28b4 9bbe
00000120: 8f89 b4bc 4f0e 7e3e a68c ae3f f49d f03f
00000130: 5868 dabe 241d 833f be46 51bf 7229 c83f
00000140: 77b2 ba3f cffc 183e 8861 bd3e 7d22 713e
00000150: c96c 0440 1311 663f ca6c 313f 64d3 07be
00000160: 9d4a 69be 3e65 cdbd 254e cd3e 805f b5bf
00000170: 2b72 d7bd 96a8 373e d082 1240 c5ac ee3f
00000180: 2d8c 563f 1b18 2240 8c7e 473f d360 ba3f
00000190: 3887 b73d e4d8 2640 d470 0e3f 6153 033f
000001a0: a222 a83f deb2 013f 1d37 85bf fe41 bf3f
000001b0: 9106 8f3f 1be9 ba3f db1d 933f 08dc 983d
000001c0: a7ea b13e 28a9 e43e 91b4 be3f eb9f bdbd
000001d0: b033 e53f 2bc9 573f 1db2 cabd 77ff 6e3c
000001e0: 9cab 3d3f a13f 0a3f 0927 2340 1199 d03f
000001f0: 5118 ba3f ab81 d53f 8f1d e93f b2cc 2f3f
00000200: 42f8 903f fc17 fd3e 15bd 983f a0be a6be
00000210: 6ee2 813f f5a4 313e d309 1740 01a9 933d
00000220: e4a9 b43e 0c51 523f b1a0 cabf f791 843f
00000230: 47b7 4a3f 47fc afbf 64f6 fc3f 135e 063f
00000240: 12ed 80bf d201 ddbd baac 83be aad1 d1bd
00000250: d4c2 9dbd 6360 a4bf 62cf 11bf 503a a53c
00000260: 73aa b53e 6c5d db3f e94f 6340 b870 d13c
00000270: 3b86 34bf daa3 f43e d0a2 303f cd18 ccbf
00000280: e410 ab3f b69d 843f 59fe c03f 8a7a cebe
00000290: e2c4 983e 1789 a73f 1a5c 303f 8fcd 41be
000002a0: a25a 0fc0 f52b 4d3f 5333 10bf 1272 4a3f
000002b0: 111a 533f e0f5 11bf e5de 44bf 1fd6 4cbf
000002c0: 510f 2b3e 7423 1ebe ad8b 803f adf9 e23f
000002d0: 4459 ccbe 6ff4 cf3f cc43 533e 12b1 f93e
000002e0: 0f97 4c3f de6a 553f ac33 8d3f 7c28 8a3e
000002f0: 8a05 743f 927d 89bf 19c1 23bf 4139 393d
00000300: 4598 593f 266c 703f 26c5 d73f 2608 243f
00000310: a78b b03f 4608 2a3f bb93 1a3e 7f52 36bf
00000320: 1cf3 9c3f 00af f33e c7d0 b0be 4155 afbf
00000330: fbe4 1a3f 7c7d c6bf 49ee 1840 24dd e53c
00000340: 4a52 023f 711c c33e 4c88 d73e ad2f 893f
00000350: 4074 86bf 2767 9fbf 80b4 80bd 228c cf3f
00000360: db10 b83f 685b 353f be6d 9d3f 5261 f6bf
00000370: 8523 563f 85a1 043f bedf 853e 2730 89bf
00000380: 6de2 1b3f 26c2 84bf 095e 39bf fadb 5dbf
00000390: c726 ec3d 5e4d 22c0 0324 c93f 8bef 03bf
000003a0: 1764 3e3f 9dd0 f13e c459 06c0 3f7b 28be
000003b0: 22ba 3bbe c5bb c93e aeab 8dbe af8c 6c3f
000003c0: 8ee6 893f a9b5 0440 4a46 2fbe 7f74 1a3f
000003d0: a2b3 88bf 55f3 a93f c0f4 bfbd 2cf9 f83f
000003e0: 89e1 4a3f f3ec da3e e0f0 953d 1b20 89bf
000003f0: 2392 b7be c482 bd3e 33aa c43e 592f 00bf

shared.3.bias f4 [128]
1.3008806 1.1012299 1.3198609 0.9657732 1.0241826 1.7923399 1.7075408 0.96623427
1.9425534 1.7291043 1.2707726 1.4590801 1.4865711 0.924047 0.9256418 1.0026556
1.4041417 2.0408688 1.6989641 1.4664754 0.9995197 1.2375876 0.9124 1.0472902
1.1584074 1.2607759 1.4790057 1.31383 1.9197111 1.1814883 1.3468572 1.7715732
1.1914098 1.8410869 1.2577213 1.1374527 1.226712 1.412519 1.6217155 1.063618
1.0245466 0.91044825 1.2410814 0.6590898 1.1836925 0.79959816 1.4712957 0.94233423
1.1045382 1.11433 0.8983404 1.6999584 1.2694103 1.5651435 1.7858753 1.5827813
1.2895274 1.062674 1.385709 0.95971537 1.4070795 1.0520631 1.2288519 1.5809535
1.13735 1.6865219 0.9592072 1.094361 1.1003478 1.229858 0.94205636 1.1144689
0.7864663 1.6327701 1.3783387 1.227452 1.3925098 1.4607869 0.96153766 1.1920545
1.1442559 1.1917688 1.0879351 1.3709527 0.848439 1.6552249 1.1049975 1.121078
1.5162032 1.0002978 1.6570386 1.4726548 1.4617358 1.7566731 1.809192 1.9397253
1.2516202 1.0158951 1.1965644 1.3200859 0.9243426 0.8639641 1.3200383 1.2412851
1.4701847 1.6015196 1.972129 1.4449384 1.2581252 1.0720344 1.1709355 1.222878
1.0412173 0.90946215 1.4472119 1.5738221 1.2135028 1.2518262 1.4094578 1.2012683
1.2083485 1.0267456 0.862176 1.2500762 1.4466797 1.219605 1.186111 1.2930039
00000000: 4183 a63f 1af5 8c3f 34f1 a83f ea3c 773f
00000010: 6a18 833f 656b e53f b290 da3f 215b 773f
00000020: 97a5 f83f 4a53 dd3f ada8 a23f 23c3 ba3f
00000030: f647 be3f 588e 6c3f dcf6 6c3f 0557 803f
00000040: eaba b33f 989d 0240 a877 d93f 77b5 bb3f
00000050: 86e0 7f3f 4569 9e3f 0c93 693f 9b0d 863f
00000060: b246 943f 1b61 a13f 0f50 bd3f 952b a83f
00000070: 18b9 f53f 023b 973f d165 ac3f e9c2 e23f
00000080: 1e80 983f bca8 eb3f 03fd a03f 0d98 913f
00000090: e604 9d3f 6ccd b43f 6094 cf3f a224 883f
000000a0: 5824 833f 2313 693f c1db 9e3f 1cba 283f
000000b0: 3c83 973f 77b2 4c3f 6b53 bc3f d13c 713f
000000c0: 8261 8d3f 5ea2 8e3f a3f9 653f 3d98 d93f
000000d0: 097c a23f 9f56 c83f 9097 e43f 9498 ca3f
000000e0: 3c0f a53f b405 883f ea5e b13f e8af 753f
000000f0: 2e1b b43f 01aa 863f 054b 9d3f af5c ca3f
00000100: af94 913f f3df d73f 9a8e 753f 0514 8c3f
00000110: 32d8 8c3f fd6b 9d3f 9b2a 713f eba6 8e3f
00000120: db55 493f 9cfe d03f 676d b03f 261d 9d3f
00000130: c33d b23f 11fb ba3f 5527 763f 3e95 983f
00000140: fa76 923f e18b 983f 7541 8b3f 617b af3f
00000150: 4c33 593f 69de d33f 8f70 8d3f 7c7f 8f3f
00000160: f212 c23f c209 803f d719 d43f f47f bc3f
00000170: 291a bb3f aada e03f 9a93 e73f eb48 f83f
00000180: 1735 a03f da08 823f 0629 993f 93f8 a83f
00000190: b7a1 6c3f c02c 5d3f 04f7 a83f 6ee2 9e3f
000001a0: 032f bc3f 98fe cc3f b96e fc3f bef3 b83f
000001b0: 3f0a a13f 6c38 893f 37e1 953f 4487 9c3f
000001c0: 9c46 853f 83d2 683f 3d3e b93f 0173 c93f
000001d0: 0f54 9b3f d73b a03f 1d69 b43f 29c3 993f
000001e0: 2aab 9a3f 666c 833f 91b7 5c3f 7f02 a03f
000001f0: cd2c b93f 041c 9c3f 7cd2 973f 2781 a53f

shared.4.weight f4 [128]
2.9878612 1.8994317 5.444178 2.4553187 3.3204124 7.3017797 7.4944735 4.5277953
6.49152 6.9130096 4.136552 6.526534 4.254861 5.5753655 4.4339485 7.055696
2.6897151 8.537078 6.574571 3.8102605 1.3031548 9.781069 7.9527516 3.2100775
5.32417 3.4638858 5.556149 4.875928 6.325622 6.541549 4.48858 3.951956
3.6335187 9.616488 4.773929 2.8948748 3.3027458 4.5885334 5.814449 2.0576682
8.246728 4.191904 3.5697143 1.631035 1.20484 5.03836 4.4996796 4.7090554
3.013774 0.9164156 3.70823 7.588886 10.088889 6.9669995 6.802671 6.7168937
4.179298 1.2462192 4.7348337 5.0674777 2.4715116 2.7872672 3.572797 3.3997161
3.1038404 7.7796755 5.982208 3.9095173 2.5292764 1.4990954 2.1618192 1.7864997
2.5718827 6.566811 4.5192857 10.935844 4.5389714 5.886445 4.386408 3.3412259
4.2614937 6.779515 7.1446805 5.2455525 4.316844 6.1307354 4.503414 4.5916367
6.8938055 3.4387157 5.905255 3.4367776 6.3738017 7.436785 10.603571 8.963939
5.1792707 1.4380088 4.59057 3.6221893 3.9936683 3.2802908 2.9058652 6.7018642
5.7643 6.5453773 8.253436 4.097835 1.3139807 3.1989236 6.1615157 4.434639
2.7063239 3.984931 1.9473414 6.6877 4.7801104 3.0179088 5.1580434 1.5778148
3.5186996 6.2894263 1.192557 5.3072724 4.3513803 5.874167 4.70534 4.7365484
00000000: 1e39 3f40 9420 f33f b536 ae40 f123 1d40
00000010: a381 5440 2ea8 e940 bad2 ef40 b3e3 9040
00000020: 88ba cf40 6037 dd40 a25e 8440 5ed9 d040
00000030: d227 8840 6569 b240 e8e2 8d40 43c8 e140
00000040: 4b24 2c40 df97 0841 e362 d240 4fdb 7340
00000050: c7cd a63f 427f 1c41 f17c fe40 e971 4d40
00000060: 9a5f aa40 4eb0 5d40 f9cb b140 9a07 9c40
00000070: 7f6b ca40 5f54 d140 73a2 8f40 d9ec 7c40
00000080: 928b 6840 23dd 1941 07c4 9840 a145 3940
00000090: 3060 5340 44d5 9240 f70f ba40 d6b0 0340
000000a0: 99f2 0341 1424 8640 3376 6440 c1c5 d03f
000000b0: 3238 9a3f 3f3a a140 60fd 8f40 95b0 9640
000000c0: ace1 4040 369a 6a3f a453 6d40 27d8 f240
000000d0: 176c 2141 a9f1 de40 7baf d940 cbf0 d640
000000e0: cfbc 8540 1c84 9f3f c283 9740 c728 a240
000000f0: 3f2d 1e40 9662 3240 b5a8 6440 f394 5940
00000100: 52a5 4640 1af3 f840 3f6e bf40 8835 7a40
00000110: aadf 2140 5ce2 bf3f 3f5b 0a40 06ac e43f
00000120: ba99 2440 5123 d240 fd9d 9040 38f9 2e41
00000130: 413f 9140 c25d bc40 745d 8c40 a5d6 5540
00000140: 285e 8840 c9f1 d840 39a1 e440 91db a740
00000150: 9623 8a40 fc2e c440 f81b 9040 b0ee 9240
00000160: 0e9a dc40 eb13 5c40 d9f7 bc40 2af4 5b40
00000170: 2ff6 cb40 25fa ed40 3aa8 2941 4b6c 0f41
00000180: 96bc a540 ac10 b83f f3e5 9240 f3d1 6740
00000190: 4398 7f40 49f0 5140 b2f9 3940 ac75 d640
000001a0: 2575 b840 bb73 d140 130e 0441 7721 8340
000001b0: 8530 a83f 2abb 4c40 232b c540 90e8 8d40
000001c0: 6934 2d40 1c09 7f40 7c42 f93f a301 d640
000001d0: aaf6 9840 6b25 4140 b10e a540 d6f5 c93f
000001e0: 6032 6140 fb42 c940 b5a5 983f 2dd5 a940
000001f0: 823e 8b40 2df9 bb40 2592 9640 ce91 9740

shared.4.bias f4 [128]
2.3582594 -0.73724407 1.5213033 0.66341823 2.774656 4.1799083 4.1386056 1.0476124
4.2844524 3.9324226 2.0661066 2.1848607 3.5703826 0.9693101 1.2269887 1.2855368
1.075178 4.110179 3.6742263 2.567046 0.6577113 0.8517255 1.5251755 -0.60462034
0.95114 0.17307925 2.6681318 2.3102727 3.5527449 2.6999633 0.59459656 3.0075572
0.55822766 3.700595 0.7174881 0.7732124 1.0363954 1.7665974 3.323242 0.6642862
1.0415086 0.060932364 0.83556247 2.8671317 0.72613555 -0.18956926 4.119332 1.5928472
0.7492891 1.090141 0.8386876 0.89296913 1.734221 3.5586524 4.431708 2.8952925
1.4211596 -0.492365 2.1634662 2.4423566 1.3594236 0.7722236 0.8773874 2.5672696
1.3838905 3.7991323 0.9619923 0.38899562 1.0719929 -0.7795629 -1.1728296 2.8238087
-0.4289782 2.2569492 3.121893 0.83438945 2.2694242 2.6431553 0.41664344 0.09126636
0.8242432 1.0049785 1.7322727 2.7625914 0.69494665 3.9771469 1.1296827 2.027433
2.1548047 0.86423904 2.7907133 2.7673428 2.5962844 4.6155787 4.036524 4.677466
1.9278611 -0.5142793 1.2500863 1.9754419 -0.1016484 0.42604938 1.2293053 2.6456501
2.4121773 1.703536 3.7394104 0.79272205 0.80190665 0.69691324 1.0765603 2.8055768
3.14777 0.6131684 0.71555674 2.442175 0.54050046 0.7688474 1.9409325 1.1651331
2.300104 1.1494086 -0.35271522 2.078096 2.3188088 2.3758802 2.1391392 2.693865
00000000: b9ed 1640 07bc 3cbf 11ba c23f c7d5 293f
00000010: f793 3140 cfc1 8540 756f 8440 2a18 863f
00000020: 3c1a 8940 d0ac 7b40 173b 0440 c2d4 0b40
00000030: 2681 6440 b524 783f f70d 9d3f 788c a43f
00000040: 6f9f 893f 9686 8340 8626 6b40 7b4a 2440
00000050: c55f 283f af0a 5a3f f338 c33f 66c8 1abf
00000060: e97d 733f b03b 313e acc2 2a40 82db 1340
00000070: 2c60 6340 33cc 2c40 7b37 183f d17b 4040
00000080: 02e8 0e3f 8cd6 6c40 4dad 373f 3ff1 453f
00000090: 9ba8 843f dd1f e23f ffaf 5440 a90e 2a3f
000000a0: 2750 853f 3794 793d 6ce7 553f 167f 3740
000000b0: 05e4 393f 721e 42be 91d1 8340 6be2 cb3f
000000c0: 69d1 3f3f be89 8b3f 3bb4 563f a099 643f
000000d0: f4fa dd3f f6c0 6340 8dd0 8d40 794c 3940
000000e0: 8fe8 b53f 4417 fcbe 3b76 0a40 924f 1c40
000000f0: 9801 ae3f 72b0 453f 769c 603f 254e 2440
00000100: 5323 b13f fc24 7340 2145 763f 6f2a c73e
00000110: 1037 893f 6f91 47bf 481f 96bf 48b9 3440
00000120: 08a3 dbbe db71 1040 18cd 4740 8c9a 553f
00000130: 3f3e 1140 7529 2940 4a52 d53e dbe9 ba3d
00000140: 9a01 533f 23a3 803f 1dbb dd3f 4cce 3040
00000150: 06e8 313f 9389 7e40 7199 903f 76c1 0140
00000160: 52e8 0940 c53e 5d3f 0c9b 3240 251c 3140
00000170: 8629 2640 d2b2 9340 342b 8140 cdad 9540
00000180: 27c4 f63f cfa7 03bf d402 a03f 48db fc3f
00000190: 092d d0bd 2523 da3e e059 9d3f 5552 2940
000001a0: 1d61 1a40 780d da3f 8052 6f40 d5ef 4a3f
000001b0: c149 4d3f e868 323f bacc 893f 928e 3340
000001c0: 1075 4940 9bf8 1c3f ba2e 373f 984c 1c40
000001d0: 3d5e 0a3f 2fd3 443f 7a70 f83f 1523 953f
000001e0: e734 1340 d21f 933f 1797 b4be 86ff 0440
000001f0: 5d67 1440 6c0e 1840 a8e7 0840 4968 2c40

actor_mean.weight f4 [2, 128]
10.6434145 0.47470716 10.028858 1.9186546 3.1663766 7.247111 6.713517 -0.8284933
5.078878 7.4870877 4.962516 3.3354154 9.949519 -0.6563369 -0.32553992 3.9308023
-0.86110675 7.0639057 6.764372 10.521388 -1.4132239 4.486775 3.938499 2.2671797
1.030382 1.2013665 5.3081493 5.397966 5.5701976 5.020821 9.256095 3.683558
5.188932 8.52414 8.710178 -2.148236 -2.5955207 0.729748 5.9904766 3.0150015
1.8938054 2.1896672 -2.7868862 6.5660844 -0.75711524 -0.45372513 5.0028634 1.3836143
2.3573933 -0.41200745 1.098069 4.2341247 3.135472 7.080668 6.0171795 5.5675774
7.2308707 -0.42576912 5.1556797 6.7517476 2.5000849 1.985124 3.995928 3.6217992
2.5730207 6.5193 1.0098883 -1.3749695 1.1361428 -0.22300537 2.3124888 9.434734
2.4855046 9.1989765 10.664791 2.364837 11.531213 5.264436 -0.55552113 -0.28711325
-0.20809086 2.3211653 7.245988 5.621737 -0.21273609 6.680651 -0.40681702 4.3321557
5.067207 1.0565584 4.642188 4.6759696 5.621971 7.763253 8.655001 8.4763775
5.0924897 0.35564396 -1.5998564 9.659759 1.9241953 -1.3410416 -1.3693814 4.449929
7.92493 5.8903313 6.334893 1.909441 0.67794853 1.4459704 -1.3964263 7.0769534
7.063262 0.09040169 0.53587925 5.4981804 2.1456132 -2.054441 1.8128728 1.7095883
9.436292 -0.6987764 0.49619287 0.9087957 4.666809 3.7905345 9.644185 5.799677
-0.07020999 -0.70996755 -1.2803108 0.28968194 1.4040989 1.7705585 2.027216 -2.5017035
-3.6880717 1.5957944 0.09832802 0.9441262 -0.50139064 -1.6881402 -2.8469884 0.61942714
-3.5707386 -4.492238 -3.525674 1.7675315 -0.64935863 -0.6867384 0.24321742 -0.70592916
0.87580675 3.40184 2.4919186 0.8306089 -4.570377 2.1483417 -0.9847502 -2.590489
-2.4775634 -4.6177483 -0.78149456 -3.8073235 -4.1058435 -4.777495 1.7996936 0.3972905
2.011294 -0.096307464 -3.7409017 -0.6439568 -0.8442009 0.29184854 0.4327442 -3.326741
0.14541462 -1.0138671 -0.13257177 0.0515448 0.847378 -3.9042232 -2.7190108 2.9935446
0.1717099 -0.5191257 -1.5322367 1.5631304 -1.3671612 2.3888113 -0.021828042 -2.3849125
2.6697865 2.6749241 -1.5306033 -0.6629441 -1.8873793 -1.3909956 -0.79420465 0.836941
-1.4721924 -0.9909496 1.8124571 0.73946047 0.91128254 2.6686187 0.4718515 0.18082917
0.13290524 1.2993108 1.0079408 0.7995361 -1.0301987 1.2227072 0.4397388 1.7900594
0.3543291 0.6208322 -4.790538 0.34039447 3.0917833 -1.5568345 -4.1709423 -2.9847455
0.41579947 -0.014189509 -4.7301598 0.3796159 0.32916954 -1.6170738 -0.6745916 -0.19982128
1.1429371 -0.33983514 -4.497938 3.831297 -0.7154006 1.1302426 -2.5730612 0.7846963
-1.2892042 -0.5231303 1.3698746 3.4249344 -0.72269595 -0.5706062 -5.532859 -1.9566272
0.25450575 -2.9885707 0.5606477 -5.628096 0.43284205 0.4978993 0.56116855 1.6388152
00000000: 6d4b 2a41 d10c f33e 3476 2041 7996 f53f
00000010: eaa5 4a40 55e8 e740 22d5 d640 2318 54bf
00000020: 2b86 a240 3996 ef40 eecc 9e40 7277 5540
00000030: 3b31 1f41 b205 28bf 2bad a6be 4492 7b40
00000040: 7e71 5cbf 840b e240 bc75 d840 9b57 2841
00000050: 85e4 b4bf a993 8f40 5e10 7c40 7919 1140
00000060: 8fe3 833f 61c6 993f 5cdc a940 23bc ac40
00000070: 0f3f b240 91aa a040 f718 1441 6abf 6b40
00000080: bb0b a640 e162 0841 e45c 0b41 b37c 09c0
00000090: 031d 26c0 c4d0 3a3f fcb1 bf40 c9f5 4040
000000a0: 3768 f23f 8223 0c40 585c 32c0 5d1d d240
000000b0: 4ed2 41bf a94e e8be 7517 a040 461a b13f
000000c0: 88df 1640 a4f2 d2be 868d 8c3f f37d 8740
000000d0: 93ab 4840 d594 e240 bc8c c040 9829 b240
000000e0: 4b63 e740 69fe d9be 54fb a440 510e d840
000000f0: 6401 2040 8b18 fe3f 49bd 7f40 8fcb 6740
00000100: 5fac 2440 1b9e d040 0544 813f 00ff afbf
00000110: 216d 913f 855b 64be d1ff 1340 acf4 1641
00000120: 8212 1f40 022f 1341 fca2 2a41 7d59 1740
00000130: d97f 3841 4276 a840 a236 0ebf 8200 93be
00000140: c515 55be f98d 1440 22df e740 45e5 b340
00000150: 7dd7 59be e5c7 d540 524a d0be 05a1 8a40
00000160: 8f26 a240 4e3d 873f ce8c 9440 8ba1 9540
00000170: 30e7 b340 926c f840 e27a 0a41 3e9f 0741
00000180: adf5 a240 f716 b63e 18c8 ccbf 5f8e 1a41
00000190: 084c f63f 40a7 abbf e447 afbf d265 8e40
000001a0: 0799 fd40 987d bc40 72b7 ca40 9068 f43f
000001b0: 098e 2d3f 8f15 b93f 19be b2bf 6776 e240
000001c0: 3e06 e240 8524 b93d 622f 093f 18f1 af40
000001d0: ba51 0940 f67b 03c0 370c e83f cad3 da3f
000001e0: 0dfb 1641 03e3 32bf fe0c fe3e d6a6 683f
000001f0: 8056 9540 1e98 7240 954e 1a41 f496 b940
00000200: 41ca 8fbd 6fc0 35bf 39e1 a3bf 3151 943e
00000210: 83b9 b33f a9a1 e23f e8bd 0140 e91b 20c0
00000220: 5e09 6cc0 fe42 cc3f 3360 c93d 41b2 713f
00000230: 235b 00bf fa14 d8bf 0f35 36c0 c792 1e3f
00000240: fb86 64c0 6ac0 8fc0 a5a4 61c0 793e e23f
00000250: 5e3c 26bf 16ce 2fbf fd0d 793e c6b7 34bf
00000260: df34 603f bfb7 5940 987b 1f40 c9a2 543f
00000270: 8740 92c0 6e7e 0940 9718 7cbf 92ca 25c0
00000280: 6690 1ec0 98c4 93c0 0710 48bf 30ab 73c0
00000290: 1263 83c0 3de1 98c0 5c5c e63f a969 cb3e
000002a0: 0ab9 0040 d93c c5bd ef6a 6fc0 5ada 24bf
000002b0: 8d1d 58bf 2c6d 953e a690 dd3e 53e9 54c0
000002c0: 92e7 143e 66c6 81bf e5c0 07be a420 533d
000002d0: c4ed 583f cbde 79c0 4604 2ec0 3c96 3f40
000002e0: b8d4 2f3e 6ce5 04bf 5520 c4bf a814 c83f
000002f0: 23ff aebf 49e2 1840 b9d0 b2bc 68a2 18c0
00000300: c8dd 2a40 f531 2b40 cfea c3bf b4b6 29bf
00000310: a595 f1bf 250c b2bf ff50 4bbf c441 563f
00000320: cd70 bcbf dfae 7dbf 98fe e73f 484d 3d3f
00000330: d049 693f a6ca 2a40 8596 f13e 482b 393e
00000340: 5018 083e d14f a63f 3404 813f 66ae 4c3f
00000350: 8ddd 83bf ab81 9c3f 7225 e13e ab20 e53f
00000360: a06a b53e dcee 1e3f 164c 99c0 2f48 ae3e
00000370: c7df 4540 5a46 c7bf 5c78 85c0 1206 3fc0
00000380: abe3 d43e 1d7b 68bc 785d 97c0 045d c23e
00000390: e988 a83e 46fc cebf 09b2 2cbf f39d 4cbe
000003a0: c34b 923f dffe adbe 1cef 8fc0 f833 7540
000003b0: 7e24 37bf caab 903f 09ad 24c0 dbe1 483f
000003c0: a504 a5bf deeb 05bf 0d58 af3f 2032 5b40
000003d0: 9a02 39bf 3f13 12bf 2e0d b1c0 c372 fabf
000003e0: 944e 823e be44 3fc0 9c86 0f3f 5d19 b4c0
000003f0: 799d dd3e a8ec fe3e bea8 0f3f b2c4 d13f

actor_mean.bias f4 [2]
5.385552 -1.3914024
00000000: 7156 ac40 7919 b2bf

critic.weight f4 [1, 128]
-1.9388415 1.9935117 2.0608578 -1.6056893 -2.3385308 0.11244822 0.14087269 -2.4404294
-0.023668101 0.05421648 -4.3338604 -4.4353848 -0.96692485 -3.4009652 -2.3243067 -5.1316123
-1.0147946 0.020812735 0.4624967 -1.201534 2.3958466 -6.5200415 -5.2707286 4.070712
3.863392 -0.23651744 -0.13886242 -3.4262383 -0.40833756 -4.663287 3.6694431 -0.46335748
3.583993 0.30982012 3.3626673 0.4276784 0.83270943 -0.73953074 -0.10397038 -1.0227758
-6.185202 3.6367204 2.1534538 -1.934231 -1.3408003 3.6907678 -0.1293938 -1.9554273
2.8364577 2.2372303 -2.91108 -4.5489902 -7.584184 0.3686569 -0.049889 0.07493631
1.9421772 0.7197781 -3.085321 -2.8991146 -1.3191041 -1.0787226 3.164719 -0.54619724
-2.0432575 0.15336986 4.9682856 -2.3090358 2.911996 1.6166433 3.6303823 -1.0151526
2.176993 1.3196431 -0.98778486 -7.621436 -1.8516433 -0.13962126 -2.756184 2.7195964
3.0268686 -5.129353 -4.8011284 -3.2658982 -2.7339463 0.035154108 3.106291 -4.3130183
-4.869347 -2.0247958 -0.444132 -0.43384892 -0.046120264 0.50994575 0.15400755 0.37556413
-3.4103131 4.3315444 -1.7257639 -1.9986739 4.4478393 -1.8096439 1.9628849 -5.0897565
-3.6470232 -4.517443 -0.05039224 -0.23160164 -1.253861 3.341671 -3.24263 -3.6947367
-0.7076001 -2.4323502 -1.439668 0.0041324142 -3.7660491 -2.3721716 -1.6516383 -1.6558236
-1.9478755 -3.4619253 -0.72592807 -0.941162 -3.8650413 -3.487582 -2.2449272 -0.27969992
00000000: f52b f8bf 642b ff3f 18e5 0340 3a87 cdbf
00000010: 7daa 15c0 414b e63d ee40 103e ff2f 1cc0
00000020: 9be3 c1bc 1a12 5e3d fcae 8ac0 acee 8dc0
00000030: 6388 77bf 6aa9 59c0 71c1 14c0 2b36 a4c0
00000040: cae4 81bf 787f aa3c 5ecc ec3e decb 99bf
00000050: 8d55 1940 2ea4 d0c0 cfa9 a8c0 4643 8240
00000060: d141 7740 a131 72be f331 0ebe 7d47 5bc0
00000070: 9f11 d1be a639 95c0 28d8 6a40 313d edbe
00000080: 2460 6540 bea0 9e3e f135 5740 aaf8 da3e
00000090: 722c 553f e351 3dbf 6cee d4bd 51ea 82bf
000000a0: 2ded c5c0 07c0 6840 30d2 0940 e294 f7bf
000000b0: 589f abbf 8a35 6c40 cf7f 04be 714b fabf
000000c0: 8688 3540 c82e 0f40 224f 3ac0 5491 91c0
000000d0: a3b1 f2c0 99c0 bc3e 6858 4cbd 3578 993d
000000e0: 4399 f83f 6143 383f e675 45c0 188b 39c0
000000f0: 67d8 a8bf 9513 8abf c28a 4a40 95d3 0bbf
00000100: bbc4 02c0 fd0c 1d3e 32fc 9e40 3ec7 13c0
00000110: 245e 3a40 2bee ce3f 2f58 6840 85f0 81bf
00000120: da53 0b40 11ea a83f 78df 7cbf cee2 f3c0
00000130: a602 edbf e0f8 0ebe 5265 30c0 de0d 2e40
00000140: 37b8 4140 a923 a4c0 d8a2 99c0 7a04 51c0
00000150: faf8 2ec0 c1fd 0f3d 79cd 4640 3f04 8ac0
00000160: b1d1 9bc0 4196 01c0 4565 e3be 7221 debe
00000170: 9ae8 3cbd ce8b 023f 28b4 1d3e f149 c03e
00000180: 9242 5ac0 039c 8a40 d5e5 dcbf 8cd4 ffbf
00000190: b354 8e40 69a2 e7bf d03f fb3f 49df a2c0
000001a0: d468 69c0 e58e 90c0 1868 4ebd fb28 6dbe
000001b0: 847e a0bf f0dd 5540 4087 4fc0 9176 6cc0
000001c0: 4825 35bf a0ab 1bc0 0b47 b8bf 3469 873b
000001d0: f306 71c0 a9d1 17c0 e268 d3bf 07f2 d3bf
000001e0: fc53 f9bf 2f90 5dc0 6cd6 39bf feef 70bf
000001f0: d65c 77c0 8b34 5fc0 e3ac 0fc0 d434 8fbe

exp_avg f4 [2]
-6e-45 -6e-45
00000000: 0400 0080 0400 0080

exp_avg_sq f4 [2]
7e-43 7e-43
00000000: f401 0000 f401 0000

exp_avg f4 [128, 23]
0.00056662766 -0.00028936972 0.0010546136 0.00014017972 0.00013393589 0.00049457455 2.2691738e-06 0.0006476637
0.0007825846 0.0010024495 0.0010957142 0.0011030586 0.0013794878 0.0013549827 0.0009648929 0.00060760434
0.0011392199 0.00049457455 0.00053033314 0.00046610422 0.0003807234 0.0006246808 0.00073370704 0.00041932773
-0.000326644 0.00130857 -5.6438457e-05 7.676348e-05 0.000579937 0.0011234236 3.6878115e-05 0.0012289794
0.0013820701 0.0013935226 0.0013585695 0.0014774849 0.0017504559 0.0014786001 0.00092222507 0.0013552337
0.000579937 0.00068044045 0.00071266614 0.0005766324 0.0008494906 0.0010511307 0.00016150805 1.2901638e-05
2.290049e-07 0.00014918415 -2.7830947e-05 -1.0616525e-05 -0.00031950345 3.5145305e-05 -7.820214e-05 -2.7961421e-05
-6.585405e-06 6.204679e-06 3.654185e-05 -6.2680534e-05 -5.3719115e-05 -7.170618e-06 1.3276629e-05 -1.0616519e-05
-2.7612134e-05 -2.7234115e-05 -3.6981153e-05 -4.5766483e-05 -5.4285363e-05 -0.0056035095 0.0049919854 -0.009182367
-0.0017100787 2.9638122e-05 -0.004347503 -0.005818737 -0.005284833 -0.009801415 -0.009459753 -0.009578032
-0.011044488 -0.012250131 -0.011140912 -0.0072586187 -0.007703085 -0.011405 -0.004347503 -0.005359739
-0.0058160843 -0.003932885 -0.0067084813 -0.008331218 0.00025556274 -6.88274e-05 0.0002556597 0.00012472064
-2.6583792e-05 9.915931e-05 -2.5817735e-05 0.00015086014 0.00021761781 0.0002487918 0.00026690637 0.0002783213
0.00031703242 0.00023081043 0.00021144195 0.00020296228 0.0002847259 9.915931e-05 0.00012117643 0.00014104946
7.158916e-05 0.00014044941 0.00016770377 0.0005567625 -0.00013956097 0.00054879853 0.0002700555 -0.00012765464
0.00018631438 0.00023422112 0.00010882735 0.00051050686 0.00054907694 0.00056902476 0.0005825694 0.000539918
0.00046197572 0.00026513092 0.0002050205 0.0005883955 0.00018631434 0.0002642966 0.00036795653 0.00016601585
0.00031314386 0.000381994 -7.3693096e-05 -0.00022957072 0.0053588105 0.000105763356 -3.1396183e-05 0.00228277
0.0060018506 -0.00564013 0.00533931 0.005373318 0.005389143 0.005404092 0.005441436 0.0053756936
0.0041028154 0.0042850077 0.0054099155 0.00228277 0.0024553637 0.002967272 0.0025267245 0.0032208224
0.0040605054 0.0010192929 -0.00073608535 0.00064019824 0.0007441657 -0.0004660817 0.00016901953 -0.0006362802
-0.00032033454 0.0005673023 0.00042935275 0.00047203567 0.00097208994 0.000604747 0.0010161807 0.0009294609
0.0005728365 0.0010504095 0.00016901952 0.00020436067 0.0007220891 0.00031780012 0.00045541735 0.00074607995
-0.0028035822 0.0012474401 -0.0038345964 -0.0013103894 0.00038405333 -0.0015643713 -0.0009819872 -0.000967378
-0.0035450216 -0.0037961712 -0.0040454143 -0.0042318716 -0.0042379554 -0.004170537 -0.003021619 -0.0025319043
-0.00424866 -0.0015643712 -0.0018887619 -0.0022326093 -0.0014422105 -0.0023856105 -0.0029416776 0.00076236064
-0.00023981958 0.0011226496 0.00031628684 -0.00013319709 0.00044068086 0.00047421677 0.00016430556 0.0010346257
0.0011502585 0.0012095807 0.0011788472 0.0010682733 0.0012131564 0.0009807288 0.00060695474 0.0011546812
0.00044068086 0.00053114165 0.0006431579 0.0004459757 0.000683654 0.0008461762 0.00026224877 -7.649991e-05
0.00025590957 0.0001260428 -2.5820884e-05 0.00010004504 -3.2803935e-05 0.00016623648 0.00021723595 0.00024927506
0.00026879794 0.0002813611 0.0003188988 0.0002426307 0.00021076977 0.00019651577 0.0002867575 0.00010004505
0.00012302038 0.0001406661 7.121994e-05 0.00014263729 0.00016970832 0.002134615 -0.0011321205 0.002990866
00000000: bd89 143a 8cb6 97b9 f63a 8a3a 35fd 1239
00000010: 2471 0c39 56a6 013a 1c48 1836 fac7 293a
00000020: 5d26 4d3a a064 833a 119e 8f3a 8194 903a
00000030: eecf b43a ad99 b13a def0 7c3a a347 1f3a
00000040: e051 953a 56a6 013a 0e06 0b3a 735f f439
00000050: d49b c739 9ec1 233a 3f56 403a 37d9 db39
00000060: 6a41 abb9 5384 ab3a 55b8 6cb8 14fc a038
00000070: ea06 183a d73f 933a 93ad 1a38 b515 a13a
00000080: 9426 b53a dca6 b63a 0712 b23a 2ba8 c13a
00000090: 8e6f e53a 96cd c13a 7ac1 713a 19a2 b13a
000000a0: ea06 183a 965f 323a 37d2 3a3a 2529 173a
000000b0: 59b0 5e3a 18c6 893a 7d5a 2939 1d74 5837
000000c0: 63e4 7534 516e 1c39 8176 e9b7 a11d 32b7
000000d0: 0783 a7b9 fc68 1338 7400 a4b8 b28e eab7
000000e0: 33f8 dcb6 c931 d036 8344 1938 5b73 83b8
000000f0: 7650 61b8 249b f0b6 b0be 5e37 9a1d 32b7
00000100: 9ba0 e7b7 d174 e4b7 361c 1bb8 63f5 3fb8
00000110: 77b0 63b8 a59d b7bb cf93 a33b a371 16bc
00000120: b824 e0ba 629f f837 8075 8ebb 1bab bebb
00000130: 642c adbb 1d96 20bc 14fd 1abc 2eed 1cbc
00000140: f1f3 34bc c6b4 48bc 5f88 36bc b5d9 edbb
00000150: 296a fcbb 0adc 3abc 8075 8ebb c0a0 afbb
00000160: da94 bebb 6edf 80bb d2d2 dbbb a97f 08bc
00000170: 0dfd 8539 6e57 90b8 100a 8639 71c7 0239
00000180: 4200 dfb7 c0f3 cf38 2a93 d8b7 3630 1e39
00000190: 5630 6439 4570 8239 91ef 8b39 a7eb 9139
000001a0: 5f37 a639 b405 7239 84b6 5d39 46d2 5439
000001b0: 4347 9539 c0f3 cf38 1a20 fe38 ade6 1339
000001c0: 2322 9638 9a45 1339 a3d9 2f39 b3f3 113a
000001d0: 1d57 12b9 3fdd 0f3a 3c96 8d39 08db 05b9
000001e0: 635d 4339 4199 7539 3d3a e438 89d3 053a
000001f0: eeef 0f3a 9b2a 153a 92b7 183a 4989 0d3a
00000200: 5535 f239 4501 8b39 c5fa 5639 8e3e 1a3a
00000210: 605d 4339 4a91 8a39 4aea c039 8a14 2e39
00000220: 752d a439 5e46 c839 ae8b 9ab8 ecb8 70b9
00000230: f698 af3b 45cd dd38 65af 03b8 869a 153b
00000240: 2cab c43b d7d0 b8bb 61f5 ae3b a912 b03b
00000250: 6897 b03b cf14 b13b 134e b23b 9626 b03b
00000260: e970 863b 4069 8c3b a945 b13b 869a 153b
00000270: 2bea 203b 9076 423b 6797 253b 6f14 533b
00000280: fd0d 853b cb99 853a daf5 40ba fad2 273a
00000290: 1d14 433a 6d5c f4b9 d63a 3139 0bcc 26ba
000002a0: 93f2 a7b9 03b7 143a c01a e139 8e7b f739
000002b0: dad3 7e3a e287 1e3a 5e31 853a 11a7 733a
000002c0: 682a 163a e5ad 893a d53a 3139 a649 5639
000002d0: 944a 3d3a 699e a639 15c5 ee39 9494 433a
000002e0: 4ebc 37bb 2581 a33a da4d 7bbb 5fc1 abba
000002f0: c45a c939 970b cdba 06b6 80ba a397 7dba
00000300: 9853 68bb 2fc9 78bb 658f 84bb 83ab 8abb
00000310: 8cde 8abb 00a9 88bb 5b06 46bb 4eee 25bb
00000320: 5838 8bbb 960b cdba 5590 f7ba f850 12bb
00000330: 8e08 bdba e757 1cbb 29c9 40bb 28d9 473a
00000340: 1478 7bb9 df25 933a 4dd3 a539 d2aa 0bb9
00000350: 2f0b e739 4ca0 f839 7049 2c39 479c 873a
00000360: 45c4 963a cb8a 9e3a 8c83 9a3a 4e05 8c3a
00000370: c602 9f3a cc8b 803a 0b1c 1f3a ac58 973a
00000380: 2f0b e739 503c 0b3a 9999 283a d8d1 e939
00000390: 3e37 333a ecd1 5d3a 6f7e 8939 946e a0b8
000003a0: 9a2b 8639 5b2a 0439 ed99 d8b7 46cf d138
000003b0: f596 09b8 c44f 2e39 d5c9 6339 22b1 8239
000003c0: 73ed 8c39 a683 9339 df31 a739 af6a 7e39
000003d0: 1402 5d39 cd0f 4e39 f157 9639 47cf d138
000003e0: 08ff 0039 c57f 1339 ea5b 9538 e890 1539
000003f0: bbf3 3139 e6e4 0b3b a963 94ba 6802 443b
