models/target_ppo_seed10.pt (torch, 318634 bytes, 36 tensors)

actor_logstd f4 [2]
00000000: 6472 fa3e d8dc c13f
0.48915398 1.5145521

shared.0.weight f4 [128, 31]
00000000: 4e0a 04bf 1fd3 1c3e fec3 64be eac2 f13c
00000010: 537b 5cbe adec af3e c969 773d 15f6 f23d
00000020: 707b 403d 2176 cb3d 2923 8c3c 8873 dd3d
00000030: e691 213e f6e8 113e 9455 0a3e 5160 78bd
00000040: ea71 6a3e c912 a93c 3b37 9a3d 2fc2 523e
00000050: 32b2 423e 8c95 3f3b 712a 483e b41e c23e
00000060: 904c 693d b3f5 0e3e 2f97 843d 93da 8c3e
00000070: e600 c43d e340 da3d 4c3a c33d a270 e53d
00000080: 3447 82bd c948 943e 0f0b 003f de82 aabd
00000090: 93dd c4be 4390 78be 01c3 523d a2b0 513d
000000a0: 72d4 ad3d a355 883d 7607 16bd 8776 323d
000000b0: 9180 903d 8444 2a3e c34f 00bd 1705 5f3d
000000c0: 2e4b 8e3c 41c0 8e3d b6af f13d 7b84 113e
000000d0: 0355 2d3e e0fd 9c3d 12f8 b13d f920 1c3e
000000e0: ca03 0fbf 84ff dabd bd15 97bd 32e1 ef3e
000000f0: ad49 6f3e 30e3 95bd 5fc8 7e3e 1f3d 543e
00000100: d153 5a3e 3dca 9ebd 15dd 0d3f 8a31 7c3e
00000110: e896 5abe 38c3 c93e 7ae4 123c aefc f2bd
00000120: e9ad c93d 3076 cdbd 7636 75bd 3ecd 9c3d
00000130: 0cb6 0a3d cf58 6ebd bef4 64bd e5f4 c7bd
00000140: ac2a 7c3e a251 233e 23f4 4f3c b56c be3d
00000150: d195 143e a382 823e 4da7 163c 12ad d83b
00000160: ce52 8c3d 6375 bf3e 07fd 883c 796e 263e
00000170: ab19 883e dda2 c2be d404 193e 2ab9 5ebc
00000180: 025a 983e 51d6 b93d 77f1 7b3c 61aa e9bc
00000190: 7dab 943c 3eec 343e df9c 3d3e 2724 1b3e
000001a0: 7e78 5d3d 6a28 8b3d ed3a b1bc 7490 303e
000001b0: a8ac ddbc f5f7 643d 85d1 523e e18e 293e
000001c0: 9041 3c3e 3c56 4d3e c71f 813e 723b 303e
000001d0: 949c 453e f273 80bd 5be0 d039 3b76 873d
000001e0: 7585 293e cef3 b5be accc 78be 40b2 0b3c
000001f0: d08f 1d3e 7b0c 1c3e 0520 c73c 6ff6 b1be
00000200: 0bf6 ee3e 08cf 913e de20 e9be ca8e a93e
00000210: e287 41be 5abc 6f3c 79df d13d 4e7b 293e
00000220: 98cf e43b eae1 8e3e aa22 e03d cf6e 9ebc
00000230: 38dc 003e 383f ae3c 8f3a c83c ca3e bf3d
00000240: abd9 2e3e 75fd 063d 373f 5a3e 412c 3a3d
00000250: fce0 773e 36f3 ab3c c93c 513d 8f37 193e
00000260: 0151 953e 4860 6b3e 4766 993d 2285 bbbe
00000270: dc29 773d 3477 ed3d 63aa 3abe 4dfc 45bb
00000280: 5c7f 043e 2c3d 6cbe e8d1 c83d a6be 4f3a
00000290: 2ab9 793e 80b8 0c3e 0b11 953d e8dd b9bd
000002a0: 7078 7b3e 82a6 933e 1163 76bc 5bb7 e33b
000002b0: d326 46be b4e4 61bd b394 b4bd 466a 9abc
000002c0: ed82 b6bc 8aef 333e c9ee 813c 60bc 0cbe
000002d0: 219a 1a3e ad56 ae3d 877e 533e 65e0 e0bd
000002e0: 4c42 473e 098d 723e 5a55 0ebd edf3 ec3d
000002f0: f604 7e3c 73ae 21be 9965 f6bd 701c 4a3e
00000300: 2888 d7be 06a7 4c3e 488d 873e 2c48 0f3d
00000310: c4ba f6ba 9f28 943b 624a 9bbd ea89 37be
00000320: b4e4 d8bc e3fe b33c 94f1 4e3c 8786 2b3e
00000330: 29d2 5d3e b8ab 04bd abe5 7a3e 43e6 0f3e
00000340: ef92 fd3c 2aa7 3a3e 0d55 da3d 7870 3b3e
00000350: 68e0 983d 16ae ba3d aa7e 06bf ac2f 0a3e
00000360: a210 893e 7ca7 ba3e ff0a c53b 91c2 413d
00000370: 8206 273d cf7a 673c 7715 60be 7727 b03c
00000380: 48fb 92bc f595 2dbd 4fcc 293b a689 bf3d
00000390: 9c95 d33d b7c5 073b 0b57 333e e35d dc3d
000003a0: 7e10 943d b3bd 733e ee33 333e 3559 563e
000003b0: 728c 7e3e d2ce 733e 7a17 613e 4d8a 9a3e
000003c0: 56ac 4fbd 26a4 2dbe ddf8 a83d 2b04 6e3e
000003d0: 6d0c 383e 6e4c 4b3b dc9e 213e 3c3c 0fbe
000003e0: b200 c0be 2438 623c 1a0b 753d ba05 5bbe
000003f0: 0ea5 11be 9014 13be 508a 3abe 8287 863e
-0.51578224 0.15314911 -0.2234039 0.029511888 -0.2153142 0.34360257 0.06040362 0.11863343
0.04699272 0.09934641 0.01710661 0.108130515 0.15778312 0.14249024 0.13509208 -0.06063873
0.22895017 0.02063884 0.075300656 0.20581888 0.19013289 0.0029233424 0.1954744 0.3791405
0.05695778 0.13960914 0.064741485 0.2751051 0.09570484 0.106569074 0.095326036 0.11203124
-0.06361237 0.2896178 0.50016874 -0.08325742 -0.38450298 -0.24273781 0.0514555 0.05119384
0.08487786 0.06656959 -0.03662821 0.043570068 0.07055772 0.16627699 -0.031326067 0.054448213
0.017369833 0.06970263 0.11801092 0.14210694 0.1692696 0.0766561 0.08689894 0.15246953
-0.55865157 -0.10693267 -0.07377193 0.46851498 0.23367949 -0.07318723 0.24881123 0.20726441
0.21321036 -0.07753418 0.5541547 0.24628273 -0.21346629 0.39406753 0.008965606 -0.11864601
0.09847624 -0.10032308 -0.05986639 0.07656334 0.03386502 -0.058190163 -0.055897467 -0.09763507
0.24625653 0.15949109 0.012692484 0.09298078 0.14510275 0.25490293 0.009195161 0.0066124285
0.06851731 0.37394246 0.016722215 0.1625308 0.26582083 -0.3801488 0.14943248 -0.013593951
0.2975617 0.09074081 0.015377394 -0.028523626 0.018148178 0.17668244 0.18516873 0.1515051
0.05406999 0.06794818 -0.021634543 0.17242604 -0.027059868 0.055900533 0.20587738 0.1655841
0.18384385 0.20052427 0.25219557 0.17210177 0.19298011 -0.06272115 0.0003984001 0.066143475
0.16554816 -0.3553757 -0.24296826 0.008526385 0.15386891 0.15239136 0.02430726 -0.34758326
0.4667209 0.28478265 -0.45532888 0.33116752 -0.18899491 0.014632309 0.10247702 0.16550943
0.006982755 0.27906734 0.10944112 -0.019339947 0.12584007 0.02127038 0.024441985 0.09338148
0.17075221 0.03295656 0.21313177 0.04545236 0.24206918 0.020989995 0.05108336 0.149626
0.29163364 0.22985947 0.07490211 -0.3662501 0.060342655 0.11595002 -0.1822906 -0.0030210197
0.12939209 -0.2307021 0.098056614 0.0007924832 0.2438704 0.13742256 0.07278641 -0.090755284
0.24557662 0.28837973 -0.015038268 0.006949348 -0.19350748 -0.05514975 -0.088174246 -0.018849503
-0.022279227 0.17571846 0.015860932 -0.13743734 0.15097858 0.08512626 0.20653735 -0.109803
0.19458884 0.23686613 -0.034749366 0.11569963 0.0155041125 -0.15789203 -0.12031097 0.1973741
-0.42096066 0.1998559 0.26474977 0.034980938 -0.0018823971 0.004521444 -0.07582547 -0.17923704
-0.026476242 0.021972125 0.012630839 0.16750537 0.21662201 -0.032390326 0.24501674 0.14052682
0.030953852 0.1822783 0.106607534 0.18304622 0.07464677 0.091152355 -0.52537024 0.13494748
0.26770502 0.36455905 0.0060132737 0.047304694 0.04077769 0.014128401 -0.21883188 0.021503193
-0.017942086 -0.04237934 0.002590913 0.09352426 0.1033127 0.0020717212 0.17513673 0.10760095
0.07229708 0.23802833 0.17500278 0.20932467 0.24858263 0.23809364 0.21981612 0.3018364
-0.05070146 -0.16957149 0.08250592 0.23243777 0.1797349 0.0031020897 0.15783256 -0.13987821
-0.3750053 0.01380733 0.05982504 -0.21388903 -0.1422312 -0.14363313 -0.18216825 0.2627526

shared.0.bias f4 [128]
00000000: 5a7b 273e 9d3b 2b3c b20c 623e 7a29 873e
00000010: 9f36 f0bd a61b 44bb 0859 7e3e 8c32 e93b
00000020: 4d50 d53d e167 1d3e 68e1 203e ded0 463e
00000030: 8f9e 84bd a4f5 ac3d df4a 9d3d 1392 903e
00000040: a2e8 b13d 0b6e 5f3e 0df2 f6bb d398 333e
00000050: b4ca 473e e7eb 593e 1372 1dbd 0956 a6bd
00000060: e41b 0ebd 0757 adbd d742 d23b b65a 22bd
00000070: 61e6 99bd 2dac 8f3c 721a 79bd cf6f cabd
00000080: dd1d 153e ff3e 1c3e 41a6 853e 8f05 823d
00000090: d5d7 1e3e d202 523e bee9 c1bd 222a fd3d
000000a0: 8723 9b3e 6aba 763e f104 913d c37a 3b3e
000000b0: 40a5 c53d 75ec de3d d93a b03d b197 a73d
000000c0: e997 7c3d da22 e23d 91ce 67bd 66eb 113d
000000d0: 9610 fc3c 9f7d f33c 3b66 833e 6387 13bb
000000e0: d1ea fd3d 8b2f 0bbd 2135 87bd ea72 e23d
000000f0: fd54 f93d 40fb 4e3e 48c8 103d f689 2b3e
00000100: d483 a13d 87a0 4d3e 1343 043e a950 623d
00000110: 9e8c 533d 53dd 683d e204 833e e0e1 743e
00000120: ed0f e53c 2f1a cbbd 459f 0e3e a75a 17be
00000130: 5188 013e 9141 6cbd 4e73 463d 6bc9 053e
00000140: b35c 95bc bda6 ef3d dc91 7a3d 5bd9 583e
00000150: efa3 743d 015f 993d 74c0 93bd 9110 653d
00000160: 2f64 5f3e 4b3f 843e 208b ba3c ad7f 70bc
00000170: c047 a73d 925a 223d 7a12 d3bc 0394 14bd
00000180: a7d6 623e 9c18 433e cdbf 1bbd cc0a 95bd
00000190: 3eb0 0c3e 705c 323e c25c 37bd bade 553e
000001a0: 0721 763e 25d9 543e 4791 353e 0d1d 0b3e
000001b0: 93d6 82bc de38 cd3d 72da 293d 071e f73c
000001c0: 917b 8ebd a0de 1f3e 74c5 473e 2469 ca3d
000001d0: 6858 3d3d 3a00 fe3c a5c3 8d3d 9a53 233e
000001e0: 68bb 6d3e 10f1 2f3d ea03 753e 5ad5 8fbb
000001f0: 2bc7 953d e56e 083e 7788 433e d40c 683e
0.16355649 0.010451225 0.22075155 0.26398832 -0.11729168 -0.0029923706 0.2483865 0.0071166214
0.10415707 0.15371658 0.15710986 0.19415614 -0.06475555 0.0844529 0.07680296 0.28236446
0.08686949 0.21819322 -0.007536179 0.17538767 0.19510919 0.21281396 -0.038438868 -0.08121879
-0.034694567 -0.08463865 0.0064166593 -0.03963729 -0.075146444 0.017538154 -0.060816236 -0.09884607
0.14562173 0.15258406 0.26103404 0.063487165 0.15512021 0.20508888 -0.09468411 0.12361552
0.30300543 0.24094549 0.070810206 0.18308549 0.096506596 0.10884944 0.08604974 0.0818323
0.06166831 0.11041804 -0.05659348 0.035624884 0.030769628 0.029722987 0.25663933 -0.0022511117
0.12398303 -0.033980887 -0.066019304 0.11057074 0.12174413 0.20213032 0.035347253 0.16751847
0.07886472 0.20080768 0.12916212 0.055252705 0.051647775 0.056851696 0.25589663 0.2391429
0.027961696 -0.099171035 0.13927944 -0.14780675 0.12649657 -0.057679716 0.048449807 0.13065116
-0.018232679 0.11701725 0.06117426 0.21176665 0.05972665 0.07488824 -0.07214442 0.055924002
0.21815561 0.2582954 0.022771418 -0.014678878 0.08167982 0.039637156 -0.025765646 -0.036273967
0.22152196 0.19052356 -0.038024712 -0.0727745 0.13739106 0.17418075 -0.044766195 0.20885745
0.24036036 0.20785959 0.177312 0.135853 -0.015971458 0.10020612 0.04146809 0.030165685
-0.06957162 0.15612268 0.19508916 0.09883335 0.04622689 0.031005967 0.06922082 0.1594986
0.23216021 0.042954504 0.23927274 -0.004389447 0.07313379 0.13323553 0.19095026 0.22661144

shared.1.weight f4 [128]
00000000: ff90 8c3f 0186 bf3f 3dea 9b3f 1ef7 b13f
00000010: 868e 8d3f 7354 963f 627a 9c3f 7bdf 803f
00000020: a49a 7a3f 4b5f b83f ef03 ac3f 0234 7f3f
00000030: bdb4 a33f 6d46 7a3f dbea 943f e3fb 8c3f
00000040: 427a 8d3f f4b6 7d3f dc54 863f 7f69 aa3f
00000050: b5fd 863f bed5 ae3f 26c1 683f 6ac8 933f
00000060: c923 873f 2600 bc3f 222e ac3f c43e 913f
00000070: cf44 a73f 26d6 d03f 8d19 ad3f eb84 a63f
00000080: 3138 a63f db66 8a3f 8582 b53f b625 9b3f
00000090: b0c7 a03f 6d78 a33f aa8f 943f 7f0c 913f
000000a0: 848f 8f3f b4f5 b73f 9b4b 9f3f f8cc 9a3f
000000b0: 8f3d 923f d9c0 963f c99a 933f 4ed1 a33f
000000c0: 7295 c53f 826c a53f c753 903f b35a ad3f
000000d0: 8d6e 983f 5863 ae3f 47ba a53f 1d70 b83f
000000e0: bcdf 883f 9d23 1e3f b9ac 9e3f 956d b73f
000000f0: c275 ae3f 07ad 8e3f e596 a43f 4247 553f
00000100: 318a b13f 5db5 883f 6032 a23f 390b a63f
00000110: 41b3 b23f 3dca ab3f f7b6 a33f 16d6 883f
00000120: 24d4 443f 475d c53f 3b95 a43f e466 963f
00000130: ad1e 913f 8b28 9a3f 5d2f 9e3f 2b47 893f
00000140: 2222 a73f 5ad8 9a3f c702 9f3f 29a3 613f
00000150: 0acf 903f d595 903f 915e 8e3f 7eed 983f
00000160: 0e25 9e3f fca2 9a3f f5f5 ac3f d539 813f
00000170: 41b7 843f 9034 a33f 53ca 953f a15f a93f
00000180: ccc8 993f 3acd 9f3f 86a7 ab3f 4fa4 9f3f
00000190: 227f a03f e979 9a3f 813f 773f dfd8 9b3f
000001a0: 84d3 983f 0546 9a3f c2ad b83f 7c35 8e3f
000001b0: 1ae0 9e3f 6340 ab3f 5a71 be3f 52c5 953f
000001c0: c303 a03f 5f51 923f 9904 8e3f ec07 a23f
000001d0: 506a 9a3f b0aa a83f f273 913f 06ba 913f
000001e0: 5802 803f 5230 a43f c9d5 9e3f 3304 8f3f
000001f0: 6395 b03f a036 ca3f 56f5 aa3f b44f 943f
1.0981749 1.496277 1.2180859 1.3903539 1.105912 1.1744522 1.2224848 1.0068201
0.9789221 1.4404081 1.34387 0.9968873 1.2789532 0.9776371 1.1634172 1.101437
1.1052935 0.9910729 1.0494647 1.3313445 1.0546175 1.3658979 0.9091972 1.1545537
1.0557796 1.4687545 1.3451579 1.134728 1.3067874 1.6315353 1.3523422 1.3009313
1.2985898 1.0812639 1.4180456 1.2120883 1.256094 1.2771126 1.1606343 1.1331939
1.1215672 1.4371858 1.2444948 1.2093801 1.1425036 1.1777602 1.1531612 1.279825
1.5436232 1.2923739 1.1275567 1.3543304 1.1908737 1.3624067 1.2947472 1.4409214
1.0693278 0.6177309 1.2396461 1.4330317 1.3629687 1.1146554 1.2858549 0.83311856
1.3870298 1.0680348 1.2671623 1.2972175 1.3960954 1.3421093 1.2790211 1.0690334
0.768862 1.5419091 1.2858042 1.175015 1.1337487 1.2043623 1.2358204 1.0724844
1.3057292 1.2097275 1.2422723 0.8813959 1.1313183 1.1295725 1.1122609 1.1947477
1.2355058 1.2080989 1.351256 1.0095774 1.0368425 1.2750416 1.170237 1.3232309
1.2014403 1.2484505 1.3410499 1.2472018 1.2538798 1.2068454 0.96581274 1.2175559
1.193955 1.2052618 1.4428027 1.1110072 1.241214 1.3379024 1.4878342 1.1700842
1.2501148 1.1431082 1.1095153 1.2658668 1.2063694 1.317709 1.1363509 1.1384895
1.0000715 1.2827246 1.2408992 1.1173156 1.3795589 1.579792 1.335612 1.1586823

shared.1.bias f4 [128]
00000000: a3ad 82be 1690 14be e1d2 31be 2279 d2b9
00000010: 5b30 6dbe b6a2 4fbe a5ce e8bd 64fe 42be
00000020: d9e7 a1be e806 31be 9ebf 36be e1c6 aebe
00000030: 6963 e4bd 618e 62be 1543 75be cde8 1abe
00000040: 21f5 45be eadf 44be 6211 26be 3013 27be
00000050: f1df 95be c76b a13d 4c9e a6be 8c4a 0ebe
00000060: b58c 9bbd 1a40 30be 5e37 29be f3ff 26be
00000070: c994 acbd 7d1d 80bd 66c3 37be 61ce 25be
00000080: c0c2 b7bd bb79 63bd 57da d2bd 895f 31bd
00000090: 0d83 86be 91fa 50be 1459 20be adfd 08be
000000a0: eeb9 71bd ca11 b8bd c55a 25be cf9f 2ebe
000000b0: b3b5 29be 85bd 2cbe 59b0 88be db89 24be
000000c0: 6758 a3bd cbcb 1ebe cd66 13bd c1e0 0abe
000000d0: d1e7 14be f020 22be e515 38be a549 1fbe
000000e0: 6373 32be 5eae 90be 0024 08be b5a3 95bd
000000f0: 5a1b 2ebe 03ba c0bd bd47 32be c5e7 6fbe
00000100: afb1 0bbe 2e62 55be 25cf 48be 1726 3bbe
00000110: 9d77 0ebe 6df4 91bd a860 84bd 6f53 05be
00000120: 6afb e0be 70d2 4abe 4ff6 f0bd bd12 4abe
00000130: c217 eabd 0136 e5bd 149e a8bd 78d9 16be
00000140: fcc1 2ebe 012a 7ebe 12ef 2cbe ae61 6ebe
00000150: bb37 dabd d356 14be a55a a5bd a26b c7bd
00000160: 0568 14be b034 a1bd 121b 41be 460c 8bbe
00000170: 3756 1ebe 892f 2fbc ea0f 1bbe 7f25 39be
00000180: 4439 28bd 5f25 95bd b181 0cbe e6e2 9abe
00000190: 26ca b5bd 156d 05be 0639 92be 67a9 84bd
000001a0: 861b 02be 0807 80bd 203f 83bd 30fa 1dbe
000001b0: 845a 2cbe 954b f1bd 04a7 4fbe 9240 cebd
000001c0: 890a 24be 2946 60be 1c2f 33bd c9f1 72bd
000001d0: 0f87 b5bd 6209 43be d0c4 0dbe b3cc 83be
000001e0: a1d1 84be fb2b 44bd f9b2 e2bd 84e0 7cbe
000001f0: cdb5 d3bd fc04 7fbd 979f b0bd 2f7c 3ebe
-0.255231 -0.1450809 -0.173656 -0.00040144572 -0.23162977 -0.20276913 -0.11367539 -0.19042355
-0.31622198 -0.17287791 -0.17846534 -0.34136108 -0.111517735 -0.22124626 -0.23951371 -0.15127869
-0.1933179 -0.19226041 -0.16217569 -0.16315913 -0.29272416 0.07881885 -0.32542646 -0.13895625
-0.07595197 -0.17211953 -0.16525027 -0.16308574 -0.08426816 -0.062556244 -0.17945632 -0.16192009
-0.089726925 -0.055536013 -0.10295551 -0.043304 -0.2627186 -0.20408083 -0.1565898 -0.1337802
-0.059015207 -0.08987768 -0.16147907 -0.1705315 -0.16573219 -0.16869171 -0.26697043 -0.16068213
-0.07975846 -0.15507428 -0.03598671 -0.135623 -0.14541556 -0.15832877 -0.17977102 -0.15555437
-0.17426829 -0.28258032 -0.13294983 -0.07306615 -0.17002621 -0.09410479 -0.17410178 -0.23428257
-0.13642 -0.20838234 -0.1961027 -0.18276249 -0.13912816 -0.07126699 -0.06463748 -0.13020109
-0.43941814 -0.19806838 -0.1176573 -0.1973371 -0.11430313 -0.11191941 -0.08233276 -0.14731395
-0.17066187 -0.2482071 -0.16888073 -0.2327945 -0.10655161 -0.14486246 -0.0807393 -0.09737326
-0.14492805 -0.078713775 -0.18857983 -0.271578 -0.15462576 -0.010692486 -0.1514279 -0.1808071
-0.041070238 -0.072825186 -0.13721348 -0.30251235 -0.088764474 -0.13029893 -0.2855913 -0.064776234
-0.12705812 -0.06251341 -0.064085245 -0.1542747 -0.16831404 -0.11781994 -0.20278555 -0.100709096
-0.16019644 -0.21901764 -0.0437461 -0.059312616 -0.08863651 -0.19046548 -0.1384461 -0.2574211
-0.25941184 -0.047893506 -0.110692926 -0.24695021 -0.1033741 -0.062260613 -0.08624189 -0.1860206

shared.3.weight f4 [128, 128]
00000000: 3c68 56be c39c ab3e 1be7 733e 9c43 c2be
00000010: 205c 1a3e 5f9f b93e 4bd0 05bc 6dd7 453d
00000020: 9a40 043d cb53 a33d 6e20 743e 0e59 7e3e
00000030: fbd1 01bf 5b8d cbbc 3a05 dcbd 6360 233e
00000040: 182b 4dbe a51c e5bd c751 483e 624f 81be
00000050: 91b1 93bd 07fe 7b3b b8c3 573e e8f4 36bd
00000060: 25ca 3f3e 0215 1a3e 7165 dabd ea86 c73c
00000070: 4bee 933e acdf 28be 84c7 4dbe 89d7 35bd
00000080: d067 fb3e 098e 913e 439e 143d 71a4 05be
00000090: 79c3 0f3f 6228 053f a741 2abe 3990 11be
000000a0: 04e3 7c3d 7b83 62bd b966 d2bd b66f 2c3e
000000b0: 40eb d73d 3dae f9bd 6625 413d 47ed 893e
000000c0: e386 0b3f 6ff3 063d aed0 29be c5ab 42be
000000d0: a958 4a3e 136b b6bd 2be9 993e 58d7 193f
000000e0: bfbb 4f3e 76ca ae3d 801c a63d 4439 ae3d
000000f0: 3429 04bd 4dce 953e 23c4 80be 29d4 cd3d
00000100: 3ab4 f73c 6e90 833e ced6 823e 5e1e 033e
00000110: c580 cdbd bcf0 55be f3f9 7ebe 17bb 2e3e
00000120: f358 693e 76a7 113e 6bf7 9cbc a8f8 a13e
00000130: 3393 3e3e d866 17bc 2da2 673e 25d3 033e
00000140: 3f16 9dbd 53e3 6b3e 82e2 cf3e 1447 133e
00000150: c16b 28be fd36 c43e dd52 11be 6f5c 8d3e
00000160: 989a d03e 860a 783e 1e5e 003e c6f1 e1bc
00000170: 9dbf 043e e21f 163d 68d5 98bc 11dd 0cbe
00000180: 96d1 263e 1ee6 41be 516b 293e eca9 4e3e
00000190: 0c6a b5bd 7aa1 c5be b019 d23d de56 3dbe
000001a0: 61d3 52be 7b23 0f3e 4e95 c13e 6457 d43d
000001b0: 2af1 983d e481 1abe f0d8 dd3e bcfa afbd
000001c0: 3ccf 4cbd c1bc 80be 5011 2c3d 49f4 98bd
000001d0: 63d9 cfbe dabc 8c3e f909 183c de18 72be
000001e0: 809d 163e 02c9 bebe c4f6 283e fcf6 5f3e
000001f0: d4f3 873e a17a f8be c849 85be f9e1 7dbc
00000200: 7c6c 193d 25e8 c33e bf34 443c 69bd 00be
00000210: 633e b4bd febb 2f3e 8ff9 cabe c849 3d3d
00000220: aec3 053e 00f1 ffbd 6c71 433c 4e2b bd3d
00000230: d556 bd3d 3cff 1c3e df03 8abe 7eb8 d03d
00000240: fe98 513e db52 823e 6035 b73c b795 33be
00000250: 58ee a7bd 2c36 3f3e b64c 99bc ff92 6d3e
00000260: ad99 71bd ed71 1d3e 3763 86be 4caf e33d
00000270: 199a 493d f4af 0d3e 4aa2 93bd cf4e 96be
00000280: a53f 873e 35de e63d f762 c13d 776e 38be
00000290: df0e a0be e465 953d 0650 883e 2567 8cbc
000002a0: c4ae 66be 4de2 953d 5838 f33d dfae 713d
000002b0: d5ad 113e b8ce 72bc 3056 1e3d 1f50 4f3e
000002c0: 63f8 2bbe 87ca db3e 3fca 743c 94b8 533e
000002d0: 0633 993e 9208 acbd ee22 96be ca2e e63c
000002e0: 35e6 fb3c 8fa5 833e c9c2 733e 1ae1 3d3d
000002f0: 45ce 8b3e f4a8 003e 6f90 bf3e f5c7 953e
00000300: c110 13be 37f8 3c3c 2231 433e fe94 633e
00000310: 6897 33be 1504 54be 705d 0ebe ea61 733d
00000320: b59e d63d 268f 063f e1bb 403e 86d7 4bbe
00000330: 42e8 6a3d 3cba 223e 5cfb 4e3d 56bc b63e
00000340: 072f 4fbe 817e 05be 9c16 18be 0b4e d1bd
00000350: 44e4 163e 3595 9fbe de54 c73c 9042 a3be
00000360: 5be0 5cbe 2900 16be 68f6 23be b7c9 493d
00000370: 0ec0 fc3c cb4f 7bbd 48bc 283d 56d1 22be
00000380: 182c 223e 3132 fdbc b866 ee3d 4d67 833e
00000390: bf30 91bd 3149 6b3e c642 463e ca13 acbd
000003a0: 57c7 2fbe 98c0 96be 3dbe 8bbe 00cd 283e
000003b0: 3858 983c af74 273e 887b 393d ac64 8d3e
000003c0: 40af 653e 29f1 d1bd c3ca 863e ec49 c03d
000003d0: 60e7 a93e aa86 473e 28e9 e2bd 7e4b 0f3f
000003e0: 3c0b 1c3e a4dd a8bd 07dc 2bbe 576e bdbd
000003f0: cf78 afbc de93 ba3e 0d1b 1b3d d16d 7bbe
-0.209382 0.33518037 0.23818628 -0.37942207 0.15074205 0.36254403 -0.008167337 0.04830115
0.03228817 0.079749666 0.23840496 0.24838659 -0.5071103 -0.024847677 -0.107431844 0.15954737
-0.2003597 -0.11187104 0.19562446 -0.25255877 -0.072116025 0.0038450973 0.21070755 -0.044667155
0.18729456 0.15047076 -0.1066388 0.024356324 0.2889274 -0.16491574 -0.2009564 -0.044395003
0.4910264 0.28428677 0.036283743 -0.1305101 0.5615764 0.52014744 -0.16626607 -0.14215173
0.061739936 -0.05530117 -0.10273499 0.1683949 0.10542917 -0.121914364 0.047154807 0.2693884
0.54502696 0.032947 -0.16583511 -0.19010837 0.19760384 -0.089071415 0.30060706 0.60094213
0.20286463 0.0853471 0.08110905 0.08507016 -0.032265857 0.29258958 -0.2514964 0.10050232
0.030237306 0.2569613 0.25554508 0.12804553 -0.100343265 -0.20892614 -0.24900036 0.17063557
0.22787838 0.14224038 -0.019160947 0.31635022 0.1861084 -0.009240828 0.22620459 0.12873514
-0.07670259 0.23035936 0.406025 0.14382583 -0.16447355 0.38323203 -0.14191766 0.27609584
0.40742946 0.24222764 0.12535903 -0.027581107 0.1296372 0.0366515 -0.018656448 -0.13756205
0.16290888 -0.18935439 0.16544844 0.20182008 -0.088581175 -0.3859976 0.10258806 -0.18490168
-0.20588447 0.13978378 0.37809223 0.10368231 0.074678734 -0.15088612 0.43329573 -0.08592746
-0.05000232 -0.25144008 0.042008698 -0.07468469 -0.4059554 0.27487832 0.009279721 -0.23642299
0.14708519 -0.37262732 0.16500384 0.21871561 0.26553214 -0.48531058 -0.26032853 -0.015495771
0.037456974 0.3826305 0.011975466 -0.12572254 -0.08800962 0.17161557 -0.39643523 0.04621294
0.13062927 -0.12497139 0.011928897 0.09236775 0.092450775 0.15331739 -0.26956078 0.10191439
0.20468518 0.2545384 0.022364318 -0.1753758 -0.08199757 0.18673009 -0.018713336 0.23200606
-0.058984447 0.1537549 -0.2624757 0.111174196 0.049219225 0.13836652 -0.072086886 -0.29357
0.26415744 0.112728514 0.09442704 -0.18010889 -0.31261346 0.07294825 0.26623553 -0.017139027
-0.22527605 0.07318554 0.11875981 0.05900466 0.14226468 -0.014819793 0.038656414 0.20245408
-0.16793971 0.42927954 0.014940797 0.2067588 0.2992174 -0.08400072 -0.29323524 0.028098483
0.03074942 0.2571225 0.23804773 0.04635725 0.2730581 0.1256445 0.37414882 0.29254118
-0.1436186 0.011533788 0.19061711 0.22224805 -0.17538226 -0.20704682 -0.13902831 0.05941955
0.1047949 0.5256218 0.1882167 -0.19906434 0.057350405 0.15891355 0.050532684 0.35690564
-0.20232783 -0.13036539 -0.14852375 -0.10219964 0.14735514 -0.31168523 0.02433246 -0.3188672
-0.2156996 -0.14648499 -0.16011965 0.049264636 0.030853298 -0.061355393 0.041195184 -0.15900168
0.15837133 -0.030907722 0.11640686 0.2566475 -0.07089376 0.22977139 0.1936141 -0.08402212
-0.17165886 -0.29443812 -0.27293578 0.16484451 0.018596753 0.16353105 0.045283824 0.2761587
0.22430134 -0.10251076 0.2632657 0.093890995 0.33184338 0.19484964 -0.11079627 0.55974567
0.1523866 -0.082453996 -0.16783153 -0.09249561 -0.02141991 0.3644094 0.037867595 -0.2455361

shared.3.bias f4 [128]
00000000: 9e02 9e3d 5742 383e 3611 013e d432 87bd
00000010: b998 b73c 2150 bc3d 5da9 e33c bb3a cb3d
00000020: 2217 ff3d c966 bf3d 0f4c f63c 1321 193e
00000030: 4792 b5bd e078 313e 0907 3d3e adaf 05bc
00000040: b474 bdbc 3904 0e3e a87a 423e 9025 bf3d
00000050: 3db4 303d c26d 3bbc ca01 0a3d 77eb 6b3c
00000060: 0d13 d03d 5869 9a3d ea2d 203e e689 cb3d
00000070: 36e8 173d 6ba6 033e 190c 6bbd a2bc c23d
00000080: 2988 423d b95d c63d 89a1 cb3d 1ae1 f83d
00000090: aa4e a63d 2848 9e3d 1723 6c3d 2034 2f3e
000000a0: 8e6e 8a3d e43c c83d b0e9 e93d 7fcc d23d
000000b0: 438b 98bc 287f 18bd e1c6 a53d a3bb a33d
000000c0: 7127 933c 2bec 513d ccdd 91bc f9e9 c63d
000000d0: 7a52 0e3d a9f3 2c3d dd40 a83d 4f5b ea3c
000000e0: a15d 153e ca8f 893d 0365 053e 2c2a 603d
000000f0: 677d 9f3d 062f 613d 0dd3 2d3e ee51 703d
00000100: aa57 013e 9fdf 4a3d 8ff6 fc3d 0c85 e2bb
00000110: 7be1 c53d 3969 633c 92ff e53d c84b 5dbb
00000120: 94b9 123e 1f30 793d d043 c43d 1e19 943d
00000130: 0739 893d bae4 723d 188f 783d 3d69 513e
00000140: 09e2 873d 8f11 31bd 3b04 b73c 115c 243c
00000150: 302b adbb 7601 f33d 041d 153c fe79 2c3e
00000160: c6c8 0a3e 8f7c 0ebd 93ca 87bd 2dfe c03d
00000170: c24b 713d 2730 5539 c58e ab3c 069a 2dbd
00000180: d414 c23c 6051 843d f550 393e 9666 8d3d
00000190: bc45 18bd 396a dd3c a971 ee3d 6fc7 ba3c
000001a0: 121c a93d 3067 573e 9588 843d ccc3 893d
000001b0: 1609 913d 38ca a53c b924 793c d0dc bb3d
000001c0: a805 aa3d e0bb 01bb 17af 78bc 6db9 693c
000001d0: 0832 8e3d 7488 193d 2040 173c 3403 163d
000001e0: f5f8 2f3e a594 f83d 318f 34bd 4e4b f13c
000001f0: 1a34 0f3e 5921 9b3d 74fa a23d 6429 303c
0.07715343 0.17994057 0.12604222 -0.066014916 0.022411691 0.09194971 0.02779072 0.09923311
0.12455584 0.093457766 0.030065564 0.14954023 -0.08865791 0.17331266 0.18459715 -0.00815956
-0.023126937 0.13868798 0.18992102 0.09333336 0.04314064 -0.0114397425 0.033693112 0.014399401
0.10159884 0.07539624 0.15642515 0.099384114 0.037086688 0.12856452 -0.057384584 0.09508635
0.047493134 0.09685845 0.0994292 0.1215231 0.08120473 0.077286065 0.05765065 0.17109728
0.06759368 0.09777239 0.114215255 0.10292911 -0.018621093 -0.03723064 0.08094574 0.07994773
0.017963143 0.051250618 -0.017805956 0.097125955 0.034746625 0.04222456 0.08215497 0.028607992
0.14586498 0.06716879 0.13026814 0.05472772 0.077875905 0.054976486 0.1697504 0.058671884
0.12631097 0.049529668 0.12351715 -0.006912833 0.096621476 0.0138800675 0.11230387 -0.0033767093
0.14328605 0.060836907 0.09583247 0.07231353 0.0670033 0.059300162 0.06068334 0.20450301
0.0663491 -0.043229636 0.022340884 0.010031716 -0.0052846894 0.11865513 0.009101156 0.16843411
0.13553151 -0.034786757 -0.06630435 0.0942348 0.05891014 0.00020331201 0.020942101 -0.042383216
0.023691572 0.064608335 0.18097289 0.06904332 -0.03717588 0.02702819 0.11642773 0.022800175
0.08257307 0.21035457 0.064713635 0.067267984 0.07081811 0.020238027 0.015206509 0.09172976
0.0830186 -0.001979582 -0.015178463 0.0142654 0.069431365 0.037483647 0.009231597 0.03662415
0.17184813 0.12137727 -0.04408187 0.029454853 0.13984719 0.0757472 0.079579264 0.010752056

shared.4.weight f4 [128]
00000000: d38e 8c3f b3ad f33f 707f f03f 1589 bf3f
00000010: 80ad ec3f 75ff b03f 55f1 933f 4cda 9e3f
00000020: 0b84 e63f 0cb5 c53f 253c b83f bff9 b83f
00000030: eee7 c33f 63c1 aa3f c0df d53f 9bcc ac3f
00000040: b865 c03f 7a43 c23f a302 0740 00bd 9d3f
00000050: 43ed 903f a6f6 ce3f 694c b53f 7da4 0040
00000060: de89 bc3f 9625 9b3f 6c20 f93f 42a7 be3f
00000070: 8294 a03f 39f3 a23f bcfc b03f d037 903f
00000080: 4e54 d93f b8c0 d83f 561f d93f 9e56 c53f
00000090: f001 d73f e8e0 b43f 535e 953f 353b 1940
000000a0: 30f1 d63f 6d6f cb3f 6666 ad3f 9df0 b73f
000000b0: 2f1a d53f 6948 9e3f 26a7 9c3f 50ed 0540
000000c0: 2846 fb3f 51bf 0940 1897 de3f f350 d93f
000000d0: 5d44 c73f 0516 d83f e85a cc3f b9e6 c53f
000000e0: e270 fc3f d524 b03f bf5f 9a3f 2bea a23f
000000f0: 3b80 8d3f f873 b73f 52ae f83f 4274 d53f
00000100: 29c7 ce3f 5da1 df3f fa60 0340 17ab e63f
00000110: f1fc 9f3f 47e1 ba3f 2695 0340 6c14 b63f
00000120: ce8e e33f ce41 ef3f e5ee 8c3f 571b e43f
00000130: 14b9 a73f b4eb 953f 8159 893f a367 ce3f
00000140: 5e37 9e3f 3eac c43f 16f8 a23f c0bd bb3f
00000150: e8f0 bf3f 05b9 9a3f c26f 943f 9190 c43f
00000160: 3728 0040 4bdd 9c3f 4861 9c3f 4c21 d83f
00000170: cf9b fa3f 018a 913f bcbc 1e40 6caa a33f
00000180: 0acd ff3f 728e ae3f 5071 d03f 3f3a c13f
00000190: 60a0 e23f 50cb 9c3f 0893 b53f c0a5 913f
000001a0: 8c88 ae3f 6bb1 9c3f 27da b43f 512c e03f
000001b0: bb2a 9d3f 8326 bc3f b81a a03f 1e3a a03f
000001c0: 3679 ce3f e5ef c33f edbe 923f 0bf8 df3f
000001d0: 9b16 ac3f 4d64 903f 409a c73f c464 ce3f
000001e0: 84c3 1540 dd1c 0440 2669 923f 17c5 9e3f
000001f0: b398 2140 3e13 f63f b323 af3f 9234 bf3f
1.0981086 1.9037384 1.8788891 1.4963709 1.8490448 1.3827959 1.1558024 1.2410369
1.8009046 1.5445876 1.4393355 1.4451216 1.5305154 1.3340267 1.6708908 1.3499941
1.5031042 1.5176842 2.109536 1.2323303 1.1322407 1.6169021 1.4163944 2.0100396
1.4729574 1.2120845 1.9463019 1.4894793 1.2545321 1.2730476 1.3827128 1.1267033
1.6978853 1.6933813 1.6962688 1.5417058 1.6797466 1.4131136 1.166941 2.3942387
1.6792355 1.589338 1.3546875 1.4370304 1.6648616 1.2365848 1.223851 2.0926094
1.9630785 2.152302 1.738986 1.6977829 1.5567738 1.688172 1.5965242 1.5461036
1.9721949 1.376124 1.2060469 1.2727712 1.1054758 1.4332266 1.9428198 1.6676104
1.6154529 1.7471119 2.052794 1.8020962 1.2499067 1.4599999 2.0559783 1.4224982
1.7777956 1.8691957 1.1010405 1.7820843 1.3103356 1.1712556 1.073044 1.6125377
1.2360647 1.5365064 1.273196 1.4667282 1.4995394 1.2087713 1.1596606 1.5356618
2.0024545 1.2255033 1.2217188 1.6885161 1.9578799 1.137024 2.4802694 1.2786384
1.9984448 1.3637221 1.628458 1.50959 1.7705193 1.2249546 1.4185495 1.1378708
1.3635421 1.2241644 1.4129075 1.7513524 1.2278665 1.4699253 1.2508154 1.2517736
1.6130741 1.5307585 1.1464516 1.7497572 1.3444399 1.1280609 1.5593948 1.6124501
2.3400583 2.0642617 1.1438339 1.2403897 2.524945 1.9224622 1.368277 1.4937918

shared.4.bias f4 [128]
00000000: efba 403c 30c9 7abd 1a45 52be 3fdf 24be
00000010: e164 eb3b e8ff b23d 2874 e13d ca70 913d
00000020: 3cec 3cbe 32f6 19be 79de afbd 99d2 203d
00000030: 422f b23d d08f a7be e15b 9ebd b3b4 823d
00000040: 050f 043e e895 3e3e 4828 15be 7892 6b3d
00000050: 4c6b 01bd fbc6 94bd 3121 3fbd 54b2 bcbd
00000060: c700 893d d633 14bd 17e1 89bd 93b4 d2bb
00000070: b816 85bd 01b0 1b3d ba8a 273d bcc1 8c3d
00000080: 09eb 0bbe 07cf a03d 1473 603d 808f 643d
00000090: 9a4e 17bd fbdf 033e ada1 843d a6e1 34bc
000000a0: c936 6fbe 6696 73bd 9d48 943d 25bd 7c3d
000000b0: b4d1 18be 5dea 723d fcc6 723d f1f3 0bbe
000000c0: e945 77be 7a2a b9bd 1d88 6dbd fecd 61be
000000d0: b210 a0bd d1d6 e03d ec65 d5bd 3936 8a3d
000000e0: b87e 15be 3375 813b 1dfb d6bd e696 b93d
000000f0: 272c 453d 3288 90be 577e cb3d 5c66 ab3d
00000100: 3b1b afbe ebac 85be 6d55 623d 8e20 a2bd
00000110: 92cc 1fbe 5f37 69ba dc8c 3abe 552d 133e
00000120: 561b 05be b178 0d3c 3133 363c 5753 79be
00000130: bbc3 e43c adc3 a0bc b619 2ebe 0f07 9cbd
00000140: 4be5 c2bb c151 aebc 1df6 083d 6744 9abd
00000150: 448c fbbc 95b4 fdbc 9c3c fc3c 18c6 24bd
00000160: 5018 e6bd 817f 913d 4f3a 92bc d64a 88be
00000170: 05f1 62be 91f6 143c 6248 a7bd e336 8dbb
00000180: ded9 cbbd a7f5 953d d62f 9ebe 92d1 1b3c
00000190: 25e6 31bc d094 42bd ca6a 08be 4bb0 333d
000001a0: 38e2 8c3c 107b ab3e 79ef 51bd 7506 6a3d
000001b0: bdd4 fdbd 4ec7 4abd 6af3 033d b44d 0d3d
000001c0: 4a3e 393e add9 ac3c bf8e f43c 4705 eebc
000001d0: e8e9 32bd 21c5 3f3d 4db5 c5bc c53b b8bd
000001e0: c5f5 2dbe 8fca 383d e821 72bd 1727 843d
000001f0: baac 59bd 3f1f 603d 54c5 e03c 15f4 0bbd
0.011763318 -0.061227024 -0.20534173 -0.16100787 0.0071836566 0.087402165 0.11008483 0.07101591
-0.18449491 -0.15035322 -0.08587355 0.03926334 0.0870042 -0.32726908 -0.07732368 0.06382122
0.12896354 0.18611872 -0.14566147 0.05751273 -0.031596467 -0.07264515 -0.046662513 -0.09213701
0.066896014 -0.036182247 -0.067323856 -0.0064302175 -0.06498474 0.038009647 0.040903784 0.068728894
-0.13663878 0.07851987 0.054797247 0.055800915 -0.036940195 0.1287841 0.0647615 -0.011040127
-0.23360743 -0.059469603 0.072404124 0.06170382 -0.14923745 0.059305537 0.059271798 -0.13667275
-0.24147762 -0.09041305 -0.057991136 -0.22051236 -0.078156844 0.10978473 -0.10419831 0.067486234
-0.1459912 0.003950739 -0.10497115 0.09061985 0.04813781 -0.2822891 0.09936207 0.08369133
-0.34200463 -0.26108488 0.05525725 -0.079163656 -0.15605381 -0.00088964956 -0.18217796 0.14372762
-0.12998709 0.008634732 0.011120603 -0.24348198 0.027925363 -0.019624555 -0.17001995 -0.07618534
-0.005947744 -0.021279218 0.033437837 -0.07532578 -0.030706532 -0.030969897 0.03079062 -0.04022798
-0.11235106 0.071043976 -0.01785007 -0.26619595 -0.22162254 0.009091989 -0.08168103 -0.0043095215
-0.09953664 0.07322245 -0.3089587 0.009510415 -0.010858093 -0.0475052 -0.13321987 0.043869298
0.017197713 0.33492327 -0.05125377 0.057135064 -0.12394092 -0.049506478 0.03221456 0.03449793
0.18090168 0.02109989 0.029853223 -0.02905525 -0.0436801 0.046818856 -0.024134303 -0.08995775
-0.16988285 0.04511505 -0.059114367 0.06452768 -0.05314324 0.0547173 0.027437843 -0.03416832

actor_mean.weight f4 [2, 128]
00000000: b1df 9fbb 4917 24bd e60e 8bbd d37f 0c3e
00000010: e8e4 863d 6306 023e aa2e 4e3b 1c63 45be
00000020: d598 76be 9f4c a6bb 68ed 83bc c517 bb3d
00000030: be0f 873e 1808 4a3e eef9 b5bc d31e cb3c
00000040: 5794 383e eb31 d93d 44a9 babc 4c1c 333e
00000050: deff fcbb 8cda d1bc da70 1abe 23bb e23a
00000060: e3d6 29be 0c9e 3cbe 8c0f a43c 26a6 dbbe
00000070: f601 ca3e 96c9 d03d c8a6 893e 434c eebc
00000080: bbce 5abd 24da cf3d 9c15 b83d cda4 78bd
00000090: dfc0 8abd fb93 96bd 392b 193d 54a6 13ba
000000a0: 45a7 c8bd 2874 72bd afea b73d 6f55 503c
000000b0: 85a1 0b3e 71c2 c5bc 5495 cabd fa26 693d
000000c0: 2d35 08bb 411b ecbd a19b a03d fd31 89bd
000000d0: fd35 d8bd bfc1 d33e fac0 8fbd e1be 8c3e
000000e0: 6ddc 213e 253a a8be 88ca 25be 930a 383c
000000f0: 0a4f 94bd bc80 49be d898 413e 5eb8 4ebe
00000100: 8de2 7bbc 653a 123c 45cd 57be 69ea b1bd
00000110: d82c e7bd 476a 7dbe 295b 483d 7e24 563c
00000120: 4cc5 7a3c 992b cbbd e654 24be b535 e4bc
00000130: 1845 f33c 5d11 cfbc c977 f3bd 6245 01be
00000140: 177f 1dbe 5858 063e 4c5f dc3c f3ed 7c3e
00000150: 7f12 e8be ec21 443e 6656 1d3e 9cba 84bc
00000160: 3a28 eeba ce80 c63b f560 58be 5201 a2bd
00000170: dab7 933d c579 4fbd b15d 0a3c 1588 8dbe
00000180: fbc8 d83c 8cf4 023e 85bb 483d 0401 b73e
00000190: 80e2 813d b5e2 003e e17e 3cbc 4a5e 06be
000001a0: 4121 34bc 151d a53d a265 b0be 6b59 b53d
000001b0: dc38 44bd 76e9 02bc ded3 723c 954e 413d
000001c0: 2f4a 94ba cb6f 2a3e f15a 11be b97d 193e
000001d0: cc2e d3bc eb98 43bd 2755 e3bd 9574 393e
000001e0: b641 22bd 0184 a5be 6922 3d3d cf1c 11bc
000001f0: 13a6 fdbc 97fd 553d 7623 a2bc cf98 243d
00000200: c561 0ebd 439e 383b 556c 10bd ac10 3dbc
00000210: 7de1 16bd 23bf 28be 5a3e 6e3c cf57 803e
00000220: ac30 073e 02a0 e7bd 4d78 163e 9e53 cb3d
00000230: ad4d c73d 98d7 42be 0020 3ebd 236f 9c3d
00000240: 9cbf 023e ebc3 813e f5a6 5f3d 5c5f 0a3e
00000250: 5564 4ebd 7f16 a43e 6186 23bd 509f 033e
00000260: 505b 063f b566 203e 62dd 0d3e e217 a43e
00000270: 80bb edbd d7e4 14bc d16f 1f3d 1db8 dc3d
00000280: cd64 34be a96e 383e c617 17be f4cd ff3d
00000290: 7b63 42bc 2546 44bd 5b72 673e db8d 03be
000002a0: e9fa 5fbd b5fe 33bb 0ca3 4a3c 1cfe 42bd
000002b0: ab60 d43d 9b3e 06bc 036c d93d d01e 13bd
000002c0: 1bff 3b3e b8e2 25be 6da7 003e f7d8 49bd
000002d0: e7d1 debb 12f5 0abb d0f5 94bd cf44 053e
000002e0: 4b7a d23a 7c3f cabe 0a55 8a3e 6f49 f1be
000002f0: d9da 703d e27a 57bd f8be cd3c a8f6 4c3d
00000300: 74bf 133e 4afb b83d a7e3 a4bd d5e3 5cbe
00000310: 20d3 303d 7d15 81be bed3 b63c 5298 eb3d
00000320: 8d16 2fbe f9e8 f0bd d6ea 043e a976 e4bd
00000330: 14b6 1dbe 29e0 9d3d 454c 60be 851c e2be
00000340: c65d ec3d cba8 07bd 9b7e b9be 4305 b6be
00000350: d37f ecbd a009 f0bd 5ada 50bd 0cc8 bb3d
00000360: f7dd 073e 05c1 ccbd 1661 b03d d489 b43c
00000370: 9da8 a93e 97c8 023e 0592 84bd 83b2 663e
00000380: 636d 013e 35de 493e c4ae 223d 88af 41be
00000390: df4a 343e 65d9 0f3e 88a6 7abd bd00 813d
000003a0: 88e0 613e 1435 523e 42a6 14be 9962 d7bd
000003b0: 4c22 e6be 1c5c 8b3e 06fa d43d 1019 4c3e
000003c0: a2a1 a73d ce19 65bc 1aa2 e03d 767d e13d
000003d0: ac9a 21bc bd2b 163e ac69 01be e11f a3be
000003e0: ff42 63be 30d2 e23e 3e4e f0bd ef77 ad3d
000003f0: b3a5 973d 18b7 bcbd 0431 9dbe 475a b53d
-0.004878961 -0.04006127 -0.06789951 0.13720636 0.06586629 0.12697749 0.003146092 -0.19276088
-0.24081738 -0.005075052 -0.016104415 0.09135393 0.26379198 0.1972965 -0.022213902 0.024794972
0.18025337 0.10605224 -0.02278579 0.17491263 -0.0077209314 -0.025616907 -0.15082112 0.0017298203
-0.16585879 -0.18419665 0.020026945 -0.429002 0.3945462 0.101946995 0.26885056 -0.029089099
-0.05341981 0.10149029 0.08988497 -0.06070404 -0.067750685 -0.07352444 0.037394736 -0.000563239
-0.09797529 -0.059192806 0.08980309 0.012715681 0.13635834 -0.024140568 -0.09891763 0.056921937
-0.0020783648 -0.11528636 0.07842184 -0.06698988 -0.105571724 0.41358754 -0.07019229 0.2748938
0.15806742 -0.3285686 -0.16190541 0.01123299 -0.07241638 -0.19678015 0.18905962 -0.20187518
-0.015373838 0.008925055 -0.21074398 -0.08687288 -0.1128785 -0.24747573 0.048915062 0.013070224
0.015305828 -0.09920425 -0.16048011 -0.02785764 0.029696032 -0.025276834 -0.118880816 -0.12624124
-0.15380512 0.13119638 0.02690091 0.24700145 -0.4532661 0.19153565 0.1536499 -0.016202264
-0.0018169947 0.006057835 -0.21130736 -0.07910408 0.07212801 -0.050653238 0.008445189 -0.27642885
0.026463022 0.127886 0.049006958 0.35742962 0.063420296 0.12586482 -0.01150486 -0.13121906
-0.0109942565 0.080621876 -0.3445254 0.08854946 -0.047905788 -0.007990232 0.014821021 0.047194082
-0.0011313612 0.16644208 -0.14194848 0.14989366 -0.02577915 -0.047753256 -0.11100226 0.18110879
-0.039613448 -0.32327273 0.046175394 -0.008856966 -0.03096298 0.052243795 -0.0197923 0.040184792
-0.03476121 0.0028170503 -0.035259563 -0.011539619 -0.036836136 -0.16479163 0.014541233 0.25066993
0.1320216 -0.11309816 0.14694329 0.09928058 0.09731612 -0.19027555 -0.046417236 0.07638385
0.12768406 0.25344786 0.054602582 0.13512939 -0.050388653 0.32048413 -0.039923076 0.12853742
0.5248308 0.1566418 0.13853982 0.3204947 -0.116080284 -0.009087763 0.038924996 0.10777304
-0.17616577 0.18010963 -0.14755163 0.12490454 -0.011864538 -0.047918458 0.22602217 -0.12847082
-0.054682646 -0.002746505 0.012367975 -0.04760562 0.103700005 -0.008193637 0.10616305 -0.035918057
0.18359034 -0.16199768 0.12563868 -0.04927918 -0.0067999247 -0.0021203202 -0.072734475 0.1301453
0.0016058175 -0.3950156 0.27018005 -0.47126338 0.05880246 -0.052607425 0.025115475 0.050039917
0.14428502 0.090323046 -0.08051234 -0.21571286 0.043170094 -0.25211707 0.022317763 0.11503662
-0.17098446 -0.11763186 0.12980208 -0.11155445 -0.15401489 0.07708771 -0.21904095 -0.44162384
0.11541323 -0.033119958 -0.36229405 -0.3555089 -0.11547818 -0.11720586 -0.050989486 0.09169015
0.13268267 -0.09997753 0.08612268 0.022038378 0.33136454 0.12771831 -0.064731635 0.22529034
0.12639384 0.19713672 0.03971745 -0.18914616 0.17606686 0.14047773 -0.061193973 0.06298969
0.22058308 0.2052806 -0.14516547 -0.10516853 -0.4494804 0.2721871 0.10399251 0.19931436
0.08185126 -0.013983203 0.109684184 0.11010258 -0.009863537 0.14665122 -0.12637967 -0.3186026
-0.22193526 0.44300985 -0.117336735 0.08470141 0.074046515 -0.0921461 -0.30701458 0.0885511

actor_mean.bias f4 [2]
00000000: 52f5 31bd 8bf5 ae3c
-0.043446846 0.021357318

critic.weight f4 [1, 128]
00000000: 00eb 553e d7c9 79bf a9cb 59bf b713 283f
00000010: aeba 713f c159 cb3e 39c2 623e 6ce9 933e
00000020: b143 4ebf 126f 19bf 0dcd 043f ae85 e1be
00000030: 47fa 073f 8623 09bf ac23 33bf 5f83 d93e
00000040: ee23 0c3f 3f69 f6be 1797 8abf ee69 5d3e
00000050: 9165 813e 8b5c 203f 20af d73e 86e3 7cbf
00000060: 4bf0 b83e d14e 633e 7542 6ebf aed7 a53e
00000070: 8897 0fbe 96e0 b43e be81 d73e 47b8 503e
00000080: f625 41bf 5825 08bf 6a6f 39bf 4bf6 06bf
00000090: 0be0 22bf 437c c8be 23a5 463e 4c9c a6bf
000000a0: ef23 3ebf 95b6 14bf 2ac2 d03e 0aac f53e
000000b0: 490e 31bf 0c80 973e 7bf0 87be 9b2d 90bf
000000c0: 0ec9 6dbf c06d 95bf ad47 50bf 7918 40bf
000000d0: 24e0 0f3f 9c56 173f 281c 253f 158c 083f
000000e0: 4d15 89bf 833a 84bd b5e9 233e 669c 183e
000000f0: a931 4f3e 9e3e 43bf 840a 5dbf 5a13 ddbe
00000100: 4133 67bf c80d 3cbf f18d 72bf a1bd 433f
00000110: a45d b43e aa24 d03e a658 8cbf 0d78 dabe
00000120: 1b4d 69bf f97b 45bf 70a1 4b3e d0eb 62bf
00000130: 67f6 c63e d1ee 933e 84c2 003e e7b0 1c3f
00000140: ead2 9c3e 5a4d 0abf 4d8f 943e 9a1c d7be
00000150: e011 d73e b2e4 71be af3a 7e3e 395b 09bf
00000160: 575f 7dbf 1dcf 943e c897 8c3e 6a82 45bf
00000170: 6f37 62bf 67ed 5b3e 97bf aebf 272b 823e
00000180: 7379 71bf 0496 c23e 05db 78bf 5f17 f0be
00000190: 1a1e 413f 40ff 9ebe 6b0d fabe ee35 283e
000001a0: 5239 d23e 878f 6dbe 17ad c33e 07e0 29bf
000001b0: 7872 663d 80e5 093f 058f 973e 2268 ab3e
000001c0: 1949 0dbf 80ce 073f d2ce 3d3e ec6e 33bf
000001d0: b2dd d73e 410c 3c3e 27d6 083f 083b 233f
000001e0: 4ac2 b3bf e6c0 2abf 3d8c 573e 4e58 723e
000001f0: 2386 c0bf 9cc1 4dbf ef1b ae3e 71fb 173f
0.20890427 -0.9757361 -0.85076386 0.6565508 0.94425476 0.39716914 0.22144403 0.28889024
-0.8057204 -0.59935105 0.5187538 -0.44047302 0.5311627 -0.5356983 -0.69976306 0.4248304
0.54742324 -0.4812717 -1.0827359 0.2162244 0.25272802 0.6264121 0.42125797 -0.98784673
0.3612083 0.22198035 -0.93070155 0.32391113 -0.14022648 0.35327595 0.42091173 0.20382796
-0.7544855 -0.5318198 -0.7243563 -0.52719563 -0.6362311 -0.39157304 0.19398932 -1.3016448
-0.7427358 -0.580911 0.40773135 0.47982818 -0.6916242 0.2958988 -0.2655066 -1.1263918
-0.9288491 -1.1674118 -0.8135937 -0.7503734 0.56201386 0.5911653 0.6449609 0.5333875
-1.0709625 -0.06456473 0.16007121 0.14903411 0.20233788 -0.7626742 -0.8634417 -0.43178827
-0.9031258 -0.7345853 -0.94747835 0.76461226 0.35227692 0.40652972 -1.0964553 -0.42669716
-0.9113328 -0.7714229 0.19885802 -0.8864107 0.38859865 0.2889314 0.12574202 0.6120743
0.30629665 -0.5402428 0.2901558 -0.4201401 0.42005825 -0.23622397 0.24827074 -0.5365482
-0.989736 0.29064265 0.2745955 -0.7715212 -0.88365835 0.2147728 -1.3652219 0.25423548
-0.9432594 0.38005078 -0.972092 -0.4689283 0.75436556 -0.31054115 -0.48838362 0.16426823
0.41059357 -0.23199283 0.38217995 -0.66357464 0.05626151 0.53865814 0.29601303 0.33477885
-0.55189663 0.5304947 0.18535927 -0.7009113 0.42161328 0.1836405 0.5345177 0.6376195
-1.4043667 -0.6670059 0.2104959 0.23666498 -1.5040935 -0.8037355 0.34005687 0.59368044

exp_avg f4 [2]
00000000: 56a8 0d3b 70aa a4b9
0.0021615229 -0.00031407503

exp_avg_sq f4 [2]
00000000: c512 9d38 f3e4 a238
7.4898395e-05 7.767407e-05

exp_avg f4 [128, 31]
00000000: 11ec cfba 66cc 133a aa46 2ab9 c478 773a
00000010: 300c 33ba 8179 88b8 3580 1a3a 344f d6ba
00000020: eaca 2039 ab33 4239 b141 33b9 c6d3 53ba
00000030: 444f 2fba fa72 07ba 3001 5eba c5c2 bcb9
00000040: 718a 75b9 ef28 11ba 7a6e 02ba 020a 0637
00000050: e5ef 1bb8 fd16 5db7 ab57 9139 66c8 33b9
00000060: 39f5 84b9 8179 88b8 3c82 0cba 537d 41b8
00000070: 711c fdb9 780b e3b9 6845 edb9 3795 50b8
00000080: 1c82 65b8 1e12 05b9 9863 abb8 49d0 8bb7
00000090: aebe ca37 5b00 cb38 8190 b2b8 2cb6 32b8
000000a0: aae0 68b8 1cb8 1cb8 9306 0db8 52ee d9b7
000000b0: 6bd9 f5b7 e0c8 c5b7 680b 8b37 38e6 4bb6
000000c0: 08c0 e436 13d7 ae38 4c7e 97b7 8eac 2838
000000d0: 05d4 8537 59d0 34b7 367a 28b8 bedd 8936
000000e0: aebe ca37 9f40 2437 5455 9e37 e3e5 e537
000000f0: 2406 4a38 8651 e237 df5f a13a f5a5 5c3a
00000100: 0960 18ba ddcf 40b7 33c0 ff38 0fdf ee39
00000110: d805 e938 485a e039 10a0 a13a 582d e13a
00000120: 9979 963a 1569 583a a538 c03a 23bd a93a
00000130: ee40 a33a 540f b63a 2faf 9a3a 1e51 c13a
00000140: 94cb bb3a c073 b93a 0486 b13a 597f b03a
00000150: 2541 bb3a c52f a83a bf07 823a 0fdf ee39
00000160: 46cd 6c3a e3b3 9d3a ad36 1c3a f37e 723a
00000170: 0fb8 913a 31cf 99bb 2349 cfba b78f 4f3a
00000180: 4f1a 91ba 0f33 b93a 764e d3b9 0654 463b
00000190: 5f63 48bb 5d4a 49bb 9770 87bb a62e 1bbb
000001a0: 6dca 2eb9 9db2 07bb 53bd d9ba ab79 d7ba
000001b0: 4709 40bb 605c 1bbb fbcb 32bb 8092 12bb
000001c0: 5bdc 5abb b282 29bb 33b0 8bba 696e 97bb
000001d0: 0e7e 09bb 1cb0 feba 764e d3b9 521e 14bb
000001e0: 828d 44bb bf36 b5b9 6d76 aeba c2cb 05bb
000001f0: f0ae f339 64f2 673a 3056 6b39 7c2e e539
00000200: 0119 b5b9 fe22 b839 ffa4 76ba 9f6c a9b8
00000210: af6b 983a 2ed4 9e3a 082e 763a 120d 3c3a
00000220: 6f7e 473a bdbd 573a 147f de39 29da 3c3a
00000230: 57f1 213a af9a 3d3a d9d1 193a 63b0 8b3a
00000240: 671c 553a 6721 653a de33 8e3a d31c 843a
00000250: 0968 1e3a fe22 b839 647b e239 57e6 263a
00000260: e0ae a139 7437 8e39 c859 e339 f230 8e38
00000270: f332 0a38 7378 c6b8 6ce2 92b7 a32c 00b8
00000280: 2c98 3a38 9b83 9f38 83c6 ceb8 2f2c af38
00000290: f8cd 5538 9ad6 6838 a6bb 9e38 d430 df38
000002a0: 348e cb38 5312 d938 f39c 1339 1351 fa38
000002b0: bffc 1d39 86f3 0039 b38b ec38 3df9 ce38
000002c0: 2340 ce38 4554 b238 e6d7 bc38 5d51 a238
000002d0: 2c98 3a38 2fd0 c438 2349 0739 aa6a 9038
000002e0: 109d e038 98f2 e738 2e58 5e3a cb3e c9ba
000002f0: 161b 89b8 8ee3 09ba 34f6 8b39 78b9 bbb9
00000300: 880c 8939 126f db3a 503e 81ba 07c4 86ba
00000310: 6c33 6cba 5cdc acb9 2f8a deb9 639c deb9
00000320: dcb2 d1b8 5ccc 82ba 1dbd 5eba d286 5cba
00000330: 1e42 56ba 34d1 63ba ea2c 74ba 86cf 24ba
00000340: f7b2 afba 8f74 4bba cc67 1cba 78b9 bbb9
00000350: f631 a6b9 24a4 30ba b7e5 22b9 d027 54b9
00000360: 05fb e4b9 6324 4eba e44d 3aba 34fb d93a
00000370: da35 31ba 7bb7 483a a844 6439 81be 4f3a
00000380: 4870 4bba e4dd eeb9 c7f0 6fba ad69 a1b6
00000390: 6901 583a 07de 8a39 9aae 5d39 9cf8 173a
000003a0: de81 5137 70a7 3a39 7b18 ed37 d50b 8c39
000003b0: 4575 7cb9 0de9 78b9 c369 013a 83d0 86ba
000003c0: d220 8138 1548 7939 a844 6439 a104 8eb9
000003d0: 2764 5aba 0314 053a 9a87 2d38 64ca 4bb9
000003e0: 0441 193a 6cc0 b939 1139 adba 67fa 2239
000003f0: b166 32ba 495b 6139 14d0 50b9 7f29 8239
-0.00158632 0.0005638063 -0.00016238788 0.0009440298 -0.0006830124 -6.507617e-05 0.0005893738 -0.0016350509
0.0001533438 0.0001852053 -0.00017095242 -0.0008080568 -0.0006687532 -0.0005166974 -0.0008468805 -0.0003600327
-0.00023416594 -0.00055374106 -0.0004975569 7.9893525e-06 -3.71783e-05 -1.3177979e-05 0.00027721873 -0.00017145424
-0.00025359707 -6.507617e-05 -0.00053599826 -4.6131503e-05 -0.0004827711 -0.0004330536 -0.00045255874 -4.973003e-05
-5.471903e-05 -0.00012690618 -8.172466e-05 -1.6667082e-05 2.4169069e-05 9.6798605e-05 -8.5146174e-05 -4.2608168e-05
-5.5522345e-05 -3.7364764e-05 -3.3623142e-05 -2.5979392e-05 -2.9307519e-05 -2.357777e-05 1.6575403e-05 -3.0383362e-06
6.817285e-06 8.337027e-05 -1.8059414e-05 4.0215025e-05 1.5953565e-05 -1.0777346e-05 -4.016814e-05 4.1087324e-06
2.4169069e-05 9.7902075e-06 1.8874802e-05 2.7405977e-05 4.8166272e-05 2.6979262e-05 0.0012311897 0.00084170635
-0.000581265 -1.1492489e-05 0.000121951474 0.0004556109 0.00011111394 0.00042791874 0.0012331028 0.0017179651
0.0011480331 0.00082554045 0.0014665319 0.0012950044 0.0012455264 0.0013890066 0.0011801476 0.0014748906
0.0014327639 0.0014148876 0.0013543968 0.0013465687 0.0014286382 0.0012831619 0.0009920521 0.0004556109
0.00090332737 0.001203176 0.0005959075 0.0009250484 0.0011117476 -0.0046938886 -0.0015814643 0.00079178385
-0.0011070463 0.0014129597 -0.00040303514 0.0030262484 -0.0030576808 -0.003071449 -0.004133295 -0.0023678928
-0.00016669343 -0.0020705827 -0.0016612209 -0.0016439458 -0.0029302405 -0.0023706183 -0.0027282226 -0.0022365153
-0.0033395502 -0.0025865254 -0.001065737 -0.004621316 -0.0020979675 -0.0019431147 -0.00040303514 -0.002260108
-0.0029991572 -0.000345638 -0.001331044 -0.0020415639 0.0004647891 0.00088480697 0.00022443454 0.00043712917
-0.0003454164 0.00035121286 -0.00094087416 -8.07878e-05 0.0011628772 0.0012117678 0.00093910145 0.00071735785
0.00076100876 0.00082298723 0.0004243782 0.0007204139 0.0006177625 0.00072328275 0.00058677566 0.0010657426
0.00081295375 0.0008740634 0.0010849198 0.0010079391 0.0006042724 0.00035121286 0.00043198012 0.0006366721
0.00030838605 0.00027125666 0.00043363706 6.7802044e-05 3.2949214e-05 -9.463811e-05 -1.7509992e-05 -3.055915e-05
4.4487577e-05 7.606224e-05 -9.859821e-05 8.35288e-05 5.097498e-05 5.5512974e-05 7.568979e-05 0.000106425636
9.706282e-05 0.000103507795 0.0001407748 0.0001193603 0.00015066842 0.00012297751 0.00011279378 9.86927e-05
9.834792e-05 8.503398e-05 9.004753e-05 7.739917e-05 4.4487577e-05 9.3847855e-05 0.00012901849 6.886323e-05
0.000107104075 0.00011060125 0.0008481768 -0.0015353797 -6.537714e-05 -0.00052600435 0.00026695582 -0.00035805604
0.00026140013 0.0016741476 -0.000986049 -0.0010281809 -0.0009010348 -0.00032970577 -0.00042446094 -0.00042459657
-9.999212e-05 -0.0009979117 -0.0008496808 -0.0008412424 -0.00081733044 -0.00086905365 -0.0009314554 -0.0006287027
-0.0013404776 -0.0007761204 -0.00059663947 -0.00035805604 -0.0003169921 -0.0006738326 -0.000155351 -0.00020232727
-0.00043674573 -0.00078636984 -0.00071069435 0.001663065 -0.00067600387 0.0007656735 0.00021769351 0.00079248106
-0.00077605667 -0.0004556022 -0.0009153005 -4.810476e-06 0.0008239956 0.00026486834 0.00021141247 0.00057972386
1.2487608e-05 0.00017800718 2.8264001e-05 0.00026711696 -0.00024076279 -0.00023737941 0.0004936719 -0.001028553
6.1573126e-05 0.00023773343 0.00021769351 -0.000270878 -0.0008330964 0.00050765293 4.1372703e-05 -0.00019434985
0.0005846175 0.00035429315 -0.001321586 0.00015542806 -0.00068054633 0.00021491678 -0.00019913941 0.0002482645
